trained_models/gru_k2.pt (torch, 711447 bytes, 26 tensors)

rnn.weight_ih_l0 f4 [192, 3]
-0.14397845 -0.023952074 -0.3106261 -0.100140385 -0.049660314 0.046166115 -0.09356659 0.05638984
0.044151325 -0.089822516 -0.12476262 -0.15379614 -0.086386405 0.055641603 0.021777611 -0.195815
0.029274028 -0.00715823 0.021307603 0.11379179 0.036816224 -0.051736407 -0.09824347 -0.20930558
-0.18389362 -0.007419988 0.04789722 -0.14781812 -0.03127971 -0.14470825 -0.03664065 0.01766874
-0.118019775 0.107084595 0.07799862 0.03323678 0.0064010015 0.04010043 -0.13808924 -0.08077293
-0.06566159 0.044634912 0.29595727 0.086563535 0.2792262 -0.18680039 0.042557854 -0.023611536
-0.043425944 -0.06363948 0.037999954 -0.069773614 -0.09764447 -0.25832388 -0.26387388 0.073290616
0.083444886 -0.09546612 -0.051148064 0.030171381 -0.121325254 -0.018132465 -0.060178332 -0.1207651
-0.06919042 -0.047453254 -0.08617591 -0.047365174 0.015200209 -0.18053654 -0.07809818 -0.06497739
-0.00086873263 -0.065527834 0.14097585 0.004695496 -0.058520176 -0.124736115 -0.23872669 -0.07163085
-0.16417748 -0.18372409 0.036318712 0.09767496 0.401687 -0.2429019 -0.13859142 0.37603846
-0.14176038 -0.12033842 -0.117303774 -0.023288636 -0.043442294 -0.044644866 -0.07082355 -0.020318607
-0.18074267 -0.14062296 0.097640485 -0.40417874 0.49592963 -0.11767086 -0.15720113 0.04852184
-0.030968169 -0.17927134 0.046784453 0.040245235 -0.10043375 -0.07614659 -0.13603589 -0.16233966
-0.061544426 0.055305492 -0.12353701 -0.031975746 0.008123948 -0.122295596 0.047932826 -0.19020176
-0.084453255 -0.061582632 0.4194717 -0.19676434 -0.101496786 0.18395294 -0.08151693 -0.04308029
-0.16754715 -0.15405588 -0.037337594 -0.1195866 -0.21702781 0.0845472 -0.07891648 -0.1452242
0.0560879 -0.1156682 -0.0686383 -0.07355126 0.035645902 0.18727857 -0.13088952 -0.115945324
-0.009832713 -0.071736805 -0.034129974 -0.15456407 0.06571931 -0.24513426 -0.098762184 0.015753215
-0.04663884 -0.21579774 0.09213581 -0.14886677 -0.13907169 0.06761193 -0.21820673 -0.15275109
0.07561186 0.05641529 0.105307624 0.007725806 0.0052395808 -0.055255607 0.01001633 0.1541899
-0.15734981 0.018243507 -0.26110628 -0.13425307 0.009963605 -0.15687947 -0.06962081 0.016738383
-0.10055031 -0.16603552 0.08422127 -0.20545518 -0.25057584 -0.044046868 0.12655969 -0.031868488
-0.0036629157 0.03392953 -0.1583948 -0.1490302 -0.100724526 -0.088612996 -0.1561468 -0.11182868
-0.052632116 -0.023667786 0.28512222 -0.07581715 -0.24644627 -0.24975616 -0.1231807 -0.17253053
-0.210043 -0.27457172 0.3632256 0.05947028 -0.0060266824 0.193241 -0.14449078 -0.04716044
0.052785404 -0.0887906 -0.08875393 0.092642576 0.017456464 -0.35579345 -0.011022535 -0.0615289
-0.15638883 -0.27209046 -0.31895015 -0.007068025 -0.14021708 -0.018934174 -0.08554358 0.34554312
-0.071767956 0.05442806 0.14173895 -0.01392366 -0.11721053 -0.17390269 0.17515022 -0.28294015
-0.25228357 -0.14420274 0.23380953 0.14549096 0.08654191 -0.18445049 0.0022595625 0.20935486
-0.00738938 -0.18515533 -0.23631763 -0.08853646 -0.18379529 0.14975967 -0.10713785 0.18724951
-0.11757728 0.03570631 -0.25517422 -0.16258425 0.08680527 -0.12862357 0.025202887 -0.11447493
00000000: 166f 13be 2437 c4bc 620a 9fbe 6716 cdbd
00000010: 9d68 4bbd ae18 3d3d d79f bfbd 08f9 663d
00000020: 05d8 343d def4 b7bd 8b83 ffbd bc7c 1dbe
00000030: 5beb b0bd 73e8 633d f666 b23c ba83 48be
00000040: 16d0 ef3c 968f eabb 488d ae3c ac0b e93d
00000050: 9ccc 163d 8ee9 53bd df33 c9bd 3454 56be
00000060: 9c4e 3cbe 5f23 f3bb e02f 443d a25d 17be
00000070: 271f 00bd 662e 14be 8214 16bd 09be 903c
00000080: 5ab4 f1bd 2b4f db3d bebd 9f3d 4a23 083d
00000090: 7ebf d13b 5940 243d 4467 0dbe 476c a5bd
000000a0: 9579 86bd 19d3 363d b687 973e 3948 b13d
000000b0: bdf6 8e3e 9a48 3fbe 2551 2e3d fb6c c1bc
000000c0: 67df 31bd 6a55 82bd d7a5 1b3d 78e5 8ebd
000000d0: d3f9 c7bd 0743 84be 7a1a 87be 6419 963d
000000e0: 27e5 aa3d be83 c3bd a280 51bd f929 f73c
000000f0: 6079 f8bd 898a 94bc 8e7d 76bd b153 f7bd
00000100: b5b3 8dbd 585e 42bd ff7c b0bd fc01 42bd
00000110: 4c0a 793c 92de 38be f0f1 9fbd de12 85bd
00000120: a9bb 63ba 7533 86bd f95b 103e addc 993b
00000130: dab2 6fbd a675 ffbd c574 74be 32b3 92bd
00000140: 241e 28be 2b22 3cbe eec2 143d cf09 c83d
00000150: eba9 cd3e 47bb 78be e9ea 0dbe 1d88 c03e
00000160: a229 11be fd73 f6bd f63c f0bd cfc7 bebc
00000170: 8cf0 31bd 89dd 36bd f00b 91bd 3573 a6bc
00000180: 9b14 39be 77ff 0fbe bcf7 c73d 84f0 cebe
00000190: 7dea fd3e 6bfd f0bd 55f9 20be d6be 463d
000001a0: f5b0 fdbc e892 37be 0ea1 3f3d 30d8 243d
000001b0: 36b0 cdbd bef2 9bbd fe4c 0bbe 5e3c 26be
000001c0: 0216 7cbd 0388 623d f900 fdbd 00f9 02bd
000001d0: 4f1a 053c 1d76 fabd 3655 443d 40c4 42be
000001e0: d4f5 acbd 123e 7cbd ffc4 d63e 977c 49be
000001f0: 8cdd cfbd 295e 3c3e 59f2 a6bd f574 30bd
00000200: 7b91 2bbe d3c0 1dbe 4eef 18bd d2e9 f4bd
00000210: 8a3c 5ebe 1527 ad3d f79e a1bd a7b5 14be
00000220: 6dbc 653d 73e3 ecbd 3d92 8cbd 0ba2 96bd
00000230: 7001 123d f4c5 3f3e e707 06be be74 edbd
00000240: 6319 21bc bfea 92bd dfcb 0bbd 0b46 1ebe
00000250: d897 863d 7a04 7bbe d443 cabd e30c 813c
00000260: 5e08 3fbd 15fa 5cbe b3b1 bc3d 8870 18be
00000270: cf68 0ebe 2078 8a3d 9671 5fbe c86a 1cbe
00000280: 64da 9a3d b813 673d 86ab d73d c228 fd3b
00000290: cab0 ab3b b453 62bd 881b 243c f5e3 1d3e
000002a0: 4f20 21be 6873 953c b9af 85be a379 09be
000002b0: 633e 233c 03a5 20be 5b95 8ebd ef1e 893c
000002c0: 52ed cdbd 3705 2abe 347c ac3d d862 52be
000002d0: 7a4b 80be 7d6a 34bd dd98 013e 8888 02bd
000002e0: 870d 70bb b1f9 0a3d 3f32 22be 5f9b 18be
000002f0: a948 cebd bb7a b5bd f2e4 1fbe 6f06 e5bd
00000300: c694 57bd f2e2 c1bc 8afb 913e 0646 9bbd
00000310: 695c 7cbe 14c0 7fbe 2a46 fcbd d8ab 30be
00000320: 8315 57be aa94 8cbe b5f8 b93e 1c97 733d
00000330: 7a7b c5bb f8e0 453e 64f5 13be 4e2b 41bd
00000340: 8235 583d d9d7 b5bd 9fc4 b5bd 64bb bd3d
00000350: dc00 8f3c 8f2a b6be dd97 34bc ba05 7cbd
00000360: 6524 20be 714f 8bbe 6f4d a3be e49a e7bb
00000370: 1195 0fbe d71b 9bbc 7931 afbd 07eb b03e
00000380: 14fb 92bd f5ef 5e3d 0424 113e 1020 64bc
00000390: 130c f0bd 8c13 32be 945a 333e 88dd 90be
000003a0: 502b 81be e2a9 13be c46b 6f3e 95fb 143e
000003b0: e33c b13d 97e0 3cbe 2b15 143b 1f61 563e
000003c0: 9d22 f2bb 5c99 3dbe 40fd 71be 9b52 b5bd
000003d0: d534 3cbe 995a 193e 176b dbbd 56be 3f3e
000003e0: 5bcc f0bd c840 123d 32a6 82be 7c7c 26be
000003f0: f6c6 b13d e6b5 03be 4976 ce3c d571 eabd

rnn.weight_hh_l0 f4 [192, 64]
0.18286498 0.17558156 -0.07638255 0.06835305 0.08819095 0.07153663 0.03138144 0.23788586
0.11907941 0.040685702 -0.18051109 -0.055590834 -0.0028655077 -0.09296859 0.011819688 -0.071805134
0.19246672 0.059850164 -0.13760708 -0.10925191 -0.009903278 0.011302289 -0.14548123 0.048237126
-0.13834216 -0.059121434 0.027462956 -0.08582196 0.24407582 0.22931853 0.015624032 -0.15291497
0.14037311 -0.13400854 -0.16693972 0.0010607574 0.07220119 0.16639228 -0.0768778 0.023222718
-0.10889036 0.06449757 0.03984483 0.085420296 -0.010090595 -0.09349625 0.11625121 -0.15929724
0.19465683 -0.021875704 -0.040257778 -0.108957455 0.050131164 -0.07092542 0.16585204 0.010359172
-0.023354726 0.052753724 -0.052680254 0.010268262 0.1767883 0.057482097 0.14855039 -0.15330923
0.0032680202 0.064560145 -0.012769996 0.1497181 -0.013083868 0.032563057 -0.11239772 -0.03813246
0.051632315 0.03613474 0.058073614 0.082723506 -0.0011669197 -0.10735639 -0.19159642 0.023724915
0.07422904 0.034755226 -0.02532065 -0.028776588 0.11995608 0.010538063 -0.016935477 0.009602042
-0.07299017 -0.028777514 -0.012329832 -0.0075824233 0.116191104 0.07308819 -0.025127528 -0.07952536
0.11056487 -0.24991785 -0.10957452 -0.01905169 -0.02363832 0.11474485 -0.03231829 0.09557307
-0.079279914 0.0323839 -0.09344973 -0.0037416879 -0.005492772 -0.023069466 0.06765958 0.048410747
-0.029625135 0.026808843 -0.091333896 0.10910051 -0.001985874 -0.02111682 -0.0461597 0.040627163
-0.01642175 0.102149494 0.02942303 -0.06730315 0.04287631 -0.05961052 0.010308112 -0.1590883
-0.020879028 0.037860855 -0.11660181 0.0896991 0.008806009 -0.060767382 -0.13196622 0.011989663
0.13152324 -0.09435087 0.038971562 0.10572298 0.0025061904 -0.11355558 -0.15626691 -0.045061927
0.011953457 0.033324227 -0.07699528 -0.013267664 0.012359767 -0.011498821 0.0011673336 0.03390362
-0.03240778 -0.06392881 0.082643926 -0.10029672 0.18468921 -0.12320142 0.112531275 -0.06789066
0.023299335 -0.1881427 -0.13182692 -0.012753215 -0.048890676 0.07974143 -0.024701104 0.010167851
-0.1052569 0.07928909 0.05358261 0.0630645 -0.102701806 -0.062279917 0.01576914 -0.026892802
0.06577081 0.015224077 0.049992036 -0.0048008645 0.06676669 -0.08742312 -0.0767897 0.039745033
0.030505313 -0.012407671 -0.019516373 0.044663344 0.0021139374 -0.06136626 0.07507481 -0.029589841
0.40066633 -0.051296633 0.37044728 -0.34820443 0.11623285 -0.30397564 -0.07578892 0.10521188
-0.1429665 0.3743621 0.22551423 -0.06691389 -0.40685678 0.3810118 -0.5102211 0.4575086
-0.31073663 0.35500848 0.41307577 0.26703593 0.3753652 0.39137185 0.06607104 -0.5246602
-0.13455755 -0.38406596 -0.07558842 0.1571161 0.089687735 -0.18713096 0.358832 -0.09863672
0.100849256 0.3560629 0.35927954 0.4930817 0.44314632 -0.15667386 0.3929904 0.46187302
-0.22485083 0.3243377 -0.40437523 -0.27984518 0.42664015 0.4520667 0.013808496 0.38603604
0.16641155 0.43337414 -0.37212497 0.51857966 -0.28103888 0.37696213 -0.250205 0.2724383
-0.45132396 0.4573394 0.4472235 -0.45879844 -0.3560541 0.41300067 0.038450133 -0.33785316
00000000: f540 3b3e a7cb 333e 746e 9cbd affc 8b3d
00000010: 759d b43d cc81 923d d389 003d 5a98 733e
00000020: e8df f33d 0da6 263d e6d7 38be 37b3 63bd
00000030: 3ecb 3bbb 5166 bebd 5da7 413c 920e 93bd
00000040: ff15 453e 7225 753d dfe8 0cbe 77bf dfbd
00000050: 5c41 22bc 3c2d 393c 08f9 14be 4b94 453d
00000060: 91a9 0dbe 5129 72bd fef9 e03c 6cc3 afbd
00000070: 03ef 793e 7ad2 6a3e f1fb 7f3c be95 1cbe
00000080: f8bd 0f3e 8939 09be 3ff2 2abe 1d09 8b3a
00000090: 38de 933d bd62 2a3e 1c72 9dbd 923d be3c
000000a0: e901 dfbd 4d17 843d 5534 233d d6f0 ae3d
000000b0: 0653 25bc f67a bfbd 1d15 ee3d d11e 23be
000000c0: 1f54 473e ad34 b3bc 57e5 24bd 1625 dfbd
000000d0: 5656 4d3d 5941 91bd 1ed5 293e 84b9 293c
000000e0: 6952 bfbc 4a14 583d 40c7 57bd 363c 283c
000000f0: fe07 353e 5972 6b3d 981d 183e 18fd 1cbe
00000100: 482c 563b 1c38 843d 3f39 51bc b44f 193e
00000110: b85d 56bc d760 053d c730 e6bd c830 1cbd
00000120: 687c 533d 0502 143d 99de 6d3d f16a a93d
00000130: 54f3 98ba abdd dbbd da31 44be c15a c23c
00000140: 6505 983d 7f5b 0e3d 406d cfbc e1bc ebbc
00000150: 89ab f53d d7a7 2c3c 45bc 8abc e251 1d3c
00000160: df7b 95bd d2be ebbc 1003 4abc fa75 f8bb
00000170: 9af5 ed3d 43af 953d 3fd8 cdbc 31de a2bd
00000180: d66f e23d 77ea 7fbe 9b68 e0bd 4a12 9cbc
00000190: 26a5 c1bc 59ff ea3d 2f60 04bd d0bb c33d
000001a0: 825d a2bd fba4 043d 9262 bfbd 1b37 75bb
000001b0: b6fc b3bb 2dfc bcbc 1b91 8a3d 594a 463d
000001c0: 69b0 f2bc 389e db3c 440d bbbd 1770 df3d
000001d0: 7025 02bb 2efd acbc f411 3dbd ab68 263d
000001e0: e886 86bc c133 d13d 9108 f13c 3cd6 89bd
000001f0: 129f 2f3d 292a 74bd 5be3 283c 0be8 22be
00000200: 7f0a abbc fc13 1b3d eecc eebd 29b4 b73d
00000210: 1447 103c 38e7 78bd 2722 07be 4b70 443c
00000220: 07ae 063e 073b c1bd a5a0 1f3d 4a85 d83d
00000230: e63e 243b d48f e8bd 6f04 20be db92 38bd
00000240: 6fd8 433c fc7e 083d b4af 9dbd 9e60 59bc
00000250: 9f80 4a3c 8d65 3cbc 3701 993a 86de 0a3d
00000260: 05be 04bd 1ced 82bd 3841 a93d 5e68 cdbd
00000270: 2b1f 3d3e 0751 fcbd cc76 e63d 420a 8bbd
00000280: 3fde be3c 7ba8 40be a3fd 06be dcf2 50bc
00000290: 9741 48bd 7a4f a33d f859 cabc 0f97 263c
000002a0: ee90 d7bd 5262 a23d 7079 5b3d f627 813d
000002b0: 5355 d2bd 3a19 7fbd 492e 813c 4b4e dcbc
000002c0: d9b2 863d 686e 793c 73c4 4c3d 9250 9dbb
000002d0: f9bc 883d e50a b3bd eb43 9dbd b0cb 223d
000002e0: 47e6 f93c 8b49 4bbc cde0 9fbc e9f0 363d
000002f0: fc89 0a3b 305b 7bbd d2c0 993d 6566 f2bc
00000300: 2324 cd3e 6b1c 52bd 44ab bd3e da47 b2be
00000310: 7d0b ee3d b2a2 9bbe 3937 9bbd 5379 d73d
00000320: cf65 12be 64ac bf3e 34ed 663e 260a 89bd
00000330: 884f d0be fb13 c33e da9d 02bf 913e ea3e
00000340: df18 9fbe acc3 b53e ab7e d33e efb8 883e
00000350: de2f c03e e461 c83e 4150 873d 2250 06bf
00000360: 74c9 09be 4ba4 c4be 1ace 9abd 0be3 203e
00000370: 34ae b73d 429f 3fbe d4b8 b73e 0c02 cabd
00000380: 0e8a ce3d e04d b63e 7df3 b73e 3475 fc3e
00000390: 13e4 e23e 1d6f 20be 0a36 c93e 9f7a ec3e
000003a0: 4c3f 66be 970f a63e 450a cfbe de47 8fbe
000003b0: 9470 da3e 4975 e73e 083d 623c 84a6 c53e
000003c0: ca67 2a3e 37e3 dd3e 2a87 bebe a3c1 043f
000003d0: 54e4 8fbe 2e01 c13e df1a 80be 087d 8b3e
000003e0: ef13 e7be 6428 ea3e 7bfa e43e a1e7 eabe
000003f0: b94c b6be d374 d33e e37d 1d3d 17fb acbe

rnn.bias_ih_l0 f4 [192]
0.020753864 -0.0010133425 -0.046781268 -0.5476589 0.13353287 0.00096141413 0.4798102 0.049560234
-0.058990333 -0.04732409 0.18609989 -0.15503712 -0.005964779 0.0053945608 0.43056175 -0.030365884
0.010945028 0.009689189 -0.035839144 -0.04359106 -0.054448657 0.024430243 -0.018740697 0.055900954
0.033232775 0.020691942 -0.051453184 -0.08698188 0.32304963 -0.06442186 0.03462561 0.025121003
0.03988291 -0.008575448 0.006315567 0.036815643 0.021530027 0.01744008 -0.033777807 -0.023285978
0.56849897 0.295604 0.17343035 -0.02532183 -0.0074170986 -0.011408035 0.01904418 -0.081154324
0.07309806 -0.022475736 -0.012307482 -0.10322296 -0.08451486 -0.028309694 0.10489073 0.004642066
0.02052845 -0.04809344 -0.062104054 -0.047193784 -0.05287973 0.016483396 -0.012733224 0.05628547
-0.7414128 -0.94907075 -0.8036727 0.73455334 -1.5835899 -0.54991364 0.61361057 -1.1684887
-0.48712096 -0.8765979 -1.8278493 -0.008805002 -0.94987345 -0.81456727 0.6176663 -0.80667204
-1.0354882 -0.6895702 -0.8767927 -0.9356094 -0.94613606 -0.66559327 -0.82511455 -0.7665275
-0.88658804 -0.7680924 -0.4875175 -0.5503978 0.56287646 -0.09511135 -0.8425814 -0.9951944
-0.91704464 0.8385686 -0.78083634 -0.7116833 -0.82906574 -0.75863695 -0.9295952 -1.026191
0.38121703 0.66058695 -1.9555231 -0.8657571 -0.7472106 -0.73357743 -1.0047146 0.60959136
-1.178129 -0.8182112 -0.9193062 -0.7484891 -0.48767963 -0.84785944 -1.6031517 -0.7202715
-0.91182435 -0.9787323 -0.8510944 -0.84425074 -0.9232208 -0.7888453 -0.87574613 -0.79736805
0.0016523905 0.003176121 -0.013731854 -0.018519064 0.003961787 0.002685559 0.0014424612 -0.008128814
0.0015760082 -0.00024682313 0.0046770805 0.0017585583 6.163266e-05 -0.011003596 -0.0027971996 0.003138037
0.00437442 0.010584888 -0.008985791 -0.00076292857 0.0015660422 -0.0050308686 -0.003968901 0.01656813
-0.010224504 -0.0036603964 -0.0092439065 -0.0045888084 0.007059063 0.0030905101 -0.0070881057 0.0011574269
0.0003993762 -0.011627937 -0.005613513 -0.0033218015 -0.00026820818 0.009041248 -0.003346305 -0.0010512179
-0.001145749 -0.0022851545 -0.0021372794 0.006750892 0.00043146833 -0.0152699 0.008253365 0.008997394
-0.0030142167 0.0038479185 0.0021225726 -0.00048392513 0.004423696 -0.012279619 0.012778932 -0.0019632229
0.0027960415 0.00463987 -0.011856909 -0.0008297154 -0.008732315 -0.0020254138 -0.0043520075 -0.004402603
00000000: 0204 aa3c 22d2 84ba b79d 3fbd 6033 0cbf
00000010: d7bc 083e 6907 7c3a afa9 f53e acff 4a3d
00000020: d99f 71bd e8d6 41bd f890 3e3e 0dc2 1ebe
00000030: 3174 c3bb dbc4 b03b 9772 dc3e e0c1 f8bc
00000040: c652 333c 67bf 1e3c 11cc 12bd 8a8c 32bd
00000050: 8e05 5fbd ef21 c83c 1786 99bc 66f8 643d
00000060: 171f 083d 2682 a93c 93c0 52bd 8e23 b2bd
00000070: c366 a53e 9cef 83bd 95d3 0d3d 90ca cd3c
00000080: 435c 233d 0980 0cbc d1f2 ce3b 00cc 163d
00000090: bd5f b03c 80de 8e3c 995a 0abd 3cc2 bebc
000000a0: 2689 113f 6859 973e ba97 313e ba6f cfbc
000000b0: 220b f3bb c4e8 3abc 8a02 9c3c 3d34 a6bd
000000c0: 70b4 953d 091f b8bc 52a5 49bc 8f66 d3bd
000000d0: 2016 adbd bbe9 e7bc f3d0 d63d 791c 983b
000000e0: 482b a83c a0fd 44bd d260 7ebd 454e 41bd
000000f0: 6a98 58bd 3008 873c 039f 50bc 988b 663d
00000100: 3bcd 3dbf 4df6 72bf 7ebd 4dbf b00b 3c3f
00000110: 13b3 cabf 24c7 0cbf 9515 1d3f 0a91 95bf
00000120: eb67 f9be b868 60bf f7f6 e9bf db42 10bc
00000130: e82a 73bf 7b87 50bf 611f 1e3f 0f82 4ebf
00000140: e18a 84bf ac87 30bf 7d75 60bf 1984 6fbf
00000150: f935 72bf 5264 2abf b53a 53bf 253b 44bf
00000160: 6ff7 62bf b4a1 44bf e59b f9be dfe6 0cbf
00000170: ac18 103f bdc9 c2bd 6ab3 57bf 0fc5 7ebf
00000180: 70c3 6abf 6fac 563f e4e4 47bf e030 36bf
00000190: a73d 54bf 0836 42bf f3f9 6dbf 3a5a 83bf
000001a0: e12e c33e 3a1c 293f 954e fabf 42a2 5dbf
000001b0: 3249 3fbf bbcb 3bbf 7d9a 80bf 2e0e 1c3f
000001c0: eecc 96bf 4a76 51bf a757 6bbf fb9c 3fbf
000001d0: 25b1 f9be 510d 59bf 1334 cdbf b763 38bf
000001e0: 526d 69bf 338e 7abf 53e1 59bf d120 58bf
000001f0: 3358 6cbf c4f1 49bf e630 60bf 5020 4cbf
00000200: 0695 d83a 7826 503b 92fb 60bc 4bb5 97bc
00000210: e1d1 813b 3400 303b f710 bd3a b82e 05bc
00000220: 0f92 ce3a 0a68 81b9 3242 993b 6d7f e63a
00000230: c840 8138 6d48 34bc 3951 37bb 86a7 4d3b
00000240: 4b57 8f3b 3d6c 2d3c 2439 13bc 45ff 47ba
00000250: a843 cd3a fcd9 a4bb 8e0d 82bb e3b9 873c
00000260: ae84 27bc 43e3 6fbb c173 17bc b75d 96bb
00000270: b64f e73b 288a 4a3b 5743 e8bb cdb4 973a
00000280: 5e63 d139 1a83 3ebc 8ff1 b7bb 95b2 59bb
00000290: 4b9e 8cb9 be21 143c af4d 5bbb 05c9 89ba
000002a0: f52c 96ba 88c2 15bb 9911 0cbb 9636 dd3b
000002b0: b336 e239 9a2e 7abc 1f39 073c ce69 133c
000002c0: 2a8a 45bb 5c2d 7c3b dc1a 0b3b 55b7 fdb9
000002d0: a7f4 903b 7530 49bc ba5e 513c 6aa9 00bb
000002e0: cb3d 373b 0d0a 983b 7b43 42bc 4281 59ba
000002f0: fc11 0fbc cebc 04bb 499b 8ebb b643 90bb

rnn.bias_hh_l0 f4 [192]
0.011844807 -0.0058116424 -0.0442996 -0.54146355 0.12319536 -0.0014308457 0.46766758 0.04857957
-0.07127046 -0.044443883 0.18837598 -0.14194134 -0.011675289 0.006194644 0.439576 -0.020175455
0.0051509566 0.0052337307 -0.034404162 -0.038135514 -0.054869603 0.021189341 -0.0063880957 0.058026377
0.04412074 0.02345299 -0.042940155 -0.082168505 0.3233088 -0.07582705 0.03021289 0.024885263
0.042760704 -0.003096413 0.01230166 0.043870322 0.01898807 0.023257772 -0.04090844 -0.033483177
0.58145666 0.29230982 0.17450234 -0.017211929 -0.0009820567 -0.0085458215 0.01901212 -0.087141745
0.08215885 -0.029159417 -0.019298872 -0.1010926 -0.09386548 -0.025119536 0.09469739 0.012034066
0.027466008 -0.05108222 -0.05028332 -0.050623015 -0.049299013 0.007046531 -0.023271812 0.05875676
-0.7479203 -0.95473474 -0.8105932 0.7313098 -1.5875894 -0.5545927 0.6106775 -1.1846104
-0.49456075 -0.8722754 -1.829761 -0.004090009 -0.9406186 -0.8127977 0.6181574 -0.7974198
-1.030536 -0.6801617 -0.8584954 -0.9262307 -0.94392556 -0.6669269 -0.8236232 -0.7752365
-0.890945 -0.76403373 -0.50013113 -0.5445278 0.5648588 -0.099658266 -0.8384559 -0.9992647
-0.927654 0.8367152 -0.79394007 -0.71773964 -0.8279774 -0.75692177 -0.9176939 -1.0256215
0.38374346 0.6684034 -1.957925 -0.86269087 -0.7439807 -0.73747426 -1.020666 0.6024576
-1.1814265 -0.8137125 -0.923049 -0.75841326 -0.48766887 -0.842415 -1.5964583 -0.72173685
-0.9071852 -0.97574645 -0.8437354 -0.8574384 -0.92405105 -0.7842717 -0.8857941 -0.79240274
-0.003645937 -0.008062399 0.027731588 0.09157938 -0.000119474775 -0.004675592 0.0032149337 0.017868383
0.00582758 0.011558228 -0.008933082 0.0051142126 0.00636208 0.03587389 0.006162031 -0.0009824074
-0.016369069 -0.00805298 0.026285598 0.0020341817 0.0006827735 0.020769428 0.004696981 -0.030570174
0.01966861 0.006714757 0.020887153 0.004498168 -0.0075001074 -0.0032116217 0.012809728 -0.0029792346
-0.0088556055 0.016826278 0.013866913 0.010452467 0.008294881 -0.013724516 0.0049490053 0.0019070836
0.0040685693 0.008513928 0.0054845647 -0.011615622 0.007030172 0.040014457 -0.024229985 0.0034223713
0.005522547 -0.0040625874 0.0019799655 0.009182696 -0.008042912 0.025682611 -0.014289102 0.005504407
-0.010078145 0.0020815965 0.029626237 0.0015607354 0.006564431 0.008252315 0.008834761 0.005782257
00000000: b910 423c 976f bebb 7f73 35bd 5b9d 0abf
00000010: d94d fc3d 378b bbba 2072 ef3e 5ffb 463d
00000020: 3ff6 91bd ca0a 36bd a2e5 403e 1259 11be
00000030: b649 3fbc 71fc ca3b 1b10 e13e ff46 a5bc
00000040: 5bc9 a83b b77f ab3b 61eb 0cbd fc33 1cbd
00000050: f3be 60bd 4595 ad3c 3b53 d1bb 11ad 6d3d
00000060: f3b7 343d 7c20 c03c 04e2 2fbd f647 a8bd
00000070: bb88 a53e 364b 9bbd 0681 f73c 2edc cb3c
00000080: d925 2f3d 31ed 4abb e78c 493c 5eb1 333d
00000090: de8c 9b3c 1587 be3c 9c8f 27bd a825 09bd
000000a0: 58da 143f a2a9 953e beb0 323e 0800 8dbc
000000b0: 5bb8 80ba c603 0cbc 4ebf 9b3c 5f77 b2bd
000000c0: e642 a83d bbdf eebc ab18 9ebc a309 cfbd
000000d0: 8b3c c0bd 7cc7 cdbc b5f0 c13d 882a 453c
000000e0: 6500 e13c 973b 51bd e2f5 4dbd 145a 4fbd
000000f0: c3ed 49bd 96e6 e63b 87a4 bebc eeaa 703d
00000100: b477 3fbf 7f69 74bf 0983 4fbf 1e37 3b3f
00000110: 2136 cbbf caf9 0dbf 5c55 1c3f 50a1 97bf
00000120: 1137 fdbe 714d 5fbf 9c35 eabf 7b05 86bb
00000130: 61cc 70bf 8313 50bf 903f 1e3f b423 4cbf
00000140: 9be8 83bf 141f 2ebf 5bc6 5bbf 751d 6dbf
00000150: 1ba5 71bf b9bb 2abf f8d8 52bf e675 46bf
00000160: f914 64bf b797 43bf 9808 00bf 2d66 0bbf
00000170: 969a 103f a219 ccbd 0ca5 56bf d0cf 7fbf
00000180: bc7a 6dbf f832 563f a83f 4bbf c9bd 37bf
00000190: 54f6 53bf a0c5 41bf fded 6abf 9147 83bf
000001a0: 067a c43e 7c1c 2b3f 499d fabf 4fd9 5cbf
000001b0: 8575 3ebf 1dcb 3cbf 2fa5 82bf a93a 1a3f
000001c0: fc38 97bf 764f 50bf f04c 6cbf 5f27 42bf
000001d0: bcaf f9be 82a8 57bf bf58 ccbf bfc3 38bf
000001e0: 4a3d 68bf 85ca 79bf 0bff 57bf 1581 5bbf
000001f0: 9c8e 6cbf 08c6 48bf 67c3 62bf e8da 4abf
00000200: acf0 6ebb 2718 04bc 5b2d e33c f88d bb3d
00000210: 888e fab8 b535 99bb a3b1 523b b760 923c
00000220: 49f5 be3b b95e 3d3c 105c 12bc 2095 a73b
00000230: ff78 d03b 80f0 123d ddea c93b 1fc4 80ba
00000240: 6d18 86bc a5f0 03bc e554 d73c e84f 053b
00000250: 27fc 323a a624 aa3c 22e9 993b 4d6e fabc
00000260: 1120 a13c 7707 dc3b 891b ab3c 5e65 933b
00000270: 76c3 f5bb 127a 52bb e5df 513c 433f 43bb
00000280: 1a17 11bc 43d7 893c 0c32 633c d340 2b3c
00000290: 41e7 073c cbdc 60bc 442b a23b 1bf7 f93a
000002a0: a251 853b 017e 0b3c ddb7 b33b 734f 3ebc
000002b0: 5b5d e63b 33e6 233d f67d c6bc dd49 603b
000002c0: 7bf6 b43b 741f 85bb 4fc2 013b 0573 163c
000002d0: 6bc6 03bc 5764 d23c d61c 6abc 505e b43b
000002e0: ce1e 25bc 656b 083b b9b2 f23c 9791 cc3a
000002f0: 701a d73b b834 073c acbf 103c 1679 bd3b

rnn.weight_ih_l0_reverse f4 [192, 3]
0.18395865 0.22794732 0.14185059 -0.06242404 -0.015859153 0.05471334 -0.32212022 -0.18065253
0.071000494 -0.13005598 -0.022593377 0.31987298 0.085098796 -0.2997454 0.15389095 0.07255812
0.060718376 0.00205918 0.11471102 -0.04065795 0.013963453 0.050600212 0.07062981 -0.0212037
-0.08535233 -0.06563742 0.22593419 0.023222525 -0.0036884572 -0.04654663 0.021104684 0.0020447734
-0.031497348 0.10323432 -0.03677843 0.036842868 -0.039174624 -0.1798702 0.2794138 -0.017965391
-0.07462279 0.13573684 0.109180324 0.093921736 -0.77046645 0.15630211 0.12617384 0.033506557
0.07225953 -0.052404415 -0.23756573 0.08584146 -0.07093272 -0.019880302 -0.15358317 0.1040098
0.24595827 -0.014323702 -0.022433724 0.25336745 -0.02528765 -0.033730175 0.16427237 -0.021665286
-0.15732127 0.26025814 0.03810722 -0.021038445 -0.01338274 0.0014172338 -0.010382656 -0.00850808
0.10918392 0.03685066 0.18910125 -0.088800415 -0.093374066 0.12849554 0.24919005 0.118268
0.076494426 -0.018586153 -0.104019955 -0.010624629 0.11479872 0.017586451 0.070266485 -0.1516617
0.104632355 0.22160624 0.15173355 -0.009603164 0.1685593 -0.10215957 -0.09468695 0.22572292
0.2385245 0.14797577 -0.0017721641 0.113344096 -0.1605752 0.05285502 -0.019142097 -0.08051495
0.30773968 -0.012217097 -0.10847368 0.35832945 0.012256308 0.026627107 0.10291357 -0.02197747
0.0836542 -0.2392182 0.056768954 0.025917936 -0.008325458 0.07004528 -0.03373176 -0.030593531
0.10423189 0.044345483 0.010159307 -0.07013861 -0.043074355 -0.0018756674 -0.008585122 -0.05698588
0.02841335 0.10250008 -0.05310644 -0.1544321 -0.0015226852 -0.4797484 0.23596342 -0.042424686
0.030302588 -0.0076243402 -0.06200884 0.06404566 0.17803507 -0.06516541 0.021717742 0.13085032
0.05576814 -0.010791535 -0.04235145 0.0898115 -0.118821785 -0.037141196 -0.060249913 -0.07271262
0.035357196 0.00086248136 0.041094776 0.04147827 0.1243988 0.020731566 0.18132478 -0.1150054
-0.13449468 0.14016327 -0.12146512 -0.06048942 -0.009399783 -0.14884679 -0.059055205 0.20951995
-0.0094966125 -0.040853567 -0.0400827 0.16094205 0.119255744 0.017222717 -0.22126733 -0.036072966
-0.20766677 -0.04092988 -0.16890262 -0.0686236 0.027856896 -0.022242788 -0.038072605 0.005360617
-0.013096307 0.03983554 -0.06855691 -0.23467067 0.08456708 -0.088541694 0.016087534 -0.023365755
0.03589874 0.13810009 -0.23406403 0.0842145 0.03664603 -0.046904676 0.7175407 0.5796276
-0.19949855 0.10052552 0.10155491 -0.22005951 0.027214784 0.04425724 -0.12748392 0.12504397
0.022705961 -0.24838695 0.17804156 -0.056497984 0.10385317 -0.03167411 -0.047927644 -0.12714536
0.039285287 0.22367585 -0.20033872 0.37680712 -0.21099162 -0.2962159 -0.036854 -0.1330888
-0.17281398 -0.06278597 0.101829045 -0.14658594 -0.115609676 -0.02827139 -0.2725539 0.023712555
0.39024988 -0.034868944 -0.49436873 -0.75041384 0.06966312 -0.028075213 -0.03200127 -0.2016657
0.10733843 -0.035583496 -0.024408787 0.22207402 -0.1816033 -0.20734435 0.23914912 -0.1653858
0.13858971 0.0010686865 0.26232052 -0.20442452 0.08031101 -0.525997 0.116021805 -0.08826567
00000000: a85f 3c3e 066b 693e 4841 113e 5ab0 7fbd
00000010: 0eeb 81bc 181b 603d f1ec a4be fafc 38be
00000020: b568 913d 652d 05be bf15 b9bc 64c6 a33e
00000030: 4748 ae3d 3b78 99be 9795 1d3e 5a99 943d
00000040: d5b3 783d 4ff3 063b 9ced ea3d f388 26bd
00000050: f7c6 643c 2b42 4f3d 5da6 903d 62b3 adbc
00000060: 34cd aebd e96c 86bd 4b5b 673e 2a3d be3c
00000070: 0bba 71bb aea7 3ebd bbe3 ac3c 9b01 063b
00000080: 5d03 01bd 846c d33d fba4 16bd 8ce8 163d
00000090: 9275 20bd e52f 38be 530f 8f3e 282c 93bc
000000a0: d5d3 98bd 99fe 0a3e ef99 df3d 0a5a c03d
000000b0: 4a3d 45bf a90d 203e b733 013e 2c3e 093d
000000c0: cefc 933d 03a6 56bd 6e44 73be a6cd af3d
000000d0: 2d45 91bd 04dc a2bc e844 1dbe 1703 d53d
000000e0: 7cdc 7b3e f6ad 6abc eec6 b7bc 61b9 813e
000000f0: 0c28 cfbc a728 0abd 0437 283e 667b b1bc
00000100: d418 21be 8e40 853e 5116 1c3d d158 acbc
00000110: 4843 5bbc 7ac2 b93a 041c 2abc 7965 0bbc
00000120: d29b df3d b8f0 163d c2a3 413e fedc b5bd
00000130: e73a bfbd 5694 033e ad2b 7f3e 7e36 f23d
00000140: 1ca9 9c3d fd41 98bc 6a08 d5bd ed12 2ebc
00000150: 971b eb3d 7611 903c e0e7 8f3d 344d 1bbe
00000160: 7d49 d63d bfec 623e 0a60 1b3e 9756 1dbc
00000170: cf9a 2c3e 0939 d1bd 3beb c1bd e923 673e
00000180: c43f 743e f686 173e f647 e8ba f320 e83d
00000190: d36d 24be 817e 583d e3cf 9cbc 06e5 a4bd
000001a0: 0e90 9d3e 382a 48bc 7327 debd f576 b73e
000001b0: afce 483c 1721 da3c 5ac4 d23d 180a b4bc
000001c0: e552 ab3d 9ef5 74be 9086 683d da51 d43c
000001d0: 8067 08bc e673 8f3d 502a 0abd 499f fabc
000001e0: 8777 d53d 9ca3 353d 3973 263c d5a4 8fbd
000001f0: bc6e 30bd f4d8 f5ba 9da8 0cbc 076a 69bd
00000200: 1dc3 e83c 90eb d13d 2386 59bd 7323 1ebe
00000210: d694 c7ba 95a1 f5be 65a0 713e 82c5 2dbd
00000220: 223d f83c 9ad5 f9bb fbfc 7dbd 5f2a 833d
00000230: d34e 363e 7175 85bd 68e9 b13c a0fd 053e
00000240: 226d 643d face 30bc b778 2dbd 17ef b73d
00000250: d658 f3bd 5e21 18bd 9dc8 76bd 5bea 94bd
00000260: b5d2 103d 2518 623a ff52 283d 1ee5 293d
00000270: ccc4 fe3d 3fd5 a93c 34ad 393e f387 ebbd
00000280: f9b8 09be f686 0f3e b4c2 f8bd c1c3 77bd
00000290: 8c01 1abc 4b6b 18be dfe3 71bd 668c 563e
000002a0: ae97 1bbc 1256 27bd c22d 24bd fecd 243e
000002b0: 5b3c f43d a816 8d3c e793 62be 3fc1 13bd
000002c0: 99a6 54be 17a6 27bd cff4 2cbe 888a 8cbd
000002d0: 2534 e43c 8236 b6bc 05f2 1bbd 1da8 af3b
000002e0: e591 56bc 972a 233d 9167 8cbd 824d 70be
000002f0: 8131 ad3d 5955 b5bd 01ca 833c 8a69 bfbc
00000300: 8f0a 133d 1c6a 0d3e 7bae 6fbe a778 ac3d
00000310: 261a 163d 1e1f 40bd bfb0 373f 7962 143f
00000320: 5949 4cbe 53e0 cd3d 05fc cf3d 4857 61be
00000330: 8af1 de3c 1447 353d 258b 02be 870b 003e
00000340: da01 ba3c 2659 7ebe 8750 363e 6e6a 67bd
00000350: f9b0 d43d b6bc 01bd c74f 44bd 6532 02be
00000360: 9ce9 203d 480b 653e 9825 4dbe ddec c03e
00000370: 300e 58be 9ca9 97be 38f4 16bd 6e48 08be
00000380: 26f6 30be ee95 80bd bf8b d03d a01a 16be
00000390: c4c4 ecbd 6799 e7bc 2f8c 8bbe d540 c23c
000003a0: d5ce c73e bdd2 0ebd e61d fdbe 1f1b 40bf
000003b0: 8aab 8e3d fdfd e5bc c413 03bd 7481 4ebe
000003c0: 40d4 db3d 00c0 11bd f0f4 c7bc 5f67 633e
000003d0: 37f6 39be 1452 54be 82e3 743e e55a 29be
000003e0: 76ea 0d3e 2b13 8c3a e04e 863e a954 51be
000003f0: 197a a43d bda7 06bf d79c ed3d a2c4 b4bd

rnn.weight_hh_l0_reverse f4 [192, 64]
-0.04923843 -0.031590905 0.35806274 0.048492443 -0.10146274 -0.048301235 -0.026057174 0.020782018
-0.0038358562 -0.03397768 -0.07912603 0.048723917 0.108777985 0.052155204 -0.5138261 0.0677856
0.020562181 0.022252956 -0.009053823 -0.06674683 -0.14503716 0.06681743 -0.025716353 0.013537513
0.0052882554 0.014292345 0.061494876 0.04645582 0.032154422 0.025041122 -0.17555031 -0.073420465
-0.047220048 0.005490072 0.16517173 0.08943374 -0.031337246 -0.02401712 0.00691617 0.0675784
-0.04910588 -0.068791784 0.010869125 -0.07983027 0.13839054 -0.026613967 -0.027282977 -0.16464986
0.008848438 -0.09111219 0.1597362 -0.005973294 -0.0022346869 0.099257186 -0.2140904 -0.19631582
0.020943591 -0.028981619 0.31279004 -0.044051986 -0.041000776 -0.009579232 0.24958202 -0.019485358
-0.06521799 -0.0043596057 0.13250029 -0.0565377 0.0159411 0.03683089 -0.0036877645 0.026720164
0.06407533 -0.056259118 0.04567196 0.031078724 -0.052262902 0.12037275 -0.1139843 0.056773037
-0.106901094 0.086747356 0.13525087 -0.06562383 0.07865837 -0.12708052 0.045254596 -0.044136934
0.016826212 -0.09906082 -0.02707955 0.010716285 0.03891691 0.050274294 0.1119262 0.09499868
-0.0028747842 0.12280068 0.143572 -0.0922386 0.009379101 -0.024179302 0.0921936 -0.028384464
-0.0072257617 0.062032625 0.07596171 -0.09687339 -0.11168549 0.08725472 -0.041904744 -0.08166928
0.061073624 0.02276788 0.12561522 -0.12729779 0.14147793 0.123113334 -0.19487658 0.046830047
-0.053928133 -0.009440517 0.10993425 0.10671677 0.011928667 0.105027944 0.05703274 0.05008768
0.34406343 0.4326225 0.30767953 -0.19939336 0.42909345 0.47844326 0.37033466 -0.091657355
0.25434324 -0.33482984 0.4588962 -0.25810045 -0.2412133 0.46945542 -0.10684888 -0.29392743
-0.44133973 0.11987029 0.043569684 -0.19592065 0.17029527 -0.31389657 0.47324598 -0.27161708
0.15984589 -0.22098485 -0.3963261 -0.440297 -0.26195717 -0.3551258 0.26330942 0.42905402
0.35804105 0.3690997 0.30236986 -0.35871825 0.28806502 0.10709955 0.21393669 -0.23662868
0.47312927 0.18761481 0.3116927 0.095671475 -0.4527612 0.4756831 0.26739234 -0.3835021
0.36936677 0.46299273 0.47526333 -0.10783905 0.3400677 0.3299469 -0.3015844 0.31989217
-0.4104303 0.3202768 0.033925198 0.42270303 0.50288737 0.18401442 -0.077520736 0.29083768
-0.00019977985 -0.0017328692 0.2759419 -0.34501222 0.074495666 0.07088703 0.064031206 0.062837146
0.2729108 -0.17164515 0.05419512 -0.0142237265 -0.27109608 0.11710662 0.0896826 0.029047063
-0.15506113 0.14487548 0.11267759 -0.328072 0.043692823 -0.21820357 0.12712103 -0.032343943
0.052234087 -0.28940755 -0.022785839 0.005642739 0.01887633 0.018540414 0.15385678 0.086527854
0.044299457 0.17391105 0.23592938 -0.16007608 8.9109795e-05 -0.025766073 0.11087549 -0.06540958
0.05383041 0.30595288 0.068900205 -0.15413184 -0.0816931 0.15560673 -0.017319568 -0.096292846
0.13644259 0.04287135 0.07545826 -0.1766455 0.27154988 0.2555104 -0.21178867 0.16784543
-0.10223726 0.024061946 -0.18323712 0.11277087 0.12004612 0.16654973 -0.12031841 0.07146508
00000000: 3cae 49bd 7765 01bd 0054 b73e 03a0 463d
00000010: b2cb cfbd 84d7 45bd db75 d5bc 0d3f aa3c
00000020: fd62 7bbb 2e2c 0bbd d40c a2bd bb92 473d
00000030: fec6 de3d b2a0 553d 1b8a 03bf 2dd3 8a3d
00000040: 0572 a83c d54b b63c 7c56 14bc 90b2 88bd
00000050: 9f84 14be 94d7 883d 1aab d2bc 72cc 5d3c
00000060: 1a49 ad3b 712a 6a3c 0de2 7b3d 7548 3e3d
00000070: 5bb4 033d 0a23 cd3c 76c3 33be 785d 96bd
00000080: cf69 41bd 10e6 b33b c722 293e 0929 b73d
00000090: 7c5b 00bd 8dbf c4bc 0aa1 e23b 8b66 8a3d
000000a0: 3f23 49bd b5e2 8cbd 6a14 323c 0d7e a3bd
000000b0: 40b6 0d3e 8905 dabc 8d80 dfbc f999 28be
000000c0: 0af9 103c 0799 babd e391 233e 9fbb c3bb
000000d0: d373 12bb 5a47 cb3d 843a 5bbe 0407 49be
000000e0: e591 ab3c dc6a edbc 0426 a03e db6f 34bd
000000f0: 6ef0 27bd 36f2 1cbc 6e92 7f3e c29f 9fbc
00000100: 0291 85bd 06db 8ebb 28ae 073e 1394 67bd
00000110: e996 823c fddb 163d 6cae 71bb 3fe4 da3c
00000120: ed39 833d f66f 66bd 8512 3b3d cf98 fe3c
00000130: a011 56bd fd85 f63d 9a70 e9bd d88a 683d
00000140: f6ee dabd 99a8 b13d 347f 0a3e c965 86bd
00000150: a417 a13d 6521 02be e25c 393d eec8 34bd
00000160: 20d7 893c 66e0 cabd efd5 ddbc 5b93 2f3c
00000170: 5667 1f3d 6bec 4d3d 9039 e53d ab8e c23d
00000180: e066 3cbb ec7e fb3d 8a04 133e 97e7 bcbd
00000190: cdaa 193c ac13 c6bc 00d0 bc3d 8986 e8bc
000001a0: 15c6 ecbb ec15 7e3d d091 9b3d 8e65 c6bd
000001b0: 5dbb e4bd 9ab2 b23d 4fa4 2bbd 3942 a7bd
000001c0: 5628 7a3d b483 ba3c 47a1 003e 5a5a 02be
000001d0: 97df 103e d822 fc3d ba8d 47be ddd0 3f3d
000001e0: bfe3 5cbd 66ac 1abc 3525 e13d 528e da3d
000001f0: 7570 433c e418 d73d 2a9b 693d bd28 4d3d
00000200: 1529 b03e b280 dd3e 2c88 9d3e c62d 4cbe
00000210: 23b2 db3e 84f6 f43e 819c bd3e dab6 bbbd
00000220: 4739 823e d16e abbe 71f4 ea3e be25 84be
00000230: 9f00 77be 765c f03e 96d3 dabd a87d 96be
00000240: 48f7 e1be 8e7e f53d 2076 323d 6c9f 48be
00000250: e261 2e3e 0db7 a0be 4c4d f23e 6511 8bbe
00000260: a4ae 233e da49 62be 41eb cabe 9c6e e1be
00000270: 401f 86be 0dd3 b5be 7ed0 863e f8ac db3e
00000280: 2851 b73e a3fa bc3e 39d0 9a3e eba9 b7be
00000290: 427d 933e 0257 db3d 3812 5b3e ca4e 72be
000002a0: 003e f23e 191e 403e 3096 9f3e 68ef c33d
000002b0: 51d0 e7be bc8c f33e a6e7 883e 635a c4be
000002c0: a41d bd3e 620d ed3e b755 f33e b8da dcbd
000002d0: 5b1d ae3e cdee a83e 4569 9abe e8c8 a33e
000002e0: ec23 d2be 52fb a33e 26f5 0a3d 886c d83e
000002f0: 3abd 003f 476e 3c3e 31c3 9ebd ade8 943e
00000300: ff7b 51b9 7121 e3ba 4248 8d3e 71a5 b0be
00000310: 2f91 983d 382d 913d cb22 833d c3b0 803d
00000320: f7ba 8b3e bfc3 2fbe b4fb 5d3d a20a 69bc
00000330: 1bcd 8abe 98d5 ef3d 83ab b73d 1bf4 ed3c
00000340: 58c8 1ebe 3d5a 143e 82c3 e63d 0ef9 a7be
00000350: 3ff7 323d c270 5fbe 042c 023e 157b 04bd
00000360: 69f3 553d 3a2d 94be 5ea9 babc bae6 b83b
00000370: 89a2 9a3c 11e2 973c a28c 1d3e 8435 b13d
00000380: 5973 353d bd15 323e 7997 713e fcea 23be
00000390: 75e0 ba38 5f13 d3bc b012 e33d 75f5 85bd
000003a0: 477d 5c3d dba5 9c3e 8d1b 8d3d bdd4 1dbe
000003b0: b64e a7bd 5f57 1f3e c4e1 8dbc 2f35 c5bd
000003c0: 9bb7 0b3e de99 2f3d dc89 9a3d 8fe2 34be
000003d0: 9608 8b3e 42d2 823e 21df 58be acdf 2b3e
000003e0: c561 d1bd 8f1d c53c 83a2 3bbe 6af4 e63d
000003f0: bdda f53d 038c 2a3e 8069 f6bd 495c 923d

rnn.bias_ih_l0_reverse f4 [192]
-1.4831747 -1.2226664 -0.06428075 0.037588358 -0.8414638 -2.0154784 -1.1545116 -1.4203184
0.015937217 -0.8465857 -1.3459591 -1.2910813 0.0137393605 -0.080102265 -0.27426988 -1.176964
-0.39945412 -1.4999343 -0.45385814 0.030827576 -0.18374357 -0.36663094 -2.0704246 -2.0592713
-0.92791724 0.033671 -1.0103401 -1.1089706 -1.3959409 -0.8966576 -0.2714603 -0.0886445
-1.469761 -0.49562246 0.03788548 -0.079906605 -0.09885835 -0.49256682 -1.6869504 -0.144484
-1.8878604 0.055414107 -0.09181585 -0.42179734 -0.12492202 -1.1102705 -0.5861225 -0.097759426
-2.1159773 -0.9761524 -0.095069915 -0.62984174 -0.53405416 0.004266982 -0.021899365 -0.04484735
-2.2530234 -1.1183269 -0.045213286 -0.5001083 -1.7943674 -0.39060667 -0.035453893 -2.004406
0.42388976 0.6623571 0.21704535 0.012240821 0.43531254 0.45795316 0.7065952 0.5717397
0.07733839 0.6664159 0.59596497 0.47353342 0.07677182 0.22775137 0.35373184 0.4814341
0.6648266 0.6150676 0.6983128 0.07117558 0.51654166 0.69829255 0.60633564 0.6171512
0.6404971 0.06618197 0.52201176 0.5883135 0.43247792 0.70062035 0.5418704 0.26145956
0.36595353 0.70621693 0.12604131 0.21050999 0.38046753 0.76547265 0.58627945 0.5181338
0.5612208 0.052238747 0.23777187 0.73346287 0.4336278 0.55067945 0.6871831 0.26600403
0.6084272 0.59647655 0.27168432 0.67372626 0.7241219 0.13039657 0.14503993 0.21739143
0.5980726 0.45505717 0.22048661 0.6810909 0.5707583 0.705733 0.30628628 0.6420099
0.0010077544 0.0020701182 0.0029439696 -0.003965875 -0.0021236015 0.0011897617 -0.002164917 -0.0013837504
0.005178963 0.0017413523 0.0026483242 0.001224279 -0.0071618175 0.0013693857 0.003869782 0.00070306245
-0.00088235247 0.00023839489 0.003140352 -0.006972897 0.00024030372 -0.00022451689 -0.0006586223 -0.0010475521
0.0003300278 -0.0062153577 0.000325924 -0.00086331373 -0.0030639719 -0.0015701276 -0.0031296613 0.005922612
-0.0006674038 -0.0040903455 0.007170066 -0.009714345 0.0028688328 -0.0026550859 -0.00080405764 -0.0074307225
0.00030497153 0.009986498 0.005960136 -0.00066005724 0.0014663474 -0.0030594845 -0.00058322004 -0.005080662
0.00086900644 0.00012693755 -2.0078469e-05 0.0014917969 -0.004695091 0.0030226882 0.0011925548 0.0004682394
0.0037532202 0.00012375071 -0.002388463 -0.0016452308 0.00023024503 -0.0027388842 0.0032612605 0.00067336083
00000000: abd8 bdbf 5580 9cbf a0a5 83bd 40f6 193d
00000010: 2c6a 57bf 99fd 00c0 09c7 93bf fecc b5bf
00000020: c48e 823c d7b9 58bf 6348 acbf 2742 a5bf
00000030: 0e1b 613c a80c a4bd 1a6d 8cbe c2a6 96bf
00000040: 4085 ccbe d9fd bfbf 1860 e8be 1d8a fc3c
00000050: 4627 3cbe 0db7 bbbe d681 04c0 1acb 03c0
00000060: fc8b 6dbf 9aea 093d d352 81bf c0f2 8dbf
00000070: 31ae b2bf 5a8b 65bf d8fc 8abe 3f8b b5bd
00000080: 2121 bcbf 3ac2 fdbe ce2d 1b3d 13a6 a3bd
00000090: 3f76 cabd b831 fcbe feed d7bf 9df3 13be
000000a0: 69a5 f1bf e7f9 623d f309 bcbd d2f5 d7be
000000b0: 1ed7 ffbd 581d 8ebf 200c 16bf 1836 c8bd
000000c0: 2c6c 07c0 20e5 79bf 04b4 c2bd 4f3d 21bf
000000d0: c6b7 08bf 0ad2 8b3b 4c66 b3bc dbb1 37bd
000000e0: 8931 10c0 5625 8fbf 9131 39bd 1907 00bf
000000f0: d5ad e5bf 99fd c7be 1a38 11bd 3048 00c0
00000100: 1408 d93e 3c90 293f 2341 5e3e b98d 483c
00000110: 49e1 de3e d678 ea3e 6ce3 343f 885d 123f
00000120: 9763 9e3d 3c9a 2a3f 2991 183f f972 f23e
00000130: 8b3a 9d3d a837 693e 571c b53e 887e f63e
00000140: 1332 2a3f 1275 1d3f a1c4 323f 81c4 913d
00000150: 133c 043f 4dc3 323f d038 1b3f 9ffd 1d3f
00000160: 9ef7 233f 6a8a 873d 90a2 053f b79b 163f
00000170: bf6d dd3e db5b 333f 05b8 0a3f 07de 853e
00000180: 435e bb3e a2ca 343f f910 013e ee8f 573e
00000190: a4cc c23e 04f6 433f 6916 163f 6ba4 043f
000001a0: 2bac 0f3f 4cf8 553d 787a 733e 39c4 3b3f
000001b0: 7704 de3e 54f9 0c3f 3beb 2f3f ae31 883e
000001c0: e3c1 1b3f b0b2 183f 351a 8b3e 5379 2c3f
000001d0: 0e60 393f ae86 053e 5985 143e dc9b 5e3e
000001e0: 491b 193f 41fd e83e 3ec7 613e f95b 2e3f
000001f0: 371d 123f ebaa 343f 8ed1 9c3e c35a 243f
00000200: a016 843a d2aa 073b 9def 403b 2cf4 81bb
00000210: 1f2c 0bbb c7f1 9b3a 48e1 0dbb f55e b5ba
00000220: 4ab4 a93b 163e e43a 828f 2d3b fd77 a03a
00000230: aead eabb f67c b33a 2b9c 7d3b b94d 383a
00000240: ac4d 67ba a4f9 7939 5dce 4d3b e67c e4bb
00000250: 0afa 7b39 4b6c 6bb9 65a7 2cba 044e 89ba
00000260: 9507 ad39 33aa cbbb c7e0 aa39 0150 62ba
00000270: ebcc 48bb bdcc cdba 011b 4dbb 7812 c23b
00000280: b6f4 2eba 4e08 86bb dff2 ea3b eb28 1fbc
00000290: 0703 3c3b f300 2ebb 65c7 52ba 6b7d f3bb
000002a0: 96e4 9f39 699e 233c 3f4d c33b b107 2dba
000002b0: 7432 c03a a281 48bb 3ce3 18ba af7b a6bb
000002c0: 09ce 633a 8a1a 0539 2f6e a8b7 6688 c33a
000002d0: 47d9 99bb 4b18 463b 804f 9c3a 077e f539
000002e0: 96f8 753b 14c3 0139 c287 1cbb c9a4 d7ba
000002f0: ee6d 7139 da7e 33bb dfba 553b 7b84 303a

rnn.bias_hh_l0_reverse f4 [192]
-1.4734772 -1.227644 -0.06358794 0.047185678 -0.84731627 -2.009796 -1.1661462 -1.4285759
0.029174421 -0.8290469 -1.3347223 -1.2999371 0.012389959 -0.06816797 -0.27890006 -1.1784352
-0.39314193 -1.4878794 -0.44984776 0.026346529 -0.17650081 -0.36280617 -2.068021 -2.0690439
-0.9347719 0.025285952 -1.0112238 -1.1135111 -1.3913878 -0.90543485 -0.27199242 -0.10642258
-1.478532 -0.51204205 0.03340153 -0.07894216 -0.09639211 -0.48208112 -1.6945602 -0.14332987
-1.8997575 0.05511245 -0.09455863 -0.43331105 -0.11726587 -1.0938841 -0.58270353 -0.096060306
-2.114067 -0.96917886 -0.09293457 -0.63398105 -0.5450638 0.014445838 -0.018989088 -0.051439
-2.2455454 -1.1154912 -0.044444498 -0.4974189 -1.7947412 -0.3837781 -0.03878062 -1.990131
0.41545573 0.6606264 0.204787 0.019372966 0.4347692 0.45810705 0.7092321 0.57622635
0.074900374 0.65570426 0.5921042 0.4808278 0.08717871 0.2310833 0.33784384 0.4894268
0.67572504 0.6144447 0.7132819 0.077212304 0.51882386 0.7048934 0.6184909 0.6009982
0.6351191 0.06837523 0.5228293 0.59232974 0.44992864 0.69504404 0.5442069 0.26362592
0.36473787 0.703551 0.122741185 0.21897393 0.36928925 0.7664685 0.59827757 0.52148074
0.56698877 0.052650984 0.22952017 0.7200567 0.42382059 0.55680346 0.6939152 0.25205973
0.5979167 0.5852735 0.26660338 0.67107815 0.7319724 0.1255103 0.14945158 0.19733723
0.6006515 0.45061654 0.20808975 0.6882772 0.5601721 0.7029531 0.30432525 0.6578443
-0.0015779561 0.00351531 -0.006879842 0.0034736646 0.001768095 0.00092320004 -0.0035630723 -0.0007325957
-0.010969438 -0.0062932735 -0.00016623593 -0.0007581263 0.0015784599 -0.008264684 -0.004608158 0.0045467806
0.009297281 -0.0013228236 -0.0012095125 0.01115461 0.006099512 -0.008118058 0.0003054453 -0.0005113198
-0.0026447398 0.004026701 0.005845091 -0.0032742878 -0.0034084972 -0.004100479 -0.0038405552 -0.00011424014
-0.003023644 0.007955032 -0.011407843 0.0026304475 -0.011309637 0.0075633093 -0.00068414403 0.0070143086
0.0005575486 -0.006499451 -0.0012475492 0.0051238243 -0.006775388 -0.0032131684 -0.005260433 0.010762488
0.000578115 -0.0033111817 0.006662451 -0.002878805 0.0014122856 -0.003866725 0.014701112 0.0046310136
0.0038367892 -0.003078216 -0.0041502533 0.003123186 0.0007210702 0.0050889496 -0.004679442 0.0015012717
00000000: e79a bcbf 7023 9dbf 653a 82bd c545 413d
00000010: b8e9 58bf 7fa0 00c0 4744 95bf 93db b6bf
00000020: 32ff ee3c 6b3c 54bf 2ed8 aabf 5764 a6bf
00000030: 41ff 4a3c a69b 8bbd fdcb 8ebe f7d6 96bf
00000040: e649 c9be d572 bebf 7252 e6be add4 d73c
00000050: a1bc 34be bbc1 b9be 755a 04c0 376b 04c0
00000060: 364d 6fbf 7c24 cf3c c86f 81bf 8887 8ebf
00000070: ff18 b2bf 94ca 67bf 9742 8bbe 15f4 d9bd
00000080: 8940 bdbf 3015 03bf 0bd0 083d 6dac a1bd
00000090: 3a69 c5bd 56d3 f6be 59e7 d8bf 11c5 12be
000000a0: 412b f3bf 98bd 613d f4a7 c1bd f2da ddbe
000000b0: 1729 f0bd 6504 8cbf 0f2c 15bf 44bb c4bd
000000c0: e04c 07c0 1b1c 78bf 7b54 bebd 954c 22bf
000000d0: 4d89 0bbf 3cae 6c3c 018f 9bbc b3b1 52bd
000000e0: 04b7 0fc0 6ac8 8ebf 6f0b 36bd b1ad febe
000000f0: 14ba e5bf 907e c4be 6dd8 1ebd 9dbc febf
00000100: 9db6 d43e d01e 293f afb3 513e 0eb4 9e3c
00000110: 129a de3e 028d ea3e 3c90 353f 9283 133f
00000120: 5e65 993d 3cdc 273f 2494 173f 102f f63e
00000130: c08a b23d 1aa1 6c3e def9 ac3e 2696 fa3e
00000140: 51fc 2c3f 3f4c 1d3f a599 363f 7c21 9e3d
00000150: a4d1 043f e573 343f 6b55 1e3f 05db 193f
00000160: 2a97 223f 5008 8c3d 24d8 053f eca2 173f
00000170: 0c5d e63e 68ee 313f 2551 0b3f faf9 863e
00000180: ecbe ba3e eb1b 343f bb5f fb3d b43a 603e
00000190: 7b13 bd3e 4837 443f b828 193f c37f 053f
000001a0: 2d26 113f 8fa8 573d 5607 6b3e a355 383f
000001b0: 03ff d83e ac8a 0e3f 6da4 313f f90d 813e
000001c0: 1211 193f 7cd4 153f 3d80 883e c7cb 2b3f
000001d0: 8b62 3b3f c685 003e d609 193e c512 4a3e
000001e0: 4cc4 193f 36b7 e63e 7b15 553e ef32 303f
000001f0: 7067 0f3f bcf4 333f 85d0 9b3e 7c68 283f
00000200: 6cd3 ceba 1d61 663b 4c70 e1bb 6ca6 633b
00000210: 6cbf e73a e802 723a 6f82 69bb aa0b 40ba
00000220: 28b9 33bc ce37 cebb 9e4f 2eb9 ffbc 46ba
00000230: 53e4 ce3a 9968 07bc 0800 97bb 29fd 943b
00000240: 9f53 183c 9862 adba 8188 9eba d3c1 363c
00000250: 6ade c73b 9a01 05bc 2d24 a039 170a 06ba
00000260: 5f53 2dbb 6bf2 833b 2d88 bf3b 6f95 56bb
00000270: 1861 5fbb 505d 86bb d3b1 7bbb 3594 efb8
00000280: 5428 46bb d355 023c f6e7 3abc 9663 2c3b
00000290: 0e4c 39bc a3d5 f73b 2158 33ba 49d8 e53b
000002a0: 7428 123a 59f9 d4bb ce84 a3ba c1e5 a73b
000002b0: 1304 debb 0594 52bb b65f acbb 2555 303c
000002c0: a48c 173a 6900 59bb b150 da3b 55aa 3cbb
000002d0: 711c b93a e168 7dbb efdc 703c c2bf 973b
000002e0: a472 7b3b e5bb 49bb d9fe 87bb 5eae 4c3b
000002f0: 3406 3d3a 34c1 a63b 0156 99bb 52c6 c43a

rnn.weight_ih_l1 f4 [192, 128]
0.18157862 0.10081891 0.0704594 0.3107158 0.31163332 0.27481508 0.1222595 0.1618134
0.0749416 0.026829468 -0.20298259 -0.006999033 0.03596937 0.16062838 -0.031080574 0.0023576312
-0.0796742 0.2182232 0.06211713 0.083482996 0.08482338 -0.07320173 0.15194616 0.22617091
0.12583083 -0.09718811 0.091249056 -0.06360333 0.09760706 0.28926334 0.12698719 -0.049639206
-0.19822706 -0.23136546 0.030315425 -0.13965784 0.02423782 -0.22506483 -0.0400317 -0.04833137
-0.08648042 -0.13704136 0.083757505 -0.068932354 -0.12048081 -0.06407831 -0.047160562 -0.3304362
0.20612556 0.08854255 -0.077190734 -0.13660362 0.019225463 0.019567113 0.11479921 0.0846303
-0.04171456 -0.072489895 0.06663064 0.12776123 -0.08163815 0.08976571 0.09441587 -0.054055788
0.13913204 -0.06358825 -0.21099633 0.4766643 0.14400746 -0.09782612 -0.121951565 -0.054739203
-0.42503858 0.107124805 -0.052658793 -0.059276115 0.2978785 0.0046676807 -0.36719027 -0.021042299
0.01596961 -0.1534111 -0.116634764 0.36637032 0.096293636 0.15836701 -0.12724186 -0.014816044
-0.060854632 0.30595455 -0.06866711 -0.04341872 -0.08443502 -0.006329794 -0.0630504 -0.19633111
0.10404096 -0.107857816 -0.19559534 0.318969 0.08491658 0.026294708 -0.06234278 -0.123062916
-0.043769956 -0.38049245 -0.22854526 0.15942775 -0.15830255 0.10817057 0.04919781 -0.1028145
-0.01678502 -0.07411615 0.06082159 0.14048488 -0.16827376 -0.33156756 0.280151 -0.18624854
0.13781711 0.07999856 0.43133518 0.025102034 -0.054357585 -0.1365444 0.34356728 -0.08324174
-0.028246539 -0.25917897 0.15244462 -0.17711005 -0.25559637 -0.21375458 0.0013629645 -0.2997067
-0.27299768 0.011799399 0.12588534 -0.14592175 0.14784302 -0.18850258 0.2638214 -0.13289833
-0.16003983 -0.06804491 -0.26329374 0.20485045 0.09928416 -0.23100485 0.16320974 0.061591443
0.061027985 0.27484366 -0.25475737 0.18781084 -0.41469702 -0.11132708 -0.29938236 0.29895344
0.118594676 -0.07453826 0.09172497 -0.15114655 -0.19489649 0.0053801667 0.06567536 0.17737484
0.008184172 -0.21665303 0.044122897 -0.16308248 0.029851224 -0.29815674 -0.08791372 0.56114835
-0.394302 -0.07080751 0.21880104 0.08392892 0.065031454 0.086635865 -0.14749897 -0.28820148
0.14425875 0.12624268 -0.063825935 -0.032941937 0.019432861 -0.4075481 -0.2023581 0.117612384
0.084128715 -0.017055433 0.26634952 -0.09416118 -0.0021984654 -0.057927623 -0.053118438 -0.012717062
0.10477569 0.14619735 -0.17061283 -0.006009779 0.04024364 -0.20265956 -0.24441023 -0.113286115
0.21650535 -0.079620905 -0.397942 -0.13613473 -0.34765244 0.22017473 -0.24158363 0.09413117
-0.009702416 -0.17361751 -0.03752386 -0.003260524 -0.06401756 -0.1727839 -0.30758128 -0.31000888
0.01857551 -0.24847564 0.19558595 0.22250502 -0.14282882 -0.048408072 -0.13049865 0.080948286
-0.09741698 0.16293095 -0.16565979 0.12431789 0.16823669 -0.28977603 0.20844688 0.16572809
-0.18665102 -0.085873246 -0.23986895 0.11252313 -0.25177002 0.36900023 -0.24648172 -0.35168394
0.24642521 0.057913043 0.13104077 -0.21421166 -0.27012736 -0.13934566 -0.08037009 -0.18603787
00000000: bfef 393e 257a ce3d 054d 903d 2416 9f3e
00000010: 678e 9f3e 90b4 8c3e 3063 fa3d 69b2 253e
00000020: fb7a 993d 79c9 db3c abda 4fbe 2558 e5bb
00000030: 9e54 133d c47b 243e b09c febc 7d82 1a3b
00000040: 3a2c a3bd e775 5f3e 886e 7e3d 22f9 aa3d
00000050: e1b7 ad3d caea 95bd c697 1b3e 5999 673e
00000060: ccd9 003e 8f0a c7bd c9e0 ba3d 7642 82bd
00000070: 36e6 c73d 531a 943e ee08 023e 7b52 4bbd
00000080: 09fc 4abe 11eb 6cbe 0e58 f83c 7702 0fbe
00000090: 658e c63c 6577 66be 48f8 23bd 1df7 45bd
000000a0: a51c b1bd 9254 0cbe 0e89 ab3d 682c 8dbd
000000b0: a5be f6bd 7d3b 83bd 6f2b 41bd ef2e a9be
000000c0: 9412 533e cc55 b53d 2d16 9ebd d2e1 0bbe
000000d0: b87e 9d3c 364b a03c d91b eb3d a752 ad3d
000000e0: e3dc 2abd 9575 94bd a575 883d d7d3 023e
000000f0: e731 a7bd 16d7 b73d 1c5d c13d 9a69 5dbd
00000100: a178 0e3e 8e3a 82bd 6c0f 58be 580d f43e
00000110: b176 133e 1059 c8bd bec1 f9bd 3736 60bd
00000120: a89e d9be 4064 db3d bfb0 57bd 83cb 72bd
00000130: 8883 983e 58f3 983b 5d00 bcbe e660 acbc
00000140: b3d2 823c cd17 1dbe 35de eebd e494 bb3e
00000150: 9935 c53d f62a 223e b14b 02be febe 72bc
00000160: b542 79bd 13a6 9c3e 57a1 8cbd d4d7 31bd
00000170: 45ec acbd 296a cfbb 9120 81bd 060b 49be
00000180: 6d13 d53d 8fe4 dcbd 254a 48be e84f a33e
00000190: bee8 ad3d 0068 d73c 255b 7fbd 6908 fcbd
000001a0: 2048 33bd e8cf c2be c507 6abe 0741 233e
000001b0: 101a 22be 8888 dd3d a583 493d 6990 d2bd
000001c0: bd80 89bc 35ca 97bd 0f20 793d 45db 0f3e
000001d0: f54f 2cbe 39c3 a9be f46f 8f3e f0b7 3ebe
000001e0: ee1f 0d3e 49d6 a33d f7d7 dc3e c8a2 cd3c
000001f0: 0fa6 5ebd 4cd2 0bbe 0de8 af3e a57a aabd
00000200: 4965 e7bc 1bb3 84be 711a 1c3e 565c 35be
00000210: 87dd 82be 7be2 5abe 80a5 b23a 2873 99be
00000220: 5ac6 8bbe 4452 413c 16e8 003e 836c 15be
00000230: 2964 173e d206 41be 9913 873e 8016 08be
00000240: 7be1 23be 215b 8bbd 70ce 86be 51c4 513e
00000250: 7e55 cb3d 898c 6cbe 7420 273e 4f47 7c3d
00000260: 7bf8 793d 4fb8 8c3e 8f6f 82be 7c51 403e
00000270: 2b53 d4be 74ff e3bd a548 99be 6d10 993e
00000280: c4e1 f23d 84a7 98bd 4dda bb3d 29c6 1abe
00000290: f292 47be 1c4c b03b ce80 863d c0a1 353e
000002a0: e816 063c 4bda 5dbe 36ba 343d 18ff 26be
000002b0: 8e8a f43c 00a8 98be 1c0c b4bd 6ba7 0f3f
000002c0: f4e1 c9be 8703 91bd 610d 603e ede2 ab3d
000002d0: 362f 853d 256e b13d f809 17be 258f 93be
000002e0: 91b8 133e c345 013e 2cb7 82bd 20ee 06bd
000002f0: aa31 9f3c 25aa d0be f636 4fbe c3de f03d
00000300: ad4b ac3d d6b7 8bbc f75e 883e 94d7 c0bd
00000310: 2114 10bb 8445 6dbd b892 59bd 395b 50bc
00000320: a394 d63d c2b4 153e 21b5 2ebe aeed c4bb
00000330: 84d6 243d fd85 4fbe ad46 7abe 8d02 e8bd
00000340: 94b3 5d3e 4910 a3bd 0ebf cbbe e766 0bbe
00000350: 80ff b1be 7c75 613e b361 77be d8c7 c03d
00000360: e2f6 1ebc cac8 31be 9eb2 19bd 84ae 55bb
00000370: a31b 83bd 43ee 30be 4b7b 9dbe 7cb9 9ebe
00000380: ab2b 983c 6670 7ebe af47 483e 5bd8 633e
00000390: b841 12be 8b47 46bd 70a1 05be 37c8 a53d
000003a0: 8e82 c7bd 5fd7 263e b8a2 29be 619a fe3d
000003b0: 3d46 2c3e 865d 94be 1973 553e a0b4 293e
000003c0: 7221 3fbe 50de afbd 35a0 75be 8772 e63d
000003d0: 00e8 80be 99ed bc3e b465 7cbe eb0f b4be
000003e0: e456 7c3e 3a36 6d3d 8d2f 063e 4d5a 5bbe
000003f0: 224e 8abe a1b0 0ebe 1399 a4bd b680 3ebe
