trained_models/gru_k1.pt (torch, 711447 bytes, 26 tensors)

rnn.weight_ih_l0 f4 [192, 3]
00000000: 082b 71be 2178 6fbd 24fa 69bd ea51 bebc
00000010: 8cb1 1abd 7a50 9bbd 8498 a63d 746b 3d3b
00000020: a122 16be 16be 7bbe be58 9c3e 4175 a3bc
00000030: 0d61 9a3b f859 c1bd 5b1a 00be 58df 473e
00000040: 102e 43bd ef2c 613e 3ca8 173d 3e51 ebbc
00000050: c678 e5bd 1910 42be 04f8 a73d 0743 7bbe
00000060: 498e 9bbe b686 00bf d4f0 d73e 7fc4 f4bc
00000070: 258e f83b 68c6 2ebd 2a60 b3bd 6ff9 173e
00000080: 45b7 6abe e39a 13bd a215 5a3c 7379 91be
00000090: 0daa cabd 69ca a43c 467f 5abd a865 19bd
000000a0: 740e 6a3c c961 9bbd 9004 d23e c699 4c3e
000000b0: 06e5 a33e 1404 543d 79b7 c03c 556d c7bd
000000c0: 58cd 223d 919b 153d 9113 b8bd b6d3 41be
000000d0: 1f7a 783d b138 133c 2d60 43be 580b 493e
000000e0: 5667 193c 74de ad3c 67a6 00be acb7 503d
000000f0: 75a6 1fbc 0c0b 003a a359 20be a526 57bc
00000100: 902a a1be 9c01 813d 77db 34bd 29c3 b8bd
00000110: 238c b03d e20a 2dbd 818a babd 689d 15be
00000120: 684b c6bd b2af dabd eaf4 63bd dfe7 36be
00000130: 978e 063d dd89 a6bc e25e 27be 0b40 a2bd
00000140: 0100 25be 6e76 24be a860 9cbd aaf4 023d
00000150: 954e d33e 26b5 abbe d7a2 083f c17f 86be
00000160: 54c7 773e e71f b13e 0799 26be a6b6 71bc
00000170: 53f6 23be b0bd 1dbe d7e1 a0bd b88b 683c
00000180: 4a9c e5bc 887a 40be 3475 babd 317d fcbe
00000190: 572b e83e 68f6 a2be 0799 04bd 70bc 863b
000001a0: 9bfc 11bd 10b4 26be 94af c93d 65dc ecbc
000001b0: d7fa 11be 8d10 a8bd da7f 96bd 30cd 03be
000001c0: b07c cbbd 1361 8abc 6827 1cbc 926d 553d
000001d0: 823d 0ebe 8485 d7bd 4d4a e03c 4101 c6bd
000001e0: 8f43 5e3e 2042 b6be 3539 693e 6993 e9bc
000001f0: 3dbf 0bbd 3e4d 2c3e 7148 f9bc 987c 8e3d
00000200: fb18 4fbe a2a6 65bd c8c6 68bc de36 8bbd
00000210: a55c 26bd af99 2d3d 78a4 8cbd 985f 8abd
00000220: ccdc 253a 76c5 c4bb 4856 c1bc 3548 843c
00000230: 3630 a3bd 2107 9bbd 5b71 a33b 4d93 13bd
00000240: 026b 17be b8c8 87bc 7952 efbd f264 61bd
00000250: f9b6 943d 5e76 fdbc c9af 42be 3039 fd3d
00000260: e49e 533e fbdf 92bd 439b c93c d683 dbbc
00000270: 3913 3ebd bcfd b4bd 80e9 02be 35ee 87bd
00000280: 8589 5f3d 5fd8 afbd 34b2 9fbc f3cf 463c
00000290: 2296 5bbd 17f9 1abe 868c d2bc 2a61 f8bc
000002a0: 6134 23bd 7ae2 a7bd f5fd f5bd 13b2 dabd
000002b0: d162 053d f99f 2cbe b652 48bd 4943 4b3d
000002c0: b397 153d 0f84 12be 8cdf 293d 0be7 113d
000002d0: 9672 80bd 6428 9bbd 2534 e9bc 11ad e5bd
000002e0: 4963 af3c dc4d 12bd db2e 9cbd df85 cebd
000002f0: 18ed a1bd 8af1 0dbe 5d2d a8bd cf2e 60bd
00000300: 7d8e 98be 1b2e f7be 62d9 8f3e 1c0a 4a3d
00000310: c16e 17be a7b3 9d3e c862 38bd 570a 3d3e
00000320: f890 bfbd ff5e 91be 21e2 973e 2d1b e9be
00000330: 8d3f 4c3e 6e55 93bd 4b3b e23b 9c34 dabd
00000340: 7a5c 4d3c 33a1 93bd c59d 0d3e 34e1 193e
00000350: 7d7a 583d f976 c8be bcf1 ae3e 4743 15bd
00000360: 8051 a0be b363 a0be 7d4f 66bc 8285 153e
00000370: 0bca 09bd 24f5 afbd 0a1f 03bf 5bd8 c93e
00000380: 6770 953d 306d 023e 1315 2a3e 7c4d ee3d
00000390: 37b6 bdbd 1210 15be 279c df3d 76ef f6bd
000003a0: 1e24 3f3e 79c6 063e 4364 a23e bd29 523e
000003b0: 6088 8dbd f622 893e 2a6d 91be 1ef9 80be
000003c0: c6ee b53c 96f1 543e 3e08 243d 2956 0a3d
000003d0: 4442 48be 7002 823e 43c3 cfbe 6b02 f83e
000003e0: 1001 9b3d 5284 aa3e 37e9 1e3e 3cc6 97be
000003f0: 68b9 e43d 62da 2a3e 8ab9 85bd 58c8 7cbe
-0.23551571 -0.058464173 -0.05712332 -0.023232419 -0.03776698 -0.07583709 0.08134559 0.0028903158
-0.14661647 -0.24584231 0.30536455 -0.019953372 0.0047112764 -0.09440988 -0.12510054 0.19518793
-0.04765135 0.21989797 0.037025675 -0.028725263 -0.11204676 -0.18951453 0.08201602 -0.24537288
-0.30381992 -0.5020555 0.42175925 -0.029878853 0.0075853043 -0.042669684 -0.08758576 0.14841245
-0.22921474 -0.036036383 0.013310822 -0.2841297 -0.09895716 0.020116048 -0.053344034 -0.037450463
0.014285672 -0.075870104 0.41019106 0.19980535 0.3201067 0.0517617 0.023524987 -0.0973765
0.039746612 0.036525313 -0.08988107 -0.18928418 0.06066334 0.008985684 -0.19079657 0.19633234
0.009363016 0.021224238 -0.12563477 0.050956413 -0.009744276 0.00048844586 -0.15659194 -0.013131772
-0.31477785 0.06299135 -0.04415461 -0.09021599 0.08620479 -0.042246707 -0.09108449 -0.14610827
-0.09682351 -0.106780425 -0.05565349 -0.1786189 0.032850828 -0.02032941 -0.16344789 -0.079223715
-0.16113283 -0.16060802 -0.07635623 0.03197161 0.4127089 -0.33536643 0.53373474 -0.26269343
0.24197131 0.34594652 -0.16269313 -0.014753019 -0.16011934 -0.15404391 -0.078555755 0.014193468
-0.028028626 -0.18796742 -0.09104386 -0.49314263 0.45345566 -0.31828618 -0.0323725 0.004111819
-0.035641294 -0.16279626 0.09847942 -0.028913686 -0.14255844 -0.08206282 -0.073486045 -0.12871242
-0.09935892 -0.016891992 -0.00953088 0.052106448 -0.13890651 -0.10523513 0.02737918 -0.09668208
0.21705459 -0.35597324 0.22775729 -0.028512673 -0.034117926 0.1682634 -0.03043005 0.06957358
-0.20224373 -0.056067117 -0.014207549 -0.067975745 -0.040615696 0.042382892 -0.068673074 -0.06756514
0.0006327152 -0.0060049845 -0.023600712 0.016147712 -0.0796818 -0.07569719 0.0049878783 -0.03602915
-0.14786914 -0.016575202 -0.11685652 -0.05502791 0.07261462 -0.030940231 -0.19012369 0.12364423
0.2066608 -0.07171627 0.024610167 -0.026796263 -0.04640505 -0.088374585 -0.12784386 -0.06637231
0.05457451 -0.085861914 -0.019494154 0.01213454 -0.053609975 -0.15134083 -0.025701772 -0.030319769
-0.039844874 -0.08197494 -0.12011329 -0.10678496 0.03256494 -0.168579 -0.048907004 0.049624715
0.036521625 -0.14308189 0.041472957 0.03562073 -0.062718555 -0.07576063 -0.028467247 -0.112146504
0.021409648 -0.035718784 -0.076261245 -0.10084128 -0.0790655 -0.13861671 -0.08211777 -0.05473214
-0.2979621 -0.48277363 0.28095537 0.049326047 -0.14788343 0.30801126 -0.04501608 0.18460976
-0.093538225 -0.2839279 0.2966471 -0.45528546 0.19946118 -0.07194029 0.006904041 -0.10654566
0.012534255 -0.07208481 0.13829716 0.15027314 0.05285119 -0.3915327 0.34168804 -0.036441114
-0.3131218 -0.31326064 -0.014057037 0.1460171 -0.03363995 -0.08591679 -0.51219237 0.3942288
0.0729683 0.12736964 0.16609602 0.11635873 -0.0926327 -0.14556912 0.109184556 -0.12057392
0.18666121 0.13161649 0.3171712 0.20523734 -0.06910777 0.26784486 -0.28403598 -0.2519006
0.022208583 0.20795283 0.040046923 0.033773575 -0.19556528 0.25392485 -0.4057866 0.48439345
0.07568562 0.33304077 0.15518652 -0.29643428 0.11168176 0.16684869 -0.065295294 -0.246858

rnn.weight_hh_l0 f4 [192, 64]
00000000: 3d0a 3e3e 41ee 8e3d 2e47 3abd 2a98 513d
00000010: 116b e5bd 6fd7 13be c7e7 2abc 81ec df3d
00000020: 5292 3fbe 3412 d9bc e6eb 66bd 9788 5ebd
00000030: c56c 29bd b197 c5bc 6886 6abd 6370 203d
00000040: ffc2 7c3d b75f 753d 9caa f2bd f8da 24bd
00000050: 340c 0e3b 312a 4f3e 1478 31bc 9aa1 d0bd
00000060: 0ec5 a2bd 0ec5 f2bd e4dc 653d 5163 ebbd
00000070: 55de 3f3e bef7 0dbe fa7d c63d 595f 07be
00000080: 1df4 10be 7b3c 8abe 4c93 58bd 45ff 2f3c
00000090: fcf2 df3d d036 f73b 7289 47bd 3152 44bb
000000a0: 9217 bdbd e0c2 a53d 05aa 803e 38cf 223d
000000b0: 778b 203c 3c6a 1e3d ab2a 393d 4812 06bc
000000c0: 72db 813d a227 a33d 7387 83bc bb02 093c
000000d0: 82b6 f0bc c3f4 42bd 19fd 163e 7322 aa3c
000000e0: 6420 a2bd 4481 8d3d bdbc 8dbb 4932 c7bd
000000f0: d223 423c 814c 3a3d 28c8 803d 07b1 b7bd
00000100: bf55 213e bb2f 353c d69a a8bb 4734 cabd
00000110: 617f 903c 1b84 44bd 4e18 243c 243d febd
00000120: 9936 58be 1d28 54bb fa69 273e 0994 06bd
00000130: a428 a5bc 4467 f5bc f111 30be 8e32 27bd
00000140: 017f 79bd f3dd 14bc 833b 0dbe bf0e cc3d
00000150: 2a73 bfbd dd0f dd3d 57de 813d f744 233e
00000160: ba05 cebd 4e75 dbba 4f8c a43d cd38 9dbd
00000170: 8780 2c3d 8171 933d f638 c837 997d 38bc
00000180: dada be3d fd58 86be 98e9 7fbc b402 72bd
00000190: 7571 a33c ea62 1e3e 3374 9d3b 5c93 c9bb
000001a0: 8fec 9abd 33c3 90bc 13f1 87bb 1bbc 9ebc
000001b0: a8f9 3ebd 25a3 95bd c2b3 d03c f209 803d
000001c0: 9413 b5bd 984c 5dbd f2b4 6e3d 6644 bf3d
000001d0: 3f73 373d ae10 64bd 4853 a4bd be2c 90bc
000001e0: c954 16bd 9423 91bd fe98 e2bd dfd6 0dbd
000001f0: 34f5 12be 4d08 ffbd 2761 15bd 12e8 3ebe
00000200: bc96 453e 57a6 223d e880 99bd ab8a babb
00000210: 8db9 0b3e 378a 083e 1dc0 0d3d 39fe b0bd
00000220: 6928 09bd 7d34 0c3d 4052 803d 35c5 a4bc
00000230: ce2f 7ebc cd07 ecbd 5b57 e1bd 0fb5 8a3d
00000240: e0b5 833d d83e ad3c 2b1b 873c 1a1e b33d
00000250: 4bbe 473d b74d 0abd 0f83 a73d 0093 d43d
00000260: d0d7 09be a541 a2bc 514e b83d bb3e c9bd
00000270: be7c 4b3e fa4b f93d 4369 743d 86a8 1abd
00000280: a816 223d 81de 58be 6887 30ba 7417 9abd
00000290: c209 343d 7eb3 973d 4ab5 973c b119 98bc
000002a0: 86c6 a3bd 4bcd 81bb 3418 85bd 88f0 84bd
000002b0: 961d 473d ce9b b4bd 945e ae3d 0116 9dbd
000002c0: 1df7 f63b 7334 47bd 7a14 2d3c 0e83 6cbd
000002d0: 2649 583d 82f7 0cbd e43a 5dbd 443b 573d
000002e0: b3d3 f43c 6ae5 77bc 6ade 00bd 0b36 103d
000002f0: 9214 a2bd 8972 8f3c 1494 7ebc 03b9 97bd
00000300: 959c e6bd 3e44 bb3c 4040 91bd 930d 513e
00000310: f16f 41be 8bfa 9abd 3aca bdbd c753 4d3c
00000320: 1083 5bbe 99f4 12be a2db 203d a64d 0e3e
00000330: d2c9 663d 58b0 9ebd 6437 30be 5929 6fbe
00000340: 6560 b33b cce4 98bd 7089 fcbd 3faf 3fbd
00000350: 42df 00be cf1b 14bd 1123 57bd 8ad5 913c
00000360: 2eb6 143d af28 343d 1483 29bc 5e90 06bd
00000370: 7eaa 9a3e 2d20 64bd 0c5b 0d3d d37e 7fbd
00000380: 5e22 fe3c 6bdd 66be 9e9d 89bd d5e5 94bd
00000390: f864 94bc 148e 4f3d a9a3 6cbd 4dd2 d1bd
000003a0: 9b78 e2be 0e79 763e 0b18 b5bd cf3a bd3d
000003b0: 96bc 12be 51ac 32be 6553 61bc 81a7 a9be
000003c0: 86fb a9bd 4d03 ccbd a778 143e 289e 05bd
000003d0: f42f ec3d be3f d2bd d589 d9bb bacf d4bc
000003e0: 4fd8 593d 1a12 b0bd 0436 1bbe 5e6d 883d
000003f0: a6df ed3d f61a 2bbd aa87 b73c 2817 a5ba
0.18558593 0.06979037 -0.04547804 0.051170506 -0.11202062 -0.1443765 -0.010431237 0.109337814
-0.1870816 -0.026497938 -0.056377314 -0.05432948 -0.041363496 -0.024120184 -0.057257086 0.03916968
0.0617094 0.059905734 -0.118489474 -0.040247887 0.0021674754 0.20230938 -0.0108318515 -0.10187073
-0.079477414 -0.118539914 0.05611886 -0.114935525 0.18737157 -0.13864037 0.09691997 -0.13219966
-0.14155622 -0.26999268 -0.05287485 0.010742013 0.109350175 0.007544376 -0.048715062 -0.0029956216
-0.09233011 0.0809381 0.25129715 0.0397484 0.009798876 0.03867553 0.045206707 -0.0081830695
0.06340684 0.07966544 -0.016055798 0.008362467 -0.029383902 -0.047596704 0.14744987 0.02076838
-0.07916334 0.06909421 -0.004325478 -0.09726388 0.011849361 0.045483116 0.06288177 -0.08969312
0.15755366 0.011058743 -0.005145411 -0.09873252 0.017638864 -0.047977548 0.01001556 -0.124140054
-0.21114577 -0.0032372542 0.1634902 -0.03285602 -0.02016098 -0.029956467 -0.17194344 -0.040819697
-0.060912136 -0.00908612 -0.13792233 0.0996375 -0.09348138 0.10794041 0.06341236 0.15944277
-0.10059686 -0.0016743334 0.08034574 -0.076768495 0.04211476 0.071993835 2.3868382e-05 -0.011260414
0.093190864 -0.26239768 -0.015619658 -0.05908461 0.019951561 0.1546742 0.004805112 -0.0061516
-0.07564651 -0.017671203 -0.0041486113 -0.019376805 -0.04662481 -0.07306508 0.02547634 0.06251897
-0.08841625 -0.054028124 0.05827803 0.09339218 0.04478764 -0.05567997 -0.08023697 -0.01759946
-0.03670195 -0.07086864 -0.11064337 -0.034628745 -0.1435135 -0.12452755 -0.036469605 -0.18643215
0.19295782 0.039709415 -0.0749529 -0.0056928 0.13645001 0.13333975 0.03460704 -0.08642239
-0.033485804 0.034229744 0.06265688 -0.020113567 -0.015514327 -0.115249254 -0.1100299 0.067728154
0.06431174 0.02114813 0.016492447 0.08745976 0.048765462 -0.03376552 0.08179294 0.103796005
-0.13461232 -0.019806692 0.08999313 -0.09826418 0.19871804 0.121726945 0.059670698 -0.037758373
0.039572388 -0.21178629 -0.00067340443 -0.075240046 0.04395462 0.07407282 0.018519063 -0.018566938
-0.0799685 -0.0039612404 -0.06498757 -0.0649119 0.0486122 -0.0881878 0.08514133 -0.076702125
0.0075367824 -0.048634004 0.010563964 -0.05774217 0.052804135 -0.03441573 -0.05401124 0.052546754
0.029886102 -0.01513038 -0.03146211 0.03520779 -0.0791408 0.01751067 -0.015538234 -0.07408335
-0.112603344 0.022859689 -0.07092333 0.20415334 -0.18890359 -0.075673185 -0.09267087 0.012532181
-0.21436715 -0.14351119 0.03927196 0.13896808 0.056344815 -0.07748479 -0.1720863 -0.23355617
0.0054741376 -0.074655145 -0.123309016 -0.046797987 -0.12585166 -0.036159333 -0.052523676 0.017802019
0.036306553 0.04398411 -0.010346193 -0.032852523 0.302082 -0.055694748 0.034510657 -0.06237681
0.031022247 -0.22545402 -0.06719516 -0.072703995 -0.018114552 0.050672606 -0.057773266 -0.1024519
-0.4423264 0.24069616 -0.088424765 0.092397325 -0.14329752 -0.17448546 -0.013752793 -0.33135608
-0.082999274 -0.09961567 0.1449915 -0.032621533 0.11532584 -0.10266064 -0.0066387453 -0.025977958
0.053184804 -0.085972026 -0.15157324 0.06661485 0.11614923 -0.04177376 0.022403557 -0.0012595402

rnn.bias_ih_l0 f4 [192]
00000000: 3098 bc3c 164d eabb 4b2b 59bd 8715 983e
00000010: 088b 99bd 0503 c4bd d607 51bd e7fd 2c3d
00000020: bf1e 9a3e 0179 08bd d388 a93d c13a c1bd
00000030: 5598 c8bb c2f5 38bd 3835 9a3e 5072 5cbd
00000040: ff9b 84bd 02c0 f0bb 6af2 2dba 2906 a73b
00000050: 9b3a 92bd c727 f2bd a1b0 4cbc 175d 3cbc
00000060: 236a cf3c 89d8 c0bc 02fa 0f3c a0fb 86bd
00000070: cba6 403e 0e64 ef3e 1040 ba3c 6785 1e3a
00000080: 230f b63d 816f 9d3d bf1c 39bd 81d1 483c
00000090: a2eb 083c 7af7 1c3c 5ae6 08bd 5555 1ebd
000000a0: 2c58 403e 4904 c63e cb0c a73d 3f32 413c
000000b0: 247f 23bd 09c3 3abd 231e 81bc 5041 17be
000000c0: 496b 6a3b a8d3 43bd 630f 59bc c9b3 8abd
000000d0: 4775 84bd 8097 6bbd b9bf 993d c983 dcb9
000000e0: be9e cfbc 7009 51bd 94e1 9ebc 5c7c a33b
000000f0: ce58 7fbc 1006 42bc ef0b cfbb b283 fe3c
00000100: f4e7 42bf aa76 84bf 891b 69bf 3a28 2c3f
00000110: 83ed bcbe 2f28 7c3e ecbc 44bf da00 b4bf
00000120: 79d1 273f 0e9f 66bf a94e adbf 7d25 ecbe
00000130: de7e 79bf dff4 6bbf 405a 2b3f 1e74 3cbf
00000140: 3574 5abf cd5b 47bf ab6c 45bf 1bf9 64bf
00000150: 3d8c 50bf 86a9 99be 3f75 5bbf 806a 61bf
00000160: 5dd8 7bbf dc05 5dbf 616f 6fbf 4c84 1cbf
00000170: 092d 433f 87b0 263f cad5 8abf 4cc5 80bf
00000180: c252 cfbf 4152 4a3f 83aa 59bf b951 41bf
00000190: c1af 61bf 45ee 95bf b28c 67bf e653 82bf
000001a0: c7c1 233f ed34 183f fb08 e1bf 4752 80bf
000001b0: 8d56 5fbf 6a92 65bf 8d9e 52bf 6501 783e
000001c0: a58c 8ebf 3e31 4bbf 4b5f 1ebf a90b 57bf
000001d0: 4e49 59bf 18f4 38bf 7774 ccbf d184 50bf
000001e0: 2fde 85bf 347f 59bf 8964 4dbf f6f6 60bf
000001f0: e411 4cbf b3f6 71bf 387a 77bf dcba 5fbf
00000200: da5e 8d3b 85a4 4e3b a560 31bc 738a 0ebc
00000210: ea36 a9ba 07ae 44bc a503 42bb d1fd 67bc
00000220: a1ab 6cbc 38b1 dcba a2e4 6f3c 001b b8bb
00000230: 189d 053b 11d9 4dbc 5428 02bc 033a 603c
00000240: cd87 963a d703 24ba d2fe bdbb 4e34 dc3b
00000250: 08d1 b63b 8db4 fbbb a5f9 f03b a91d 093c
00000260: e7ca 1fbc f116 b3bb f540 eabb aea8 84bb
00000270: 8271 1f3c 946f 1f3c 305e aa3a 8735 1fbb
00000280: 187b 9d3b ff38 32bc 941e 15ba f42f 57bb
00000290: 9fd6 18bb 6c1f 1f3c 117f c93b 1a95 bd3b
000002a0: 3c41 28bc 16ff 8ab9 ba0f e6bb c421 d43a
000002b0: d390 203b b0d0 0ebc a161 153c 9fb2 bcb9
000002c0: 9d26 62bb 3d1c cbb8 3b37 c63b a73f feb6
000002d0: 94a5 353b 520e 37bc ccf8 d43b 97e3 4b3b
000002e0: 0a7e 6bbb a7e0 443b f855 84bc ab0a 9b3b
000002f0: 04db 04bc c2bb 673a b534 d7bb fcca 1ebb
0.023021787 -0.0071503026 -0.053019803 0.29703924 -0.07497221 -0.095708884 -0.051032864 0.042234328
0.30101582 -0.033318523 0.0827805 -0.094350345 -0.006121675 -0.045156248 0.30118728 -0.053819954
-0.064750664 -0.007347108 -0.0006635549 0.00509717 -0.07140084 -0.11823993 -0.0124932835 -0.011496804
0.025319165 -0.023540752 0.008787634 -0.065909624 0.18813626 0.46756023 0.022735626 0.00060471
0.08889606 0.07687283 -0.04519343 0.012256981 0.0083569605 0.009580487 -0.033422805 -0.038655598
0.18783635 0.38675144 0.08156737 0.011791765 -0.039916173 -0.045596156 -0.01576144 -0.14771008
0.0035769513 -0.047809273 -0.013248297 -0.067725725 -0.064676814 -0.05751753 0.07507271 -0.00042059858
-0.025344249 -0.05103439 -0.019394673 0.00498919 -0.0155851375 -0.011842266 -0.0063185613 0.031068657
-0.7613518 -1.0348713 -0.9105764 0.6724888 -0.36899957 0.24624704 -0.7685077 -1.406276
0.65554005 -0.9008645 -1.353963 -0.4612235 -0.9745921 -0.9217052 0.66934586 -0.7361468
-0.8533357 -0.7787445 -0.7711894 -0.89442605 -0.81463987 -0.3001215 -0.8572578 -0.8805313
-0.9837702 -0.86337066 -0.93529326 -0.6113937 0.76240593 0.6511311 -1.0846493 -1.006021
-1.6197131 0.7903176 -0.85025805 -0.75515324 -0.88158804 -1.1713339 -0.9044906 -1.0181854
0.63967556 0.5945576 -1.7580866 -1.0025109 -0.8724144 -0.89676535 -0.8227318 0.24219282
-1.1136671 -0.7937201 -0.61864156 -0.84002167 -0.8487748 -0.7224746 -1.5973042 -0.8145266
-1.045843 -0.8495972 -0.8023153 -0.8787683 -0.797148 -0.9451706 -0.96670866 -0.873945
0.0043142857 0.0031531167 -0.0108262645 -0.008700001 -0.0012910042 -0.012004382 -0.0029604223 -0.014159636
-0.014445216 -0.0016837483 0.014641913 -0.005618453 0.0020387825 -0.01256396 -0.007944185 0.013685706
0.0011484564 -0.00062566757 -0.005798199 0.0067201024 0.0055791177 -0.0076814354 0.0073539787 0.008368888
-0.0097529655 -0.0054653813 -0.0071488568 -0.0040484285 0.009731652 0.009731192 0.0012998041 -0.002429338
0.0048059337 -0.010877847 -0.00056884554 -0.0032834979 -0.0023321284 0.009712081 0.0061491807 0.0057855966
-0.010269459 -0.00026511465 -0.0070209177 0.0016184379 0.0024500384 -0.008716747 0.009117515 -0.00035991237
-0.0034507879 -9.685054e-05 0.0060490645 -7.5772e-06 0.00277171 -0.011172848 0.0064993855 0.0031110996
-0.003593328 0.003004113 -0.016154274 0.0047314963 -0.008108858 0.0008839929 -0.0065675625 -0.0024229875

rnn.bias_hh_l0 f4 [192]
00000000: 2c76 763c e892 3bbc 9910 50bd aceb 9a3e
00000010: ca82 acbd 3966 c8bd 8990 7dbd a564 293d
00000020: ab7c 943e 04d2 fbbc bdb6 ad3d 0e37 a9bd
00000030: 3618 38bc c006 36bd 2956 9e3e 6c10 37bd
00000040: f83c 8fbd a7c2 39bc caf0 223a 3d90 233c
00000050: d200 93bd b918 f8bd 2560 bbba bf2d 1dbc
00000060: 8da6 0f3d 5195 acbc 2273 863c bd51 7cbd
00000070: 05e4 403e d529 ea3e c7df 993c 499c ce39
00000080: ae56 bb3d d57c a73d ca27 23bd f728 983c
00000090: 1840 c73b 7356 723c 430e 23bd d7bd 43bd
000000a0: 3c32 4c3e 8883 c43e 2103 a93d ab19 9c3c
000000b0: a6e3 0bbd aa43 30bd 0a5a 81bc 35be 1cbe
000000c0: 9f8f 3f3c 4d58 5cbd cbd3 9fbc d1cb 86bd
000000d0: 059d 95bd d1e2 5fbd 9e0c 873d 531f cb3b
000000e0: 13ba 9cbc a200 5cbd ed4d 10bc f97b fb3a
000000f0: 84d0 4abc ec40 a6bc 2115 81bc 1b53 083d
00000100: 9466 44bf 631d 85bf bab0 6abf b46a 2b3f
00000110: c7be bebe a2de 773e 4c69 45bf 08e0 b5bf
00000120: 231a 263f cda1 65bf 4e86 adbf ccfc e9be
00000130: 365d 77bf 8290 6bbf 7178 2b3f 7955 3abf
00000140: 1954 59bf 9632 45bf 083b 41bf c7d3 62bf
00000150: 8206 50bf e849 9abe 001d 5bbf 586b 63bf
00000160: 49d4 7cbf 0016 5cbf c552 72bf 632b 1bbf
00000170: dc9f 433f dba3 253f 085d 8abf 933e 81bf
00000180: a88b d0bf cfe5 493f fdaa 5cbf ccb4 42bf
00000190: ea6d 61bf 89bc 95bf e3cf 64bf 6f44 82bf
000001a0: c153 243f 20ff 193f d94b e1bf 7be9 7fbf
000001b0: f79b 5ebf ad76 66bf 7947 56bf bc7c 713e
000001c0: 2cef 8ebf 5728 4abf 933b 1fbf e14f 59bf
000001d0: ae48 59bf 42b6 37bf 8db1 cbbf 39d8 50bf
000001e0: d655 85bf 00cf 58bf 8db4 4bbf a4fb 63bf
000001f0: fe46 4cbf b5e9 70bf 82c9 79bf 7098 5ebf
00000200: adda b6bc 9e34 13bc 82ef 123c 8e8f 3e3c
00000210: 1a18 b8bc fc9d 7dbb bc14 ae3c ac5a dc3c
00000220: 1627 a13c 1e3a c3bb b638 e6bc b6e2 46bc
00000230: edd9 103c 88c5 843c 7c40 4b3c 14b4 73bc
00000240: e19e 21bc 74f1 a7bb 6243 873c ca1f c2bb
00000250: b7b7 bcbb e73a 3fbc 346c b33b add8 e1bc
00000260: efeb a53c 3961 143a ede2 2d3c 2867 113b
00000270: 829c 58bc a915 17bc 8909 fa3a 02f2 43bc
00000280: a602 d0bb fe49 bc3b 81a4 b1ba 9bac 483c
00000290: 5fc5 1ebb 1715 93bc 46c4 a4ba d32a e4bb
000002a0: 2491 2a3c cc7d 0e3a 7765 2c3c 1ec0 23ba
000002b0: e974 c7bb e7d4 d13c f016 a4bc 82a9 f4ba
000002c0: 9b0b 373c 6ddd 4d3b df8d cabb 46d0 dd3a
000002d0: 5c67 9f3b 9dae 893c 054d 10bc fd8c 2f3c
000002e0: 2ef7 a7bb 547f 73bb 70e2 983c 786c 7d3c
000002f0: 19fd ad3c 8655 8c3b 7461 da3b 7858 6d3c
0.015042823 -0.011448599 -0.05079708 0.30257928 -0.084233835 -0.097851224 -0.061905418 0.041355748
0.29001364 -0.030739792 0.0848212 -0.08262454 -0.011236241 -0.04444003 0.3092511 -0.044693395
-0.06994051 -0.011337913 0.000621569 0.00998312 -0.07177891 -0.121140905 -0.0014295621 -0.009593426
0.035070945 -0.021067293 0.016412321 -0.06160139 0.18836983 0.4573504 0.018783463 0.00039407823
0.09147392 0.08178107 -0.039832868 0.018574221 0.0060806386 0.014791119 -0.039808523 -0.047788467
0.19941038 0.383816 0.0825255 0.019055208 -0.03415265 -0.04303328 -0.015790004 -0.15306933
0.011691957 -0.053795148 -0.01951017 -0.06581844 -0.0730534 -0.05465967 0.065942034 0.0061988025
-0.019131696 -0.05371154 -0.008807641 0.0019186727 -0.012378816 -0.020294629 -0.015757145 0.03328238
-0.7671902 -1.0399593 -0.91675913 0.6695969 -0.37254927 0.24206021 -0.77113795 -1.4208994
0.6488363 -0.89700013 -1.3556612 -0.4570068 -0.96626604 -0.92017376 0.66980654 -0.7278667
-0.8489395 -0.77030313 -0.754807 -0.88604397 -0.8125993 -0.3013451 -0.85591125 -0.8883567
-0.9876142 -0.8597107 -0.94657546 -0.6061308 0.764158 0.6470315 -1.0809641 -1.0097221
-1.629262 0.78866285 -0.8619841 -0.76057124 -0.8805834 -1.1698161 -0.8937971 -1.0177134
0.641903 0.60154915 -1.7601272 -0.9996564 -0.86956733 -0.90024835 -0.8370281 0.23582739
-1.116674 -0.78967804 -0.6220028 -0.8488751 -0.84876525 -0.7176248 -1.5913559 -0.8157993
-1.041682 -0.84690857 -0.79572374 -0.8905585 -0.79795825 -0.9410661 -0.975731 -0.8695135
-0.02232107 -0.008984713 0.008968236 0.011630906 -0.02247243 -0.0038698902 0.021250121 0.026898704
0.019671958 -0.005957856 -0.028103214 -0.012139013 0.00884102 0.016207471 0.012405511 -0.014874477
-0.00986454 -0.005125219 0.016511623 -0.0059241997 -0.005759205 -0.011671758 0.0054755453 -0.02756914
0.020254103 0.0005660239 0.010613185 0.002218673 -0.013220908 -0.009221473 0.0019076328 -0.011959555
-0.006347972 0.0057461252 -0.0013553054 0.012248184 -0.002422653 -0.017954392 -0.0012570701 -0.006963113
0.010410581 0.00054356153 0.010522238 -0.0006246584 -0.006086935 0.025614215 -0.020030469 -0.001866624
0.011172201 0.0031412498 -0.006181463 0.0016923032 0.0048646163 0.016806895 -0.008807425 0.010714767
-0.0051259017 -0.003715475 0.018662661 0.0154677555 0.02123885 0.004282656 0.0066644493 0.014486425

rnn.weight_ih_l0_reverse f4 [192, 3]
00000000: c0c3 9ab9 30f8 bf3d 15b4 363e a128 3fbc
00000010: 99aa 873d c97a 3e3e 9992 51bd 2243 ad3c
00000020: dc1f e13e 1600 cbbd ef9a 2a3d ab97 633e
00000030: e644 71bd b324 d63c f024 a33e bb6a cebb
00000040: 17db 833b 0623 133d 658c 5abe 4ef5 1f3e
00000050: e936 1d3e 289d 8c3d aa4e b93d 169a a0bc
00000060: 6eb8 c6bd c5c4 19bd a6eb 833e 7c79 d2bc
00000070: a0d1 99bd 573c 963e 6708 2b3c c052 e3bd
00000080: 05b1 183e 9569 f53d cd30 7a3d 5d07 793d
00000090: e9c0 a2bd 5f18 57bd 7dda cb3c 1825 4dbc
000000a0: 5df0 20bc 2efd 2dbd 1d43 35be d132 fc3d
000000b0: 1e27 ea3c 0cc2 32bc 0cf4 9fbb 0369 2c3e
000000c0: b5ac 0c3d 3831 9c3d 816e cdbc b05c d13d
000000d0: 0315 20bd 67da 833c e123 cc3d db99 14be
000000e0: 0353 2abd 57cc f5bc 3650 0dbd a209 ab3e
000000f0: 789b 093e 1c6f 0cbd 7577 953c 295e 30bd
00000100: ad81 febc b2ce ba3e 7876 19bd 87af 66ba
00000110: 540e fd3c 57e6 c43d ee52 e7bb 8948 4bbd
00000120: 8498 3a3e ea75 223a 2de4 0fbd 75f7 71bc
00000130: f4c3 a8bd 6e5a 6b3e 5164 4bbd bd3e f9ba
00000140: 6b85 12bd 33fc 56be b707 5ebe da17 073e
00000150: 56ec e73d 03c4 103e 545a e43d 334d 4bbe
00000160: 40ac 903d 9278 293e e864 78bd 3e83 c53b
00000170: dc61 573e 2d6e cd3a c920 133e 3c0c 583e
00000180: 85be d53d e9fb 483e 06c8 e43d 547c f4bd
00000190: ba00 2e3d 7ed4 59bd f03a 18be 1f7c 09be
000001a0: 5d26 a83e eb17 0ebe 88ea 193a b5ad 9d3d
000001b0: ba16 293e f007 9cbd a6c6 8d3d e713 f23d
000001c0: 5225 193d a0e7 223d 50ea 45be b810 193e
000001d0: 4d66 bc3d 00ac 113e 7670 a83d ac69 d5bd
000001e0: dd3d a13d af83 463d 30d4 ad3d 3a75 24be
000001f0: 37d5 b9bd a623 fbbd 34d2 803c 5666 e7bd
00000200: 77f5 cc3e 2821 0538 3da4 b5bd 4c61 0dbe
00000210: e4fa 82bd 8370 dcbd 17b7 6b3e 8af4 8fbc
00000220: 96f9 c3bc 06b7 643e 1bbd 2cbe 9959 0e3e
00000230: f0b0 9a3e 5954 f3bd fc81 d8bd 37ad 99be
00000240: f8be e63d 29e3 1fbd b222 81bd 731a 183e
00000250: 7cae 9d3e 265b 593e 3647 033e f4a6 1fbe
00000260: 160b 5fbd dc13 9abc 4df4 633b 714b 743c
00000270: cbc5 b1bc 89da c4bd 9917 c53d 2d4f a9bc
00000280: 7362 0b3d 24fc 2ebe 199e 65be 7dd3 113e
00000290: 070e 3a3e 9a9e 0abe 1847 b53a ed53 9f3e
000002a0: e89f 13be a113 ebbc 3ff9 d6bb 4450 c5bc
000002b0: c544 203d bcff 0e3e d646 fbbc fa06 083e
000002c0: 52d4 953e 9605 47bd be1f 81be 52f2 6d3e
000002d0: b9b3 43be d9dc b5bd dbd7 6f3d 9e21 473e
000002e0: e91d d53c 6c2d 083d 16a6 e7bd 706f 12be
000002f0: 0490 193e 20f9 9e3d 174d 8f3d 55cb b7bd
00000300: 9cbd e03d 00a2 4d3c 2f2b 8abe 4b51 bc3d
00000310: 9893 443d eccd 08be 6715 853e 54a3 f33e
00000320: 556d 9abe ed39 fc3d be32 b83d c7e6 95be
00000330: b9a8 423c 562e b8bd 1ba5 d23c c5e1 653d
00000340: d1d3 6ebb f7c6 09be 00a1 9c3e f799 f6bd
00000350: a38b f53d 7fe0 16be 7e19 7a3d 6517 86be
00000360: cab2 1a3e b7ca af3e 5460 a4be 4eb9 d33d
00000370: a4f6 183e 08b4 afbe f676 0fbe 3dc0 29be
00000380: a237 6bbd fbcd c23c f837 973c d243 56be
00000390: bc74 2ebe d8da 91be 0cc3 95be 1c89 00bf
000003a0: 74a1 35bf e21a 90be 4a10 93be 82a4 9abe
000003b0: 3e7e a9bd bff0 a53d ee25 5f3d fc17 61be
000003c0: 2ae5 873d 6b4d 583e b273 b0bd e11f 8c3d
000003d0: 6bdc a3bd 686e 92be 3603 2d3e 59f8 a7be
000003e0: 29fa 743c 3a7b ec3d ebfe 8b3e b3dc 93be
000003f0: e352 803d 0c19 efbd 8862 bb3c 3956 803e
-0.00029519014 0.0937351 0.17842133 -0.0116674015 0.06624336 0.18601526 -0.051165197 0.021150175
0.4396962 -0.09912126 0.041651662 0.22225825 -0.058903597 0.026140546 0.3186412 -0.0062993444
0.0040239203 0.035922073 -0.21342619 0.1562092 0.15352978 0.06865913 0.09048207 -0.019604724
-0.09703146 -0.03754117 0.25765723 -0.025692694 -0.07510686 0.2934291 0.010439015 -0.11099768
0.14911278 0.11983029 0.061081696 0.060798038 -0.07946951 -0.052513476 0.024884457 -0.012521051
-0.009822932 -0.04247778 -0.17701383 0.1231438 0.028583106 -0.010910522 -0.0048813876 0.16836934
0.034344394 0.07626575 -0.025077106 0.10222757 -0.03908254 0.016095353 0.09967781 -0.14511816
-0.041583072 -0.030004663 -0.034500323 0.33405787 0.13438213 -0.03428565 0.018245438 -0.043058548
-0.031067694 0.3648582 -0.037466496 -0.00087999593 0.030890621 0.09614246 -0.0070594465 -0.04962972
0.18222243 0.000619738 -0.035129715 -0.014768471 -0.082405 0.22983715 -0.049656216 -0.001901589
-0.03577177 -0.20994644 -0.2168263 0.13192692 0.113243744 0.14137273 0.11150041 -0.19853668
0.07064104 0.165499 -0.060643107 0.006027608 0.21033424 0.0015673094 0.14367975 0.21098417
0.10436729 0.19627346 0.11170964 -0.11937776 0.04248116 -0.053181164 -0.14866233 -0.13426255
0.3284177 -0.13876311 0.00058714347 0.076991476 0.16512576 -0.076187015 0.06922655 0.11820202
0.037389107 0.039771676 -0.19327664 0.14947784 0.091992 0.14225769 0.08224575 -0.10420546
0.078731276 0.048465427 0.08487737 -0.16060343 -0.09073871 -0.12262659 0.015725233 -0.11298816
0.40031025 3.174055e-05 -0.088692166 -0.13806647 -0.0639551 -0.107636474 0.23019062 -0.01757266
-0.023922723 0.22335443 -0.16869013 0.13901366 0.30213118 -0.118813224 -0.105716676 -0.30014965
0.11266893 -0.039034996 -0.06305446 0.1485384 0.30797184 0.21226177 0.12820134 -0.15591031
-0.05445393 -0.018808298 0.0034783066 0.014910565 -0.02170076 -0.09611995 0.096236415 -0.020667637
0.034029435 -0.17088372 -0.2242359 0.14240833 0.18169414 -0.13537064 0.0013830392 0.31118718
-0.14416468 -0.028695883 -0.006560474 -0.024086125 0.039128084 0.13964742 -0.030673426 0.13283911
0.2926355 -0.04858931 -0.2521953 0.23236969 -0.19111528 -0.08880014 0.058555465 0.19446418
0.026015239 0.033246443 -0.11310975 -0.14300323 0.14996344 0.077623606 0.069971256 -0.089743294
0.10973665 0.012550831 -0.2698607 0.09195193 0.04799232 -0.13359803 0.2599289 0.47585547
-0.3016154 0.12315736 0.08994053 -0.29277632 0.011881047 -0.08993213 0.025713494 0.056123514
-0.003644217 -0.13454805 0.30591583 -0.12041085 0.11989524 -0.14734076 0.061059467 -0.26189724
0.15107265 0.34334347 -0.32104743 0.103380784 0.14937836 -0.3431704 -0.14010224 -0.1657724
-0.057426102 0.02377986 0.018459305 -0.20924309 -0.17036718 -0.28487277 -0.2925037 -0.5020921
-0.7094948 -0.2814551 -0.28723365 -0.30203635 -0.08276032 0.08102559 0.054479532 -0.21981806
0.066355065 0.21123283 -0.08615817 0.06842018 -0.08001026 -0.28599858 0.16895756 -0.32806662
0.014952221 0.11546941 0.27342924 -0.28879318 0.062658094 -0.11674699 0.022874132 0.25065783

rnn.weight_hh_l0_reverse f4 [192, 64]
00000000: 6477 a1bd d87c 96bd d57b 9d3e c01c 253d
00000010: 2e99 90bd cc67 f9bb faab 14be 4677 4c3d
00000020: 3147 dd3d 3242 a63c 0500 16be 009e 713d
00000030: 9e07 483e 3eb2 cf3e 2d85 10be 2880 b33d
00000040: d9d5 f53b d13a d43d 4a3a 0bbd e075 36bd
00000050: 0ab8 873c 31ba 70be 584d 2c3d 269c 6ebd
00000060: de3c 7c3d d050 16be 71b1 0e3d 75d4 673d
00000070: 3e94 5d3c d4d4 cf3d a4a2 26bd 6a51 113d
00000080: 3927 3ebd 9d29 9a3d 203d 9f3e aa0c 283d
00000090: 9ccc c6bd c9e3 6d3a 9399 ac3d 39b2 253e
000000a0: 9cd9 07bd 8ab0 aabe 6c17 783e 1056 68bd
000000b0: c57b 003d a85c 1e3c 8fc6 12be eead 71be
000000c0: 12b7 b83d 9b59 f8bc 8447 e9bd ecb5 edbd
000000d0: d905 063d fb24 35bd 9188 033e 41a1 58bd
000000e0: e962 efbc 97ee e0bd 640a a83e 8c44 09be
000000f0: 4447 433c 717c 073d 10bd 043e eb09 813d
00000100: 5e07 1dbe 961f 63be 8225 813e cee8 0d3d
00000110: 8b69 093e 2f87 d1bd be51 70be 9fa9 0dbd
00000120: 9f9b 423d 78e3 08bd 53ba d4bd 2deb dd3c
00000130: 7fa5 083e be62 9a3e f358 4ebe a5a2 103e
00000140: a43f d4bd b9e2 d73d 947c f4bc 4e7d 3bbc
00000150: 8ac6 d83d 78c8 80be 3563 3bbd 57e4 a33c
00000160: a321 34bc af5f d0bd 99b7 0fbe d0b1 1c3e
00000170: 5b92 2e3c fab8 623e 717d 353e e29e ad3c
00000180: e7f7 d6bc ff44 a1bc 425c 6f3e 74b3 e13d
00000190: e74a 4abe 2e75 61bd f607 d03d ef4a 0a3e
000001a0: ea77 14be d8ac 8cbe 2280 d13d 4e56 19be
000001b0: d374 19be 301b 573e ec36 4bbe 6b06 77be
000001c0: 2110 963c 75e8 c6bd 2acf 52be dcd6 e6bd
000001d0: 9826 6b3e 8adc a0bd cb64 6d3e ba44 cc39
000001e0: 7f0a 953d be2d 79bd 5878 b03e 52c2 c6bd
000001f0: 52d0 cabd 10c6 1f3e c0d3 323e 8ff1 233b
00000200: 4135 983d 1827 123e 7cee e43e f5f2 d7be
00000210: 7de9 2f3e 5bde 333e 884a 253c 2cb2 98bd
00000220: 5ed1 db3e bb1c 993e 4aa3 4c3e b82a d3bd
00000230: 0380 8fbe 025d 04be 330f 16be 4b2e f3bd
00000240: 380f 81be 9609 0abd 33be 083e 65ae ddbe
00000250: 8daf b23d 8bd3 a2be f7c3 393e 9194 32bd
00000260: 0b89 593c 7fb1 e5be 0501 4bbe af71 28be
00000270: d6d9 18be e5a5 893c b95d 4e3e a164 953e
00000280: 24e3 0e3e 5b87 dd3d 233c c93e c41d 1abe
00000290: 776c 43bd e04e 27be 9f04 1b3d 5606 fdbd
000002a0: 3a65 453e 237d 223e 0721 c73e f1e9 76be
000002b0: 635a 52be 4045 513e 656d c9bd 04fd 2c3e
000002c0: 5fa1 e73d 4013 2c3e 4ba7 2f3d b664 e6bc
000002d0: 371c 503e 7a36 603e 3a12 55bd 219a 783e
000002e0: 6980 b0bd 12df 5f3e 0f8f d03e 53b8 633e
000002f0: 4c4b 4d3e d4bd 14be 6193 9ebe b015 2f3c
00000300: ffa1 b2bc 4c30 2b3c 2b27 083e c3d7 98be
00000310: 0f48 103c 9bb2 143c c04d 2c3e 8ecb 03bd
00000320: 5aab 0e3e 12eb cc3d 8b5b 9f3d 09be 35bb
00000330: 99a2 a0be b350 b9be 0441 593d 760d b3bc
00000340: e47a 8ebd b5f5 463c 7404 44bd 02e1 16be
00000350: e484 e3bc ba06 fabc a6d1 a83c 8cf0 16bc
00000360: 1255 72bb d649 f9bd 5c19 c13c f2a2 7dbd
00000370: de63 1a3b f635 7a3b a8dc 2d3d 22bc d93d
00000380: 5be3 173c 27ca c03a ff32 5d3d 0c14 6cbc
00000390: a132 03bd 10ff 51bc e3a8 413b 3f64 aabc
000003a0: 9652 563d b3f7 893e 6c93 ba3c 18fa 54bd
000003b0: cc6f 8fbc f609 4f3d f191 b43d 7a47 9e3e
000003c0: df0f 8d3c 3d20 1cb9 c6c5 10bd 08ec d5bc
000003d0: 878d c53d e287 5c3e 0fba 1b3d 6818 9d3d
000003e0: c376 1f3d 29f3 973d dfdf 8b3e 5378 e13d
000003f0: c6bb 933d 84e7 0c3a 848e 6dbe af55 183b
-0.078841 -0.07348031 0.3075854 0.04031062 -0.07060467 -0.0076112505 -0.14518729 0.049918436
0.10804594 0.020295236 -0.14648445 0.05898857 0.19534156 0.40565675 -0.14113303 0.08764678
0.0075022993 0.10362781 -0.033991136 -0.044546008 0.016567249 -0.23508526 0.04206595 -0.058254384
0.061581485 -0.14679265 0.03483719 0.0565991 0.013524113 0.101480156 -0.04068245 0.035478033
-0.046424124 0.07527468 0.31101322 0.041027702 -0.09706995 0.0009074775 0.084277295 0.16181268
-0.033166513 -0.33337814 0.24227685 -0.0567227 0.031368036 0.009665646 -0.14333557 -0.23601505
0.09019293 -0.030316165 -0.11390594 -0.116069645 0.03272042 -0.04422472 0.12845065 -0.05288816
-0.029221969 -0.109830074 0.32820427 -0.13405055 0.0119188465 0.03307766 0.12962747 0.0630072
-0.15334842 -0.22180018 0.2522393 0.034645848 0.13419168 -0.10230862 -0.23468682 -0.03458559
0.047511693 -0.033420056 -0.10387101 0.02708968 0.13344382 0.3015346 -0.20151119 0.14124544
-0.10363701 0.10541291 -0.02984456 -0.011443449 0.10584743 -0.25152946 -0.045748908 0.020006342
-0.010994348 -0.101745 -0.1403488 0.15302205 0.010655011 0.22140875 0.17723633 0.021193925
-0.026241256 -0.01968622 0.23375037 0.11020556 -0.19755135 -0.055043392 0.101577684 0.13505147
-0.14498869 -0.2747562 0.102295175 -0.14974329 -0.14985971 0.21006465 -0.1984517 -0.24123542
0.018318238 -0.097123064 -0.2058684 -0.1127145 0.22963941 -0.078545645 0.2318298 0.00038961117
0.072773926 -0.06083464 0.34466815 -0.097050324 -0.09903015 0.15602899 0.17463589 0.0025015806
0.074320324 0.14272726 0.447132 -0.4217755 0.17178912 0.1756529 0.01008857 -0.074558586
0.42933172 0.29904732 0.19984165 -0.10310882 -0.28027353 -0.12926105 -0.14654236 -0.11874064
-0.25206923 -0.033700548 0.13353805 -0.43297115 0.0872489 -0.3180202 0.18141161 -0.043598715
0.0132773025 -0.4486198 -0.19824608 -0.16449617 -0.14926848 0.016802737 0.2015294 0.29178336
0.13953835 0.10816833 0.39303693 -0.15050417 -0.047710862 -0.16338682 0.037846204 -0.12354724
0.19276896 0.15868048 0.38892385 -0.24112679 -0.20542292 0.20436573 -0.098353185 0.16893393
0.11310076 0.16804218 0.042884152 -0.028124195 0.20323263 0.21895781 -0.052019335 0.24277546
-0.08618242 0.21862438 0.40734145 0.22238283 0.20048255 -0.14525539 -0.30971816 0.010686323
-0.021805761 0.010448527 0.13296191 -0.29852113 0.008806243 0.009075786 0.16826534 -0.032176547
0.13932553 0.100057736 0.07781132 -0.0027731678 -0.31374052 -0.3619438 0.05304052 -0.021857005
-0.06957033 0.012143542 -0.04785581 -0.14734271 -0.027773328 -0.030520786 0.02060778 -0.009212624
-0.0036976975 -0.12172286 0.023571663 -0.061922975 0.002355806 0.0038179136 0.042446762 0.106315866
0.009270514 0.0014708684 0.05400371 -0.014409076 -0.032030705 -0.012817159 0.0029550127 -0.020799754
0.052324854 0.26946792 0.022775374 -0.05199632 -0.017509364 0.05054661 0.088168986 0.30913907
0.017219482 -0.00014889329 -0.03534486 -0.026113525 0.09646135 0.2153621 0.038019236 0.07670671
0.03893162 0.07419426 0.27319238 0.11009278 0.07213549 0.00053750747 -0.23198897 0.002324443

rnn.bias_ih_l0_reverse f4 [192]
00000000: 6930 abbf 5daf a8bf cd3e 123d 4e57 d03d
00000010: 7c20 8abe d920 e5bf 307c cebe 05f7 a7bf
00000020: f1bc 423d 5826 cdbb 1cb1 98bd d9b8 b8bf
00000030: b738 e73d cf02 9e3d cb34 0fbf cd36 74bf
00000040: a0e5 b3bd 8a6e 8ebf 2064 c0bd cdcd 393d
00000050: 2925 25bf d69f 83bd 9377 dabf 61b9 eebf
00000060: 8333 acbf 2b81 103d be96 54be 7590 98bf
00000070: bfdd 72bf 5b2c 83bf e017 65be 9e1a 6cbd
00000080: f126 8fbf 5fa7 b5bf 83be 7abb 0238 6cbf
00000090: 5730 08bf 13c6 8abd 976e b4bf 0457 e1bd
000000a0: bb85 f8bf 95ed 7fba cc7f 033d eff6 adbe
000000b0: e978 4dbe 9755 8abe 8e44 f0be 1adb 49bc
000000c0: 799d e9bf 5453 5ebf 944e 70be 6ae2 d5bf
000000d0: d8ba 83be 0cd0 ecbd 1ba1 61bf b557 c9bd
000000e0: f9d4 f0bf 8ebf d1bd a0bc 563e 8851 cbbd
000000f0: 8f47 d5bf 4a01 5cbd 44e7 55bb 068f b3bf
00000100: 26e9 d43e c2da ed3e 9fb0 da3d bcaf 59bc
00000110: 5c39 ec3e e7a5 be3e 3a37 313f 2d65 193f
00000120: 78d9 603d 5c11 303e 0767 b53e 3203 d63e
00000130: 7709 52bd cabe 913d eaac 413f 59c8 d83e
00000140: bc55 ac3e 0306 103f f427 9f3e b248 763d
00000150: c005 313f 863d 6f3e 6298 fc3e 526c 293f
00000160: e4b4 1e3f 2032 883d ffda 0d3f 0a14 c23e
00000170: 1c43 cc3e 79b5 3a3f b92c f23e eb5c 753e
00000180: 1a41 c83e 0cb6 2a3f 85ec 543e 7555 003f
00000190: 3952 3c3f e7c8 9b3e 12ad 213f bb39 983e
000001a0: 542a ad3e c8e9 6a3e 96c9 0a3e a215 2f3f
000001b0: c3e3 073f 4234 0a3f 6777 3a3f 91fb 733e
000001c0: 2e61 2d3f 4901 c73e e4d4 1f3f 3b01 1c3f
000001d0: 5331 063f 103b 843e 547f 243f 8d79 7c3e
000001e0: 38b1 213f 91fe 8f3e 9241 38be 0923 923e
000001f0: f8e7 103f 96d6 c53e 3a45 413e f582 213f
00000200: f6da 013b 138e 07b9 85f2 e13b 533f 1f3a
00000210: 56a9 bab9 9f61 873b 3c9f 07bb b186 c23a
00000220: 6583 7dbb 8892 333b 11be 033b abda 84bb
00000230: 1486 9c3b 8448 b73b 4fb4 6a3a 4267 813a
00000240: 3160 cfbb 2f31 a5ba 9770 fbba df43 2ebb
00000250: ae5f 883a 7367 a3b9 f622 203b f8dd 7dba
00000260: 1a4c 62bb 8741 2eba 6160 11bb d03f e73a
00000270: 4186 e9ba 7469 fe3a ebc8 86bb 47a3 c13b
00000280: 0877 c8b9 bfa1 dbb7 b933 7f3b ed01 683b
00000290: a0ee 6a3a 2ddd 28bb eaf7 b63a fc81 96bb
000002a0: 21d3 d839 13ad 4bbb f1be 8f3a c85c 7bbb
000002b0: 70f0 3e3b 2ab6 11bb f127 1f3b 2553 aab9
000002c0: 6653 96ba e7b6 173b 449c 15bb c882 ce3a
000002d0: 8f87 54ba 4a2d 2338 2d4a 2b3b 7beb 9a3b
000002e0: 7c31 e2ba 5b81 01b9 9829 903a 7115 b6ba
000002f0: bcad 6739 de2f ac39 4ce5 113b 30f9 2dbb
-1.3374149 -1.3178517 0.035704423 0.10172902 -0.2697791 -1.7900649 -0.40329123 -1.3122259
0.04754347 -0.0062606744 -0.07455656 -1.4431411 0.112901144 0.077153794 -0.5593993 -0.9539612
-0.08784032 -1.1127484 -0.09394097 0.045362283 -0.64509827 -0.06426971 -1.7067741 -1.8650323
-1.345322 0.035279434 -0.20760629 -1.1919085 -0.9486961 -1.0247911 -0.22372389 -0.05764257
-1.1183759 -1.4191703 -0.0038260526 -0.9227296 -0.5319876 -0.06776061 -1.4096249 -0.11002925
-1.9415811 -0.00097628805 0.0321043 -0.33977458 -0.20065655 -0.27018425 -0.46927303 -0.012320304
-1.8251182 -0.868459 -0.23467475 -1.6709721 -0.25728488 -0.11563119 -0.8813645 -0.09831182
-1.8814994 -0.10241614 0.20970392 -0.0992766 -1.6662463 -0.053712167 -0.0032639066 -1.4028022
0.41584128 0.4645596 0.10678219 -0.013286527 0.46137512 0.37235948 0.69224894 0.59920007
0.054894894 0.17194122 0.35430166 0.41799313 -0.051278558 0.07116468 0.7565447 0.42340353
0.3365916 0.56259173 0.3108517 0.06012792 0.691494 0.23363313 0.4933501 0.6618091
0.6199477 0.066501856 0.55412287 0.37905914 0.3989495 0.72933155 0.47299746 0.23961227
0.3911217 0.6668403 0.2079335 0.501304 0.7356296 0.30426714 0.6315471 0.29731545
0.33821356 0.22940743 0.13553461 0.68392384 0.5308191 0.5398599 0.72838444 0.23826434
0.6772641 0.38868168 0.6243422 0.6093938 0.5241901 0.2582631 0.6425679 0.24655743
0.6316104 0.28123906 -0.17993763 0.28542355 0.56603956 0.3864028 0.18874064 0.6309045
0.0019814349 -0.0001292753 0.0068953657 0.00060748047 -0.0003560285 0.0041315104 -0.0020694276 0.0014841167
-0.0038683054 0.0027400572 0.0020102302 -0.0040543876 0.0047767255 0.0055933613 0.00089532597 0.0009872692
-0.0063286056 -0.0012603159 -0.0019183335 -0.0026590747 0.0010404491 -0.00031166858 0.00244349 -0.000968426
-0.0034530223 -0.00066473376 -0.002218269 0.0017642919 -0.00178165 0.001941009 -0.0041133068 0.0059093568
-0.00038235658 -2.6182153e-05 0.0038940741 0.0035401538 0.00089619495 -0.0025766597 0.0013959382 -0.004593132
0.00041356034 -0.0031078502 0.0010966939 -0.0038354862 0.002913501 -0.0022233822 0.0024285282 -0.00032486874
-0.0011468946 0.002314979 -0.0022828737 0.0015755529 -0.0008107358 3.8904407e-05 0.0026136742 0.0047277785
-0.0017257179 -0.00012350587 0.0010998724 -0.0013891888 0.00022094598 0.0003284206 0.0022261916 -0.0026546232

rnn.bias_hh_l0_reverse f4 [192]
00000000: 530f aabf c740 a9bf cdc8 143d 92f2 e13d
00000010: 74c9 8cbe 7a64 e4bf c0db d3be 8be3 a8bf
00000020: f44c 733d 0422 1a3c ea19 84bd 0eba b9bf
00000030: 7cbe e43d 1ee6 b33d 5a46 10bf b686 74bf
00000040: a74f a8bd 2911 8dbf 460b b9bd 425d 293d
00000050: d47a 23bf 162f 79bd bd29 dabf 02cc efbf
00000060: 2000 adbf 207d e33c 7874 55be 4c16 99bf
00000070: 70c9 71bf 142b 84bf 2091 65be afa9 96bd
00000080: d428 90bf 0285 b7bf db79 00bc eeff 6bbf
00000090: a59f 07bf 021c 6fbd 7f4d b5bf 7b34 dfbd
000000a0: 1cdf f9bf 7381 a3ba 58df f23c 483c b3be
000000b0: ca73 46be 2dc7 82be 5baf eebe d1e4 30bc
000000c0: b25a e9bf 81ba 5cbf 165d 6ebe b45d d6bf
000000d0: c4c3 88be 1325 dabd 73f4 60bf 206d d5bd
000000e0: 81f5 efbf b97b ccbd 4371 573e ee58 c6bd
000000f0: 1a50 d5bf 51ee 42bd 7495 ccbb c1ea b1bf
00000100: e90b d13e 480d ed3e c436 c43d 830d e2bb
00000110: 81fa eb3e 5bb7 be3e 85cc 313f e36f 1a3f
00000120: 25e9 573d c63c 263e faa6 b33e bb55 d93e
00000130: 1edb 2bbd 49dc 973d 770a 3e3f de79 dc3e
00000140: b750 b13e d5e5 0f3f e008 a63e 8237 863d
00000150: 968e 313f 524a 753e a419 013f 35b7 253f
00000160: 467b 1d3f e137 8c3d 9f07 0e3f 31f0 c33e
00000170: 6743 d43e c76c 393f c149 f33e a657 773e
00000180: e6b3 c73e 241f 2a3f e9e4 513e 6645 023f
00000190: 9fc1 393f a03a 9c3e bd65 243f 8dbb 993e
000001a0: 48d3 af3e d24a 6b3e 6938 033e c602 2c3f
000001b0: eda4 053f d696 0b3f 50ff 3b3f 3c2e 673e
000001c0: effc 2a3f 48df c13e 3ba9 1e3f d660 1b3f
000001d0: 68fc 073f 6cfc 813e c683 253f 8e19 6a3e
000001e0: 8746 223f 78f5 8d3e 21a2 43be 146e 953e
000001f0: da7a 0e3f 798f c43e 5578 3f3e ff26 253f
00000200: 8b53 b73b dd07 333c 9c0a 75bc 60bb d43b
00000210: 205d a63b 4091 a03b 1b63 cdba 1c8c 6a3b
00000220: 77e8 f0bc 7c8b 3abc db10 1ebb a118 66bb
00000230: a9ff a03b 054f 45bc adac 613b 5373 983a
00000240: f845 313c db36 91bb a29f 4a3b a720 cd3b
00000250: d722 c33a c39b 1b3b 587a 643b 1d3a beba
00000260: b49d 9abb 607f 963b 15fe d53b 75d4 e7bb
00000270: 9518 32bb 19d9 c4bb 654f 92bb 333a f6bb
00000280: 198a 10bb 07fb 803a c194 f9ba 1b21 933a
00000290: ec3f a23a 4596 1d3c 9faf 3aba 6223 723c
000002a0: 326d dc3a 170d c23c fee3 eebb 3c5a 983b
000002b0: 9895 88bb 10e8 c6bb 3e35 4fba b7ec 823b
000002c0: 0247 8fba eada a5ba b63a 003c a178 283b
000002d0: f399 f4ba 0b27 e0b9 e258 0fbb 47ab 9c3a
000002e0: 3a38 34bb cde4 00bc d5f0 68bb 74f0 033c
000002f0: b311 443b ec13 983b 322f 5ebc 8e35 acb9
-1.3285927 -1.3222893 0.03632431 0.11032595 -0.27497447 -1.7843163 -0.41378593 -1.3194441
0.05939956 0.009407524 -0.06450255 -1.4509904 0.111691445 0.08784126 -0.5635735 -0.9551805
-0.082183175 -1.1020862 -0.09035353 0.041348703 -0.63859296 -0.06083592 -1.7043988 -1.8734133
-1.3515663 0.027769625 -0.2084521 -1.195993 -0.94447994 -1.0325646 -0.22418642 -0.07356583
-1.126246 -1.4337466 -0.007841553 -0.9218739 -0.52977973 -0.05837632 -1.4164275 -0.10898682
-1.9521213 -0.0012474492 0.029647514 -0.35006928 -0.19380108 -0.25542584 -0.4661816 -0.010796742
-1.8230803 -0.8622208 -0.23277697 -1.6747346 -0.26711857 -0.106516026 -0.87873 -0.104212046
-1.8746797 -0.09984536 0.210393 -0.09684931 -1.666507 -0.047590557 -0.006243402 -1.3899766
0.408294 0.46299195 0.09580758 -0.0068985834 0.46089557 0.37249264 0.694527 0.60326976
0.05271258 0.1623412 0.3508833 0.4244822 -0.041957013 0.07415063 0.7423472 0.43061727
0.34631893 0.5621007 0.32428646 0.06553556 0.69358194 0.23954132 0.5042975 0.64732677
0.61516225 0.068465956 0.5548038 0.3826919 0.41457674 0.72431606 0.47517207 0.24154529
0.3900444 0.66453767 0.20497479 0.50887144 0.7256107 0.30513477 0.6421774 0.30025902
0.34340882 0.2297776 0.12814488 0.6719173 0.5220478 0.5452703 0.7343645 0.22576231
0.66792196 0.37865663 0.61976975 0.60694635 0.53119516 0.25387895 0.64654195 0.22861311
0.63388866 0.2772634 -0.19104816 0.29185545 0.55656207 0.3839071 0.18698247 0.6451263
0.005594676 0.010927168 -0.014956143 0.0064920634 0.0050770193 0.0049001276 -0.0015669795 0.0035789078
-0.029407723 -0.011385795 -0.0024118933 -0.0035109895 0.0049132896 -0.0120427655 0.0034435198 0.0011631049
0.0108199045 -0.004431588 0.0030917902 0.006259996 0.0014887702 0.0023743964 0.0034862962 -0.0014513169
-0.0047185067 0.004592821 0.006530533 -0.0070748874 -0.0027175297 -0.0060073254 -0.004465031 -0.007514262
-0.002205497 0.0009840437 -0.0019041525 0.0011225076 0.0012378669 0.009618347 -0.00071215065 0.014778944
0.0016817211 0.023687882 -0.0072903624 0.0046494287 -0.0041682236 -0.0060701445 -0.0007904357 0.0039955038
-0.0010931196 -0.0012653742 0.007826498 0.0025706666 -0.0018661603 -0.000427537 -0.0021873047 0.00119529
-0.0027499334 -0.00786705 -0.0035543938 0.008052934 0.0029917776 0.0046410467 -0.013561057 -0.00032846298

rnn.weight_ih_l1 f4 [192, 128]
00000000: ead6 013e 3d40 943d 1f77 523d b9ed 6bbe
00000010: 9ec8 633d b9b4 14be d905 cebb 4dae 043e
00000020: ab2b 9f3e a9a6 2abb 7298 16be 1b10 babd
00000030: ed0a 51be fcbd 4a3c ea17 30be b54c a13d
00000040: 1642 ed3d d678 c13d d19a b43d 903c 4fbd
00000050: 6985 cb3d 2b30 653e 75bd a0bd 5386 c5bd
00000060: d8b2 2c3c 1b18 20be b0e3 fa3d 475b 2dbd
00000070: 77e6 07be 0b55 c7bc 1712 ea3d f3b1 29be
00000080: 21f4 b6bd 6b29 adbe cbf2 0a3d 51d3 9d3d
00000090: 4be9 963d 7b36 a2bd 6b13 81bd df24 15bd
000000a0: 8fc8 bf3e 3bae 043e 55e7 373b 3291 b23d
000000b0: dfcb 053e b16b 553d 8cb2 7f3d b101 e0bd
000000c0: 60d0 293e 475a 323d 8c95 f5bc 487e 693d
000000d0: 399a b5bd eaa2 56bd a6fe 1e3d ba76 433e
000000e0: 439d bdbd d37f 65bd fb44 153d 42d5 93bd
000000f0: 9a18 6abc 3f9b 263d f037 033e 5e83 4fbd
00000100: 1bb9 973e b824 913e 0788 3e3e 1256 29be
00000110: f406 513e 2076 9f3e 2e40 2d3e 08ac 0fbe
00000120: bbc2 693e d610 1b3c c5d0 2d3e 1ddc 51be
00000130: ec0f 25be c17a a1bd 074a 1c3e a7ec 98be
00000140: d49a fcbd c289 7bbe cdf0 2cbe daa5 d0bd
00000150: dc24 ad3d c00b 93bd d354 1a3e 6c0a b23d
00000160: 9197 1ebe 8e36 77bd c408 71be a408 55be
00000170: 44f7 83be baf0 33be 3628 8a3c ac5d e03d
00000180: ee57 9d3e ddab c23c d32c d33d 3013 30be
00000190: 616e 243e 5b64 91bd ea37 4abe 0b05 f0bb
000001a0: 9bb3 733e 7dd7 103e ba54 083e 53eb 7abd
000001b0: 5d42 89bd c563 23bc 5a2f 9d3d 2861 7c3d
000001c0: 8de5 96bd 8bde 8b3e 8c93 673e 2e20 1c3e
000001d0: b27a 33bb 4157 e83d 2aa4 a6be bb28 c4bd
000001e0: 26cc 20be fba4 bd39 50f0 703e 49aa ab3c
000001f0: f597 463e e9bd 5e3d cdc1 53be 7e03 1bbe
00000200: 0d3a 7c3e 285f 783d d302 51bd a0c4 50bc
00000210: 1394 d23c 555c e03d 1f49 463e 1d26 e53d
00000220: 96f8 b5bd 6a7c c63b dd63 dcbd ff60 c8bd
00000230: ce10 0ebd 8708 9bbb 70a7 48bd 7cc9 ac3d
00000240: 01e6 633d 7e7f 003e 4445 82bc d7bb 073e
00000250: 088e 2f3d 5f53 ee3c c422 ad3d d6f5 23be
00000260: 09fb e73b baff 1dbe e079 f53d 3c4e 92bb
00000270: 756a 753e 8c6c 923d 0661 203e e0de edbd
00000280: 6e19 7a3c 6f79 fe3d 3639 57bc e04f c13d
00000290: 6911 3d3d 0953 bd3a 52f4 ef3c 692c 8bbd
000002a0: 2607 76bd 3498 d5bd 0d56 3a3e 7169 023e
000002b0: d521 e43d 6982 a33d 51a7 ea3d 85bb 643d
000002c0: 1c8f 393e acef 5a3e df0b 6dbd 9525 993d
000002d0: f7a1 13be 2aa3 56bd e314 6a3e 897a 1d3e
000002e0: ec06 aebd 064c 84bc 21c4 873c 2156 17be
000002f0: ff44 c0bd 6391 2a3e 4c1a a33d cab4 1ebe
00000300: c283 51bd da80 7dbc 7248 2e3e 322a 66bc
00000310: 5112 0a3d c966 41bd e1b5 1abe e2f3 aebd
00000320: 7cb7 fe3d 97c4 653d b3f3 723d c83e 67bd
00000330: d1f2 6a3d 5990 14bd 0aca 6c3d 5c68 dc3b
00000340: ae60 38be 6329 5dbd 1856 113e 1b37 203b
00000350: e0f9 b73c 8b63 78bd 2988 13be fcbb 843c
00000360: 0a41 08be a5ab 92be d59f 84bd 3b90 a23d
00000370: 86d9 353d f18e 49bd b787 6d3d 196c 703d
00000380: 6caa 413d 6a6b 6dbd e6d1 223d d0c7 c83d
00000390: 3de9 8d3c 2481 25be 64eb 86bd e03e 37be
000003a0: ad38 86bc 0924 bcbd 7ae9 31bd e79f 313d
000003b0: bb38 2d3d 9985 02bd dc08 33bd 8143 223c
000003c0: 217a b9bd c537 71bd 41d5 52bd 16e4 8cbb
000003d0: 0160 29bd 84f2 abbc 7b73 4c3c 8f00 033e
000003e0: 4775 be3d 9ac2 293e a6fc e93d b3a8 6c3c
000003f0: 1ba0 efbd 2480 6bbd 68d0 af3c ed45 31bd
0.1267964 0.07238815 0.051383134 -0.23039903 0.055611245 -0.14522065 -0.006287318 0.12957115
0.31088004 -0.0026039279 -0.14706591 -0.09085103 -0.20414324 0.012374397 -0.17196622 0.07875959
0.115848705 0.09446876 0.088185914 -0.050594866 0.09937555 0.22381656 -0.07848636 -0.09644761
0.010540687 -0.15634196 0.12250459 -0.042323377 -0.13271509 -0.024332544 0.114292316 -0.16571788
-0.08933283 -0.33820662 0.03392295 0.07706321 0.07368716 -0.079205476 -0.06302532 -0.036412116
0.37457702 0.12957089 0.0028061469 0.087191 0.13066052 0.052104656 0.062426135 -0.109378226
0.16583395 0.043543126 -0.029978536 0.057005197 -0.08867306 -0.05240146 0.03881707 0.1908826
-0.09258511 -0.056030106 0.036442738 -0.0721841 -0.014288092 0.040675398 0.12814307 -0.05066239
0.29633412 0.28348327 0.18606578 -0.1653674 0.20412809 0.3114481 0.16919014 -0.14030468
0.2282819 0.009464463 0.1697417 -0.20494123 -0.16119355 -0.078847416 0.15262614 -0.2986805
-0.123342186 -0.24564269 -0.16888733 -0.10187884 0.08454296 -0.071799755 0.1507142 0.08693394
-0.15487505 -0.06035476 -0.235385 -0.20804077 -0.25774586 -0.17572299 0.016864877 0.109553665
0.30731148 0.023763591 0.10311284 -0.1719482 0.16057731 -0.070992194 -0.19747892 -0.00732482
0.23798983 0.14144702 0.1331357 -0.06125958 -0.06702111 -0.009972517 0.07675047 0.061616093
-0.07368002 0.27318224 0.22614878 0.1524665 -0.0027386365 0.11344767 -0.32547122 -0.09578081
-0.15702876 0.0003617181 0.23529172 0.020955222 0.19393905 0.05438033 -0.20679398 -0.15138051
0.2463152 0.060637623 -0.051028084 -0.012742192 0.025705373 0.10955111 0.19363831 0.1118891
-0.08885305 0.006057312 -0.10761235 -0.097841255 -0.034683995 -0.004731241 -0.048987806 0.084368676
0.05563927 0.12548634 -0.015902169 0.13255249 0.04286006 0.029092489 0.08453897 -0.16011748
0.0070794863 -0.15429583 0.119861364 -0.0044648927 0.23966391 0.0714961 0.15662012 -0.11614776
0.015264852 0.12425505 -0.013136199 0.09439063 0.04615918 0.0014444302 0.029291306 -0.0679558
-0.06006541 -0.10429421 0.18196888 0.12735535 0.111392654 0.07983858 0.11457694 0.055842895
0.18120998 0.2138049 -0.05787265 0.07477871 -0.14417253 -0.0524017 0.2285953 0.15378775
-0.08497414 -0.016149532 0.016573014 -0.1477895 -0.0938816 0.16657023 0.07964 -0.15498653
-0.051151045 -0.015472615 0.17019823 -0.014048146 0.033708874 -0.047217164 -0.15108444 -0.08542611
0.124373406 0.056095686 0.05931444 -0.056456357 0.057360474 -0.036270473 0.057809867 0.006726308
-0.1800563 -0.053994548 0.14192998 0.0024446908 0.022458017 -0.060641807 -0.1440741 0.01620292
-0.1330606 -0.2864658 -0.06475798 0.07937666 0.0443969 -0.049208585 0.057990756 0.05869684
0.047281668 -0.057963766 0.039750956 0.09803736 0.01732313 -0.16162544 -0.06587866 -0.17895079
-0.016384447 -0.09186561 -0.04343555 0.043365385 0.04229043 -0.03186569 -0.04370962 0.0099037895
-0.09056497 -0.058891077 -0.051472906 -0.004299651 -0.041351322 -0.020989664 0.012478705 0.12793182
0.09299713 0.16578141 0.11425142 0.014444518 -0.117004596 -0.05749525 0.02146168 -0.043279577
