trained_models/gru_k0.pt (torch, 711447 bytes, 26 tensors)

rnn.weight_ih_l0 f4 [192, 3]
0	0xbd7ecb5f	-0.06220567
1	0x3d7c9eae	0.061674766
2	0xbe1c9944	-0.15292841
3	0xbd684d2e	-0.05671423
4	0xbd2d7afe	-0.042353623
5	0xbb7f0c23	-0.0038917146
6	0x3d36a704	0.044592872
7	0xbda99363	-0.08280065
8	0xbe40e058	-0.1883558
9	0x3da23c66	0.07921676
10	0xbe74c0e4	-0.23901707
11	0x3df02d1b	0.11727353
12	0xbe082260	-0.13294363
13	0xbc995712	-0.018718276
14	0xbd90cab3	-0.07069912
15	0x3da63c36	0.08116953
16	0x3e2ad84e	0.16684076
17	0x3daf9769	0.08573801
18	0xbd4bdbac	-0.049770042
19	0x3dc2a2cc	0.09503707
20	0xbe5def4a	-0.21673313
21	0xbd80b8a7	-0.0628522
22	0xbcceab75	-0.025228241
23	0xbe66e4e6	-0.22548255
24	0xbe598917	-0.21243702
25	0xbdac478d	-0.08412085
26	0x3d792f48	0.060836107
27	0xbcb089fc	-0.021550171
28	0xbcb4268f	-0.021991042
29	0xbe40b93b	-0.1882066
30	0x3d584364	0.052798644
31	0xbd95e9af	-0.07319962
32	0xbe65e0fb	-0.22449104
33	0xbe0aca15	-0.1355365
34	0xbd7ab2aa	-0.061205544
35	0xbdeaf3f7	-0.11472314
36	0xbca8a97a	-0.020588625
37	0xbb2785bb	-0.0025561887
38	0xbdc49db9	-0.09600396
39	0x3d4b1953	0.049584698
40	0xbcb297a7	-0.02180083
41	0xbe54d62b	-0.20784824
42	0x3e7724f5	0.24135192
43	0x3dfa5e3a	0.122250035
44	0x3e43c510	0.19118142
45	0xbadb8487	-0.001674787
46	0x3cfcb3cb	0.03084745
47	0xbe366bbe	-0.17814538
48	0x3cd88df3	0.026434874
49	0xbd0f1d08	-0.034939796
50	0xbe020850	-0.12698483
51	0xbd75668e	-0.059912257
52	0x3d4a49aa	0.049386658
53	0x3c689284	0.014195088
54	0x3ec9ceba	0.39415532
55	0x3ee066ea	0.43828517
56	0xbeac77fa	-0.33685285
57	0xbd889543	-0.066690944
58	0xbd92c05d	-0.07165597
59	0xbd08c4a7	-0.033390667
60	0xbd996bf1	-0.07491291
61	0xbd3e97c6	-0.04653146
62	0xbe844d7e	-0.25840372
63	0xbdea8491	-0.11451066
64	0xbd8473a2	-0.06467368
65	0x3dbbf661	0.091778524
66	0xbd82b17e	-0.0638151
67	0xbd070951	-0.03296787
68	0x3d184eed	0.037184644
69	0xbcd5cbc2	-0.026098136
70	0xbde72446	-0.112862155
71	0xbd1ec152	-0.038758583
72	0x3b8615f3	0.004091972
73	0x3d375bcc	0.04476528
74	0xbe14ab70	-0.14518523
75	0xbd38c0a4	-0.04510559
76	0x3c8e50b8	0.017372474
77	0xbe541eae	-0.20714828
78	0x3e008582	0.12550929
79	0x3edde6d3	0.43340167
80	0x3df5dbf3	0.120048426
81	0xbe4ab293	-0.19794683
82	0xbd4ed78c	-0.05049853
83	0xbd24f107	-0.040268924
84	0x3efc8c71	0.49325898
85	0xbea555cf	-0.3229203
86	0x3e6e1281	0.23249246
87	0xbea0684d	-0.31329575
88	0x3eacfa31	0.3378463
89	0x3e89b38b	0.26894793
90	0x3b21a56b	0.0024665247
91	0xbc7b5610	-0.015340343
92	0xbe0548e8	-0.13016093
93	0xbdcab343	-0.09897473
94	0xbad7a366	-0.0016451895
95	0x3ce6ed59	0.028189348
96	0x3cb7b5d2	0.022425566
97	0xbd46056c	-0.048345014
98	0xbd9ea2ee	-0.0774592
99	0xbd03da27	-0.03219047
100	0x3d59316c	0.053025648
101	0xbd6523a4	-0.055942193
102	0xbe0edd00	-0.13951492
103	0xbd03a8d7	-0.03214344
104	0xbd0f489b	-0.03498135
105	0xbd465d9e	-0.048429124
106	0xbc7fc624	-0.015611205
107	0xbd94af19	-0.0725996
108	0xbdeb5703	-0.114912055
109	0xbd1d04e4	-0.038334742
110	0xbe0bf71a	-0.1366848
111	0xbdc13af1	-0.0943507
112	0xbd8a2453	-0.067452095
113	0xbdb41d49	-0.08794648
114	0xbe0984cd	-0.13429566
115	0xbdcf26bd	-0.101148106
116	0xbd867419	-0.065651126
117	0xbd699229	-0.057024155
118	0xbcc08a28	-0.023503378
119	0xbdbf03b9	-0.09326882
120	0xbdf1de62	-0.11809994
121	0xbdc113a1	-0.09427572
122	0x3ee692ed	0.4503397
123	0xbe4b0792	-0.19827107
124	0x3cd6539a	0.026162911
125	0x3e4b8556	0.19875082
126	0x3d954495	0.072884716
127	0xbe0aa0ad	-0.13537855
128	0xbe2cd53b	-0.16878216
129	0xbe21dd36	-0.15807042
130	0x3d0b0bbe	0.033946745
131	0xbe0212b4	-0.12702447
132	0x3c514f3f	0.012775241
133	0xbd208e4a	-0.039198197
134	0xbe2c76db	-0.16842215
135	0xbd958221	-0.07300211
136	0xbcfdf40f	-0.031000165
137	0x3ce3aeaf	0.027793257
138	0xbd38fc21	-0.045162324
139	0xbd5eb68d	-0.054373313
140	0xbd29fe13	-0.04150207
141	0xbcac548d	-0.02103641
142	0xbeb7ae47	-0.3587515
143	0x3db45b03	0.088064216
144	0xbb968521	-0.004593507
145	0x3c600323	0.013672623
146	0xbe31e219	-0.17371406
147	0x3da89223	0.08230998
148	0x3b04a273	0.002023843
149	0xbe114b4d	-0.14188881
150	0xbd16a667	-0.036779787
151	0x3d2c7d30	0.042111576
152	0xbe7465d6	-0.23866972
153	0xbe111aae	-0.14170334
154	0x3dc52058	0.0962531
155	0xbdf07c4e	-0.11742459
156	0x3ba100c6	0.0049134223
157	0xbd83fef7	-0.06445115
158	0xbe420341	-0.18946554
159	0xbd83a08c	-0.06427106
160	0xbc359465	-0.011082743
161	0xbd81f25d	-0.06345055
162	0x3da929db	0.082599364
163	0x3d878335	0.06616823
164	0xbce3d3ba	-0.02781092
165	0xbe17ebc2	-0.14836028
166	0x39204e12	0.00015287873
167	0x3d948d5e	0.07253526
168	0xbda216cb	-0.07914504
169	0xbd957f87	-0.072997145
170	0xbdccc8eb	-0.099992596
171	0xbe052e5a	-0.13005963
172	0x3d1e174f	0.038596448
173	0xbe3e43fd	-0.18580623
174	0x3d169059	0.036758754
175	0xbc606f76	-0.013698449
176	0xbe1e5cd8	-0.15465105
177	0xbdb930a7	-0.09042483
178	0x3cedc2c1	0.02902353
179	0xbe76b01a	-0.24090615
180	0xbe13cf5e	-0.14434573
181	0xbda0040c	-0.07813272
182	0x3d3abf7a	0.045592763
183	0x3b89cc8e	0.004205293
184	0x3cb392b0	0.021920532
185	0xbd208f85	-0.03919937
186	0xbde14aa5	-0.110005654
187	0xbd27a150	-0.040925324
188	0x3d33fbf0	0.04394144
189	0xbd76f364	-0.06029071
190	0xbd438fbf	-0.04774451
191	0x3dab020b	0.08349999
192	0xbe57b78c	-0.21066111
193	0x3cf5e151	0.030014666
194	0x3e292067	0.16516267
195	0x3d286177	0.041108575
196	0xbe45ea03	-0.1932755
197	0xbe9617c5	-0.2931501
198	0x3c9f60f2	0.019455407
199	0x3aa87e5b	0.001285504
200	0xbd1884a1	-0.03723586
201	0xbc69e5e8	-0.014276005
202	0x3ebc91e4	0.36830056
203	0xbe7d3916	-0.24728808
204	0x3b36622b	0.0027829509
205	0xbe2dbaa5	-0.1696573
206	0xbd46059b	-0.04834519
207	0x3d040704	0.032233253
208	0xbd228f7f	-0.03968763
209	0xbd425c19	-0.047451112
210	0xbe1dfa78	-0.15427577
211	0x3c932ada	0.01796477
212	0xbd79fdb0	-0.06103295
213	0xbe74649b	-0.23866503
214	0x3dce7393	0.10080638
215	0x3d04e24f	0.032442387
216	0xbde9eedd	-0.11422513
217	0xbe96e3e5	-0.29470745
218	0xbee32e0c	-0.44371068
219	0x3eb0eae2	0.345542
220	0xbda7eb6c	-0.081992
221	0x3ce69907	0.028149141
222	0xbe14a707	-0.14516841
223	0x3eceab46	0.40365046
224	0xbda482d3	-0.08032765
225	0x3dca1182	0.098666206
226	0xbd5c7008	-0.05381778
227	0x3e144d18	0.14482534
228	0xbe2381b3	-0.15967445
229	0x3d3585ee	0.04431718
230	0x3e65aa43	0.22428231
231	0xbe97a14d	-0.2961525
232	0xbda788aa	-0.081803635
233	0xbe54e80d	-0.20791645
234	0x3e247c33	0.16063003
235	0x3e3999f9	0.18125142
236	0xbda1c882	-0.07899572
237	0xbc88ea6c	-0.016713344
238	0xbe1f4f60	-0.15557623
239	0x3e4db166	0.20087203
240	0xbd6d13f0	-0.057880342
241	0xbcf8726f	-0.030328004
242	0xbeb05b57	-0.34444687
243	0xbde25ba0	-0.11052632
244	0xbe55a045	-0.20861919
245	0xbe8a3a04	-0.26997387
246	0x3e809f1e	0.25121397
247	0x3e94dad0	0.2907319
248	0xbeb38dba	-0.35069066
249	0x3e2fb309	0.1715814
250	0xbd7b7b1a	-0.061396696
251	0xbe6c4bb7	-0.23075758
252	0x3ccd9ab8	0.02509819
253	0xbc8a485e	-0.01688021
254	0xbd95c7a8	-0.07313472
255	0xbe19eaf5	-0.15031035

rnn.weight_hh_l0 f4 [192, 64]
0	0x3cd82d42	0.026388768
1	0x3cdef7ee	0.027217831
2	0xbcb2d532	-0.021830175
3	0x3d09eee4	0.03367509
4	0x3d7873f4	0.060657457
5	0x3c85f545	0.016352305
6	0x3ccc5d21	0.024946751
7	0xbd9a2ea0	-0.07528424
8	0xbc93221c	-0.0179606
9	0xbca6e77e	-0.020374056
10	0x3de52d83	0.11190321
11	0xbdb33731	-0.08750761
12	0x3d940101	0.07226754
13	0xbd70296b	-0.05863325
14	0xbd8b0512	-0.067880765
15	0xbbee286e	-0.007268003
16	0xbd61ae36	-0.05509778
17	0xbd53b9d4	-0.05169089
18	0xbe71be32	-0.2360771
19	0x3b5aa4a4	0.0033362294
20	0xbca4ce7e	-0.020117994
21	0xbced7de3	-0.028990692
22	0xba33ca04	-0.0006858411
23	0x3db1aedb	0.08675929
24	0x3d5a13b6	0.053241454
25	0x3d06087e	0.032722943
26	0xbd8b5582	-0.06803419
27	0x3d6b89cd	0.057504464
28	0x3e086971	0.13321473
29	0x3e6f7059	0.23382701
30	0xbd9a65ad	-0.07538924
31	0xbcf0141b	-0.029306462
32	0x3d4ab8f2	0.049492784
33	0x3da511ff	0.08060073
34	0x3ceae411	0.028673204
35	0xbd747deb	-0.059690397
36	0xbd144b74	-0.03620477
37	0xbb94bbf1	-0.004539006
38	0xbce71a16	-0.028210681
39	0xbd718bf7	-0.05897137
40	0xbc26edbb	-0.010188515
41	0xbc300686	-0.010743743
42	0xbc345896	-0.011007449
43	0xbc871dec	-0.01649376
44	0x3ce4193a	0.02784406
45	0xbd5f0cf8	-0.054455727
46	0xbc18b8da	-0.009321416
47	0x3dab275a	0.08357115
48	0x3c34be84	0.011031751
49	0xbbad4822	-0.00528814
50	0xbc9e437c	-0.019319288
51	0x3cbfc0c8	0.023407355
52	0x3ce41e18	0.027846381
53	0x3d59e1d3	0.05319388
54	0xbd45a03f	-0.048248526
55	0xbcaa51ea	-0.020791013
56	0x3d2c32ca	0.042040624
57	0xbdb15f81	-0.08660794
58	0xbde37b55	-0.11107508
59	0xbd93a16e	-0.07208525
60	0xbd7179c0	-0.058954
61	0xbda0a97f	-0.07844829
62	0x3d24b62a	0.040212788
63	0x3cd33da3	0.025786227
64	0xbcaba292	-0.020951543
65	0xbba1fb11	-0.0049432595
66	0x3d44ca23	0.048044335
67	0x3df9e04e	0.12200986
68	0xbcc4c3e5	-0.024019191
69	0x3ba9fa08	0.0051872768
70	0xbd8f26ee	-0.06989847
71	0xbda62f63	-0.08114507
72	0x3cadb76f	0.021205632
73	0x3cbf0780	0.023319006
74	0x3dc5bc67	0.096550755
75	0x3c87dafd	0.016583914
76	0xbda22e57	-0.07918995
77	0x3c307a5d	0.010771361
78	0xbdb3cd7d	-0.08779428
79	0x3de264dc	0.11054394
80	0xbd5451ba	-0.051835753
81	0x3da3e422	0.08002497
82	0xbe7681ff	-0.24073027
83	0x3d5c5c52	0.05379898
84	0x3d3894fd	0.04506396
85	0xbdced842	-0.10099842
86	0x3c22546a	0.009907821
87	0xbb9f4499	-0.0048604724
88	0x3a89084e	0.0010454745
89	0xbcfefd74	-0.031126715
90	0x3ca833b7	0.020532472
91	0xbcc77f1c	-0.024352603
92	0x3db58488	0.08863169
93	0x3e0041e0	0.1252513
94	0x3d65db22	0.056117184
95	0x3cd3f563	0.025873845
96	0x3d887c7a	0.06664367
97	0xbdb41958	-0.087938964
98	0xbbd819b1	-0.0065948595
99	0x3ca27042	0.01982892
100	0x3dbf9aa6	0.09355669
101	0xbb999740	-0.00468722
102	0xbc4486b6	-0.011995008
103	0x3d148df2	0.036268182
104	0x3c221aca	0.009894082
105	0x3bdd7701	0.006758571
106	0xbd914b2c	-0.07094416
107	0x3d31dbd7	0.043422546
108	0x3db3db2f	0.0878204
109	0xbcd90dee	-0.0264959
110	0x3b7bc1d8	0.00384151
111	0xbdd6080b	-0.10450753
112	0xbd015e4d	-0.031584073
113	0x3dc4c02d	0.09606967
114	0xbcafcdf6	-0.021460515
115	0xbdb3b5d9	-0.08774919
116	0xbd952aeb	-0.072835766
117	0xbcc10dd4	-0.023566164
118	0xbde1c1d7	-0.110233
119	0x3c5b8759	0.013398969
120	0xbd7ab220	-0.06120503
121	0xbc86bd80	-0.016447783
122	0xbd32c1dc	-0.04364191
123	0xbd6eb1bd	-0.058274973
124	0xbd573b98	-0.052547067
125	0xbdd98b87	-0.10622316
126	0xbd605c35	-0.054775435
127	0xbdaaa7c3	-0.08332779
128	0xbd61ad75	-0.055097062
129	0xbd6724fb	-0.05643175
130	0xba4caef9	-0.00078080554
131	0xbbde7c90	-0.0067897514
132	0xbd679bc7	-0.056545045
133	0xbd3adec1	-0.04562259
134	0xbd382a27	-0.044962075
135	0x3d3f4ab2	0.046702094
136	0x3e09c06a	0.13452306
137	0xbb695e39	-0.003560914
138	0xbda86104	-0.08221629
139	0x3cc3bb1d	0.023892934
140	0x3dbeb6a7	0.09312182
141	0xbcf766ec	-0.030200444
142	0xbd90745b	-0.07053443
143	0xbcb5b55b	-0.022181204
144	0x3cdf1be2	0.027234975
145	0x3d3cee79	0.046125863
146	0xbe5c8f8e	-0.21539137
147	0x3c580821	0.013185532
148	0xbae07adf	-0.0017126462
149	0xbd3085d5	-0.043096382
150	0x3a1a8ee5	0.0005895927
151	0x3d9df7c6	0.07713275
152	0xbc845505	-0.016153822
153	0x3bc0293a	0.0058642896
154	0x3dc56774	0.09638873
155	0xbdc5e77b	-0.09663292
156	0x3e9d8686	0.30766696
157	0x3e59cd53	0.21269731
158	0x3c8263b0	0.015916675
159	0xbcc2a888	-0.023762003
160	0xbd971feb	-0.07379135
161	0xbd21fb3e	-0.039546244
162	0xbdde6cb4	-0.10860577
163	0xbddf3155	-0.10898081
164	0xbc84aac7	-0.016194714
165	0x3cb9defb	0.022689333
166	0xbda07a34	-0.078358084
167	0x3d03803e	0.032104723
168	0x3cbf7e12	0.023375545
169	0xbd5ae607	-0.053442027
170	0x3cac5d59	0.021040605
171	0x3da4e03f	0.08050584
172	0xbc80bfb8	-0.015716419
173	0xbc77b316	-0.015118381
174	0xbb28e081	-0.002576858
175	0x3ad75786	0.0016429282
176	0x3d85b101	0.065279014
177	0x3d6c494a	0.05768708
178	0xbc79cf23	-0.015247139
179	0xbdb96ecf	-0.09054338
180	0xbb08af37	-0.002085639
181	0xbdcf29ad	-0.10115371
182	0xba1c199e	-0.0005954745
183	0x3c458b4b	0.012057136
184	0x3d60bf35	0.05486985
185	0xbd9926a9	-0.07478077
186	0x3b4d66fa	0.0031341896
187	0x3d60aa8b	0.054850142
188	0x3c6878a3	0.014188918
189	0xbd4cc8d9	-0.04999623
190	0xbd620a48	-0.055185586
191	0xbdbb860f	-0.09156429
192	0x3ead0eb1	0.3380027
193	0x3df66c91	0.12032426
194	0x3e806dd6	0.25083798
195	0xbf06fd01	-0.52729803
196	0x3e5acf1e	0.21368071
197	0xbe7fa919	-0.2496685
198	0x3ecda5f3	0.40165672
199	0x3c897317	0.016778512
200	0x3a777d42	0.0009440967
201	0x3ea5d52b	0.32389197
202	0x3eb658a4	0.35614502
203	0xbec437c4	-0.38323796
204	0xbea4e803	-0.3220826
205	0x3e35d252	0.17756012
206	0xbe6cfd81	-0.23143579
207	0x3e9f1f8b	0.31078753
208	0xbcd16400	-0.025560379
209	0x3e94c91d	0.29059687
210	0xbe4e738d	-0.20161267
211	0x3e33c195	0.17554314
212	0x3e8a054d	0.2695717
213	0x3e96f6f9	0.294853
214	0xbe0297d3	-0.12753229
215	0xbeaccbb1	-0.33749154
216	0xbee80974	-0.45319712
217	0xbe87813a	-0.2646578
218	0x3e3bad9c	0.18327945
219	0xbbfa2fbf	-0.0076350863
220	0x3e02918e	0.12750837
221	0x3e92d44b	0.28677592
222	0x3e3ac878	0.18240535
223	0xbe1386e3	-0.14406924
224	0x3ec0be83	0.3764535
225	0x3e252da0	0.16130686
226	0x3d0f9385	0.035052795
227	0x3ebd7ef7	0.3701093
228	0x3ea9834a	0.33107978
229	0x3e69fc7d	0.22850223
230	0x3e839cbe	0.25705522
231	0x3eb326a4	0.34990418
232	0x3db5b3d3	0.088721894
233	0x3c93c8de	0.018040117
234	0xbf2030f8	-0.6257472
235	0x3d99dd67	0.07512932
236	0x3ebbb698	0.36662745
237	0x3eadc278	0.3393743
238	0x3d9a3178	0.07528967
239	0x3f142d19	0.57881314
240	0xbdd69bb4	-0.10478917
241	0x3ec2f0d0	0.3807435
242	0xbe4551fd	-0.19269557
243	0x3e11e841	0.14248754
244	0xbe625219	-0.2210163
245	0x3edaf29c	0.4276322
246	0xbe83c9dd	-0.25739947
247	0x3dc552f8	0.09634966
248	0xbec07903	-0.37592325
249	0x3ea62fbd	0.32458296
250	0x3e91ecd3	0.28500995
251	0xbe960489	-0.29300335
252	0xbd3e735f	-0.046496745
253	0x3e86d4c9	0.26334217
254	0x3e05d078	0.13067806
255	0xbe970549	-0.2949622

rnn.bias_ih_l0 f4 [192]
0	0x3c2be62b	0.010491888
1	0xba9ae99a	-0.0011818886
2	0xbcb905b9	-0.022585737
3	0xbee6a70d	-0.45049325
4	0xbd3e0618	-0.04639253
5	0xbd13cdd2	-0.036084957
6	0xbcf29db4	-0.029616214
7	0x3d1bc072	0.038025327
8	0x3bcd3e2d	0.0062635154
9	0xbd095cd6	-0.0335358
10	0x3e1b4d5c	0.15166229
11	0xbe3bfb55	-0.18357594
12	0xbce0aa9d	-0.027425105
13	0xbd0606c9	-0.032721315
14	0x3ee8fbe9	0.45504692
15	0xbd70f48a	-0.05882696
16	0xbc814522	-0.015780035
17	0xbc66a8f8	-0.014078371
18	0x3e9d7913	0.30756435
19	0xbd22f71c	-0.039786443
20	0xbd37f3cf	-0.04491025
21	0x3cc2473a	0.023715604
22	0x3b3ea22e	0.0029088366
23	0x3cdbd964	0.026837058
24	0x3cbcb458	0.023035213
25	0x3b92e34a	0.0044826614
26	0xbe412776	-0.1886271
27	0xbd735e8e	-0.059416346
28	0x3e37ed28	0.17961562
29	0x3ed12e62	0.408557
30	0x3b07dcd2	0.0020730984
31	0xba47707b	-0.00076080085
32	0x3e0605a5	0.1308809
33	0x3c9f19b5	0.019421438
34	0xbca886e2	-0.02057213
35	0x39580a0d	0.0002060311
36	0x3d00ae3c	0.031416163
37	0x3cee6150	0.029099137
38	0xbb4ab881	-0.0030932727
39	0xbd7d9fa2	-0.061919816
40	0x3f0e525d	0.55594426
41	0x3ea3b704	0.31975567
42	0x3e269e41	0.16271307
43	0x3c2943d5	0.010331114
44	0xbd29c250	-0.041445076
45	0x3c5e2c10	0.01356031
46	0x3c5b6945	0.013391797
47	0xbecd4f83	-0.40099725
48	0x3d8dc2fd	0.06921957
49	0xbcb3ca1c	-0.02194696
50	0x3cef17c9	0.029186146
51	0x3a9057e9	0.0011012527
52	0xbd12b8cf	-0.03582078
53	0xbd9e638b	-0.0773383
54	0x3dfe2c3b	0.1241078
55	0xbcef47fe	-0.029209133
56	0xbb1cd250	-0.0023929067
57	0xbcb62e06	-0.022238743
58	0xbc9f4b43	-0.019445067
59	0xbd9c182a	-0.076217964
60	0xbd39f8a6	-0.045403145
61	0x3bfb16c2	0.007662625
62	0xbbbb2a2d	-0.005711815
63	0x3d22e167	0.03976574
64	0xbf3727b0	-0.71544933
65	0xbf800b42	-1.0003436
66	0xbf6ad93d	-0.9173773
67	0x3f16c689	0.5889669
68	0xbf50bbff	-0.8153686
69	0x3dd3469d	0.10316203
70	0xbf20d4cb	-0.62824696
71	0xbfaef09a	-1.3667176
72	0xbf31f747	-0.6951794
73	0xbf6d30f6	-0.92652833
74	0xbfe4f4f5	-1.7887255
75	0x3d2d3eae	0.042296104
76	0xbf6984e0	-0.91218376
77	0xbf4db62c	-0.803561
78	0x3f1db2b2	0.6160079
79	0xbf67ec3a	-0.9059483
80	0xbf6192ee	-0.8811482
81	0xbf108c5a	-0.5646416
82	0x3f35cc85	0.710152
83	0xbf7795af	-0.96712774
84	0xbf68f9b3	-0.9100601
85	0xbf3d8e8f	-0.7404565
86	0xbf5f3742	-0.8719369
87	0xbf482bd9	-0.78191906
88	0xbf730614	-0.9493115
89	0xbf6913dd	-0.91045934
90	0x3ec7f361	0.3905287
91	0xbf04b62a	-0.5184046
92	0x3f3363fd	0.70074445
93	0x3f31d67e	0.69467914
94	0xbf5320ea	-0.824721
95	0xbf80ead1	-1.007166
96	0xbfd8c9d7	-1.6936597
97	0xbf2abb13	-0.666917
98	0xbf32e44e	-0.69879615
99	0xbf4f7159	-0.8103233
100	0xbf70a09b	-0.93995064
101	0xbf4314ea	-0.7620379
102	0xbf6630df	-0.8991832
103	0xbf60e01b	-0.8784196
104	0x3edc1cad	0.42990628
105	0x3f17da4a	0.5931746
106	0xbffe26dc	-1.9855609
107	0xbf7621a1	-0.96145064
108	0xbf6015ed	-0.87533456
109	0xbf4ef479	-0.80841786
110	0xbf5fb464	-0.8738463
111	0x3ea88cb3	0.32919845
112	0xbfbaae02	-1.4584353
113	0xbef44dae	-0.47715515
114	0xbf4c3e26	-0.7978233
115	0xbf3d85e2	-0.74032414
116	0xbf59fe1f	-0.85153383
117	0xbf483b9d	-0.7821596
118	0xbfe179be	-1.7615278
119	0xbf512dbb	-0.81710404
120	0xbf6219df	-0.88320726
121	0xbf5d5406	-0.86456335
122	0xbf4d6473	-0.802314
123	0xbf35ae2d	-0.70968896
124	0xbf6fae89	-0.93625695
125	0xbf63ffe8	-0.89062357
126	0xbf516670	-0.8179693
127	0xbf4dbe95	-0.8036893
128	0x3bd8bbe6	0.006614196
129	0x3b76af81	0.003764123
130	0xbbf2fc3a	-0.0074153217
131	0xbc391c74	-0.011298288
132	0x3c061a8b	0.008185039
133	0xbad3f3d7	-0.0016170692
134	0xbc6534cd	-0.0139896395
135	0xbbe42293	-0.0069621294
136	0xbb0e7c5c	-0.0021741604
137	0x3b2b3f58	0.0026130285
138	0x3b619f2b	0.0034427147
139	0xbbdfcc62	-0.0068297843
140	0x3b0856f0	0.0020803772
141	0xbc813658	-0.015772983
142	0xbaff7860	-0.0019490831
143	0x3b183d4c	0.0023229895
144	0xb83c96a6	-4.4962995e-05
145	0x3b0aa1f8	0.002115367
146	0xbc5fd27c	-0.013661023
147	0x3b4f45d5	0.0031627316
148	0x3b97fcc0	0.0046382844
149	0xbbdc008c	-0.0067139324
150	0xbb68f69d	-0.0035547384
151	0x3c155c5c	0.0091162585
152	0xbc43c6e0	-0.011949271
153	0xbc065fc8	-0.008201547
154	0xb912fbe7	-0.00014017486
155	0x39707845	0.00022932987
156	0x3c5eca1e	0.013597993
157	0x3c428216	0.011871835
158	0xb80fd45d	-3.4291636e-05
159	0x3b764bae	0.003758173
160	0xbb976dd2	-0.004621246
161	0xbbc94fe7	-0.0061435583
162	0x3b061a8f	0.0020462607
163	0x3b206ec4	0.0024480084
164	0xb85a63cc	-5.2068193e-05
165	0xba070068	-0.0005149902
166	0x3b647512	0.0034859818
167	0x3bc96959	0.0061465916
168	0xbba015dc	-0.0048854183
169	0xbaaf788c	-0.0013387366
170	0xba4c7c40	-0.0007800497
171	0x3ba154f2	0.0049234563
172	0x3aab03c4	0.0013047387
173	0xbc138e80	-0.009006143
174	0x3c0828c5	0.008310501
175	0xba1dbaf7	-0.00060169346
176	0x3b00e01b	0.0019664827
177	0x3af35537	0.0018564825
178	0xbb6aadd2	-0.0035809171
179	0xbaae1ea5	-0.0013284279
180	0xbbdfd3b5	-0.0068306574
181	0xbc629503	-0.0138294725
182	0x3c3e3280	0.01160872
183	0x3a3b3996	0.0007142065
184	0xbb809940	-0.003924519
185	0x3b3a9ca9	0.0028474724
186	0xbb5db359	-0.0033828823
187	0xbbcd0367	-0.006256509
188	0xbbb4e025	-0.005519884
189	0xbaf9b87f	-0.0019052177
190	0xbb8f0427	-0.0043645087
191	0x3b58f1c9	0.00331031

rnn.bias_hh_l0 f4 [192]
0	0x3b17769d	0.002311147
1	0xbbb723d4	-0.005588988
2	0xbca659f3	-0.020306563
3	0xbee3bf3e	-0.44481844
4	0xbd64e80a	-0.055885352
5	0xbd1ccca0	-0.038281083
6	0xbd26f922	-0.040764935
7	0x3d1810af	0.037125286
8	0xbba45637	-0.0050151604
9	0xbcfd1118	-0.03089194
10	0x3e1d714c	0.1537525
11	0xbe2faa15	-0.17154725
12	0xbd05cfaf	-0.032668766
13	0xbd0303d5	-0.031986076
14	0x3eed37f3	0.46331748
15	0xbd4a9ffd	-0.049468983
16	0xbcacdc5a	-0.021101166
17	0xbc94d4e7	-0.018167926
18	0x3e9e23be	0.30886644
19	0xbd0e7250	-0.034776986
20	0xbd3988d2	-0.045296498
21	0x3ca9e751	0.020740183
22	0x3c6982e2	0.014252396
23	0x3cebd510	0.02878812
24	0x3d074ea3	0.03303398
25	0x3be5fa6c	0.007018378
26	0xbe3925c8	-0.18080819
27	0xbd6146eb	-0.054999273
28	0x3e382b48	0.1798526
29	0x3ecbd1bd	0.39808455
30	0xbb01bb3f	-0.0019795445
31	0xba7fe3cc	-0.00097614224
32	0x3e08baf1	0.13352562
33	0x3cc853f6	0.024454098
34	0xbc76f7a2	-0.015073689
35	0x3bdb024a	0.0066836225
36	0x3cee3d2c	0.029081903
37	0x3d0d1521	0.03444398
38	0xbc1df5fa	-0.009641165
39	0xbd91fd61	-0.07128406
40	0x3f115aec	0.5677936
41	0x3ea22c26	0.31674308
42	0x3e279f7f	0.16369437
43	0x3c91a3aa	0.017778236
44	0xbd118dfb	-0.035535794
45	0x3c849dd5	0.016188541
46	0x3c5aeeff	0.013362645
47	0xbed02091	-0.40649846
48	0x3d9ecda8	0.077540696
49	0xbce6106e	-0.028084006
50	0x3cba7f95	0.022765914
51	0x3b485349	0.003056722
52	0xbd35e7c3	-0.04441048
53	0xbd98637c	-0.0744085
54	0x3deaff39	0.11474461
55	0xbcb7aadb	-0.022420337
56	0x3b825633	0.003977561
57	0xbcccaaa2	-0.024983708
58	0xbc0cba11	-0.008589284
59	0xbda28a85	-0.07936577
60	0xbd2c81c2	-0.042115934
61	0xba838c3b	-0.0010036299
62	0xbc7c23b4	-0.015389372
63	0x3d2c2d56	0.042035423
64	0xbf38b157	-0.721456
65	0xbf80b524	-1.005528
66	0xbf6c7b1c	-0.9237535
67	0x3f1604cf	0.5860109
68	0xbf51aab8	-0.8190112
69	0x3dca76fd	0.098859765
70	0xbf21874b	-0.63097066
71	0xbfb0d955	-1.3816324
72	0xbf33b70b	-0.70201176
73	0xbf6c2eca	-0.92258894
74	0xbfe5313f	-1.7905654
75	0x3d3efb0e	0.046626143
76	0xbf67568e	-0.90366447
77	0xbf4d4e1b	-0.80197304
78	0x3f1dd0c0	0.6164665
79	0xbf65be11	-0.89743143
80	0xbf6067b3	-0.8765823
81	0xbf0e55f0	-0.5559988
82	0x3f3a1ab1	0.7269698
83	0xbf755d30	-0.9584532
84	0xbf68774e	-0.90807045
85	0xbf3ddea0	-0.74167824
86	0xbf5edadd	-0.8705271
87	0xbf4a39ed	-0.7899464
88	0xbf740923	-0.9532644
89	0xbf682102	-0.90675366
90	0x3ec206a4	0.3789569
91	0xbf0354c1	-0.513012
92	0x3f33dac6	0.70255697
93	0x3f30c495	0.6904996
94	0xbf522c12	-0.82098496
95	0xbf816208	-1.0108042
96	0xbfda09af	-1.7034205
97	0xbf2b2be1	-0.6686383
98	0xbf35f7de	-0.7108134
99	0xbf50de9d	-0.8158968
100	0xbf705fd4	-0.9389622
101	0xbf42ade5	-0.7604659
102	0xbf63629f	-0.8882236
103	0xbf60c0c6	-0.8779415
104	0x3edd4df0	0.43223524
105	0x3f19b181	0.60036474
106	0xbffe66c7	-1.9875115
107	0xbf7565d5	-0.9585851
108	0xbf5f5244	-0.872349
109	0xbf4fde77	-0.8119883
110	0xbf637414	-0.88848996
111	0x3ea53568	0.32267308
112	0xbfbb0df4	-1.4613633
113	0xbef22f70	-0.47301817
114	0xbf4d2094	-0.80127835
115	0xbf3fd76b	-0.74938077
116	0xbf59fd7c	-0.8515241
117	0xbf46f560	-0.7771816
118	0xbfe0af6d	-1.7553536
119	0xbf518435	-0.81842357
120	0xbf610269	-0.878943
121	0xbf5ca343	-0.8618662
122	0xbf4ba5e3	-0.7955
123	0xbf38c564	-0.72176194
124	0xbf6fdf05	-0.93699676
125	0xbf62ebb7	-0.8864092
126	0xbf53c265	-0.827185
127	0xbf4c9518	-0.79915
128	0xbc0fb14a	-0.008770296
129	0xbc08a7f5	-0.008340825
130	0x3ca503a0	0.02014333
131	0x3cd8503c	0.026405446
132	0x3b4bab06	0.003107728
133	0xbbd5ab44	-0.0065206606
134	0x3cbdfebd	0.023192758
135	0x3c9bf430	0.019037336
136	0x3b27b39f	0.002558924
137	0xbb8c9a72	-0.0042908723
138	0xbc6fce60	-0.014636606
139	0xbc53d83f	-0.012929975
140	0x3c15ac3b	0.009135301
141	0x3c7ddadb	0.015494074
142	0x3bd2fb77	0.0064386684
143	0xbc9f1040	-0.019416928
144	0xbc8b48a7	-0.017002417
145	0xbbe40e3c	-0.0069597047
146	0x3c801200	0.015633583
147	0x3abebc31	0.0014551935
148	0x397ba121	0.0002399725
149	0x3c0bad96	0.008525273
150	0xbaa78f26	-0.001278375
151	0xbcc5784f	-0.02410522
152	0x3b8b3edb	0.0042494363
153	0xbad1e476	-0.0016013521
154	0x3ceacf9a	0.028663445
155	0x3943d6a1	0.00018676605
156	0xbc73f725	-0.014890467
157	0xbc08f63e	-0.00835949
158	0x3b07edbc	0.0020741066
159	0xbb9e78e2	-0.0048361877
160	0xbb82f563	-0.0039965375
161	0x3c8f616a	0.017502505
162	0x3c4ac82b	0.012376825
163	0x3b81f03d	0.003965406
164	0xba9c4e49	-0.0011925186
165	0xbbf6eb26	-0.007535356
166	0x3c12a18b	0.008949648
167	0xbb52a4b8	-0.0032141637
168	0x3b2cc097	0.002635991
169	0x3be8bfbf	0.007102936
170	0x3c4be8c8	0.012445636
171	0xbc397404	-0.011319164
172	0xbbe629f7	-0.0070240456
173	0x3caaa25c	0.020829372
174	0xbcbae03a	-0.022811998
175	0xbd5b113a	-0.053483225
176	0x3c07622a	0.00826315
177	0xbc538e4f	-0.012912347
178	0x3c3cdd8f	0.011527433
179	0x3c29a430	0.010354087
180	0x3b2d1ecc	0.0026416061
181	0x3c3df0ae	0.011593027
182	0xbc2a947e	-0.01041138
183	0x3ba3d71d	0.0050000087
184	0xbc1df862	-0.009641739
185	0xbc441a57	-0.0119691705
186	0x3cccb000	0.024986267
187	0x3c5898f6	0.0132200625
188	0x3c3cec4d	0.011530948
189	0x3a906ee6	0.0011019378
190	0x3ba65919	0.0050765392
191	0x3c1abede	0.00944492

rnn.weight_ih_l0_reverse f4 [192, 3]
0	0x3d607aaa	0.05480448
1	0xbd5c6d37	-0.053815093
2	0x3d44e722	0.048071988
3	0xbcadcda7	-0.021216227
4	0x3bd91443	0.00662473
5	0x3dceda94	0.10100284
6	0xbe89bee9	-0.26903465
7	0x3e59ede7	0.21282159
8	0x3e427372	0.18989351
9	0x3db0f44f	0.08640348
10	0x3bb4d9df	0.0055191363
11	0xbe456a5a	-0.19278851
12	0xbdef60e1	-0.116884
13	0xbf04c8fd	-0.51869184
14	0x3ec7a308	0.3899157
15	0xbb91799e	-0.0044395467
16	0xbddccbb5	-0.107810415
17	0x3c18f62b	0.009336035
18	0xbe35abc5	-0.17741306
19	0x3e1e2e9e	0.1544747
20	0x3e2f42cc	0.17115325
21	0x3d899a59	0.067188926
22	0x3e104f05	0.14092644
23	0xbca4ef20	-0.020133555
24	0x3cf3ca95	0.029759685
25	0x3e410213	0.18848448
26	0x3e557270	0.20844436
27	0xbe6d674b	-0.23183934
28	0x3d1a6d92	0.03770215
29	0xbc8803b7	-0.016603334
30	0xbdb6ceac	-0.08926138
31	0xbe4c6431	-0.19960095
32	0x3e9a298a	0.30109817
33	0x3dd57497	0.104226284
34	0xbe02e00a	-0.12780777
35	0x3dbf7af6	0.09349625
36	0xbcd183c2	-0.025575522
37	0x3dec8823	0.115494035
38	0xbe6e9315	-0.23298295
39	0xbe2b3f37	-0.16723333
40	0xbd25d98f	-0.040490683
41	0x3e95ed49	0.29282597
42	0x3e18dd28	0.14928114
43	0x3dd0a6d1	0.10188068
44	0xbf1e8913	-0.6192791
45	0x3d3ea096	0.046539865
46	0x3cee9245	0.029122481
47	0x3d6920e8	0.056916147
48	0x3c982aea	0.01857515
49	0xbe2e3b5b	-0.1701483
50	0x3d97c044	0.07409719
51	0x3d66530f	0.056231555
52	0x3c8e6076	0.01737998
53	0xbcd256e5	-0.0256762
54	0xbcf4fc91	-0.02990559
55	0xbe19d923	-0.15024237
56	0x3e499f34	0.19689637
57	0xbd8f4d4a	-0.069971636
58	0x3c1f29df	0.009714573
59	0x3ed540e0	0.41651058
60	0x3d00ceee	0.031447344
61	0xbe0900f0	-0.13379264
62	0x3ebb7265	0.36610714
63	0x3d5a66a6	0.05332055
64	0xbe4a165f	-0.19735096
65	0x3d52e28f	0.051485594
66	0x3beb1251	0.0071738143
67	0xbe0b170c	-0.1358301
68	0x3c8688bc	0.016422622
69	0xbd230301	-0.039797787
70	0x3d898dbe	0.06716488
71	0xbd1c760d	-0.03819852
72	0x3d619eca	0.055083074
73	0x3d23b7be	0.039970152
74	0x3cced6b0	0.025248855
75	0xbcf5b885	-0.029995212
76	0x3d549177	0.05189654
77	0x3e59e203	0.21277623
78	0x3de5fbac	0.11229643
79	0x3dbb00f4	0.09131041
80	0x3d11e55e	0.035619132
81	0xbe2e57d1	-0.17025687
82	0xbf017bd4	-0.5057957
83	0x3c9fec28	0.019521788
84	0x3cc07468	0.023493007
85	0xbe7befb7	-0.24603163
86	0x3e0d7a11	0.13816096
87	0x3d9f67f2	0.07783498
88	0xbd492b8f	-0.049113806
89	0x3de16e8e	0.11007415
90	0xbdd950af	-0.10611092
91	0xbc931c60	-0.017957866
92	0x3e9c1383	0.30483636
93	0xbb6da010	-0.0036258735
94	0x3e014df1	0.12627389
95	0x3e1d9d6b	0.15392081
96	0x3e00da90	0.12583375
97	0x3e282912	0.16421917
98	0x3d575c11	0.052578036
99	0xbe4c5251	-0.19953276
100	0xbd52a45d	-0.05142628
101	0x3c41ebd4	0.011836011
102	0xbdaa4b01	-0.08315087
103	0xbd0a4125	-0.033753533
104	0x3ed1b013	0.40954646
105	0xbd8f6bfc	-0.07003018
106	0x3c197dee	0.009368403
107	0x3dfb47a5	0.122695245
108	0x3deebd4c	0.11657199
109	0xbd858e0d	-0.06521235
110	0xbc875d65	-0.016524026
111	0xbe1bb9b7	-0.15207563
112	0xbbea80c2	-0.0071564624
113	0x3d6dbfce	0.058044247
114	0xbe1ec91d	-0.15506406
115	0x3db0f306	0.08640103
116	0x3dba4db9	0.09096856
117	0xbcb76eeb	-0.022391757
118	0xbd5ecd68	-0.05439511
119	0x3e2ab481	0.1667042
120	0x3d872f99	0.066008754
121	0xbe1972ed	-0.14985247
122	0x3d3d5384	0.046222225
123	0xbcbf65d5	-0.023363987
124	0x3d9ae3d4	0.07562986
125	0xbe5169af	-0.20450471
126	0xbda32df0	-0.07967746
127	0x3b59d9ae	0.003324132
128	0x3ee8d9c5	0.45478645
129	0xbd4ff91c	-0.05077468
130	0x3cfcb971	0.030850144
131	0x3caf54f1	0.021402808
132	0xbe0b21e6	-0.1358715
133	0xbdc785e6	-0.09742336
134	0x3e086692	0.13320377
135	0xbc1fe664	-0.009759519
136	0xbcc35928	-0.023846224
137	0x3ec688ae	0.38776153
138	0x3d04f83c	0.032463297
139	0x3d719235	0.058977325
140	0x3e108624	0.1411367
141	0x3c3c8f7e	0.011508821
142	0xbcd47612	-0.025935207
143	0x3debc2f6	0.11511795
144	0xbcc2d98c	-0.023785375
145	0x3cc71221	0.024300637
146	0xbcf8cb9a	-0.030370522
147	0x3b62c678	0.003460316
148	0xbe287069	-0.16449131
149	0x3e602c9b	0.21892016
150	0x3d9e1b19	0.07720012
151	0xbe13da94	-0.1443885
152	0xbc0b9aca	-0.008520791
153	0xbdf6a0aa	-0.12042363
154	0x3e026b35	0.12736209
155	0x3d47936a	0.04872457
156	0x3e0ac8be	0.1355314
157	0xbd82d1e6	-0.06387691
158	0x3e8c5c9d	0.27414408
159	0xbdef2be4	-0.11678293
160	0x3e912430	0.2834792
161	0xbf291636	-0.66049516
162	0xbea7d957	-0.32783005
163	0xbd97b9db	-0.07408496
164	0x3e76f88f	0.24118255
165	0xbdd67c8e	-0.10472976
166	0xbdf71dae	-0.12066208
167	0x3d320efc	0.04347132
168	0xbdcde96c	-0.10054287
169	0xbda1231a	-0.07868023
170	0x3bf308aa	0.0074168043
171	0xbd18b5ed	-0.037282873
172	0xbdf74a2e	-0.120746955
173	0x3eb02a16	0.3440711
174	0xbe815673	-0.25261268
175	0x3e4da379	0.20081891
176	0xbf0c142b	-0.54718274
177	0xbde92997	-0.11384886
178	0xbe6589ab	-0.22415797
179	0x3e887e2b	0.2665876
180	0xbe0feb2d	-0.14054556
181	0xbeb1e594	-0.34745467
182	0x3dd6704a	0.10470636
183	0x3e1b62f5	0.15174468
184	0xbe32288e	-0.17398283
185	0x3c6bd698	0.014394425
186	0x3e3317c3	0.17489533
187	0x3e0e2091	0.1387961
188	0xbe77ec62	-0.24211267
189	0xbda1fd29	-0.079096146
190	0x3d919935	0.071093
191	0xbd2b3559	-0.041798923
192	0x3cd0f1db	0.02550595
193	0xbc5fa5b0	-0.013650343
194	0xbe8ebbf3	-0.2787777
195	0x3d6ce198	0.05783233
196	0x3ca2337e	0.019799944
197	0x3cd04bdc	0.025426798
198	0x3f6a9fd2	0.91650116
199	0x3e2a1896	0.16610941
200	0xbe96ada0	-0.2942934
201	0xbeb003a9	-0.34377792
202	0xbe9f40be	-0.31104082
203	0x3c91b571	0.017786713
204	0x3d3de3df	0.046359893
205	0x3d3ec9df	0.046579238
206	0xbe092cb7	-0.13395964
207	0x3d53efd3	0.051742386
208	0xbdd3d156	-0.10342662
209	0xbda86c4d	-0.08223782
210	0xbdc93906	-0.098253295
211	0x3e0171e3	0.126411
212	0xbc495a05	-0.012289529
213	0xbd4032fd	-0.046923626
214	0x3cc45544	0.023966439
215	0xbe473943	-0.19455437
216	0xbc14a153	-0.009071666
217	0x3eb0f685	0.3456308
218	0xbd837380	-0.06418514
219	0xbb88c1a4	-0.0041734744
220	0xbc18509d	-0.009296563
221	0xbe70e51d	-0.235249
222	0xbcc3bd60	-0.023894012
223	0xbaf1483f	-0.0018408372
224	0x3d9e142a	0.0771869
225	0xbd8ac119	-0.06775112
226	0xbd41d9a2	-0.04732669
227	0xbe801a05	-0.2501985
228	0xbdc6dcd2	-0.09710087
229	0xbe826902	-0.2547074
230	0x3d91beb2	0.0711645
231	0xbd7ccc13	-0.061718058
232	0xbdfda853	-0.12385621
233	0x3e4757e4	0.19467121
234	0xbecbe1ce	-0.39820713
235	0xbec6bc05	-0.38815323
236	0x3d42f109	0.04759315
237	0xbb7904ed	-0.003799732
238	0x3d36cb33	0.04462738
239	0xbe8d0a32	-0.2754684
240	0x3e3e3c34	0.18577653
241	0x3cff5897	0.031170173
242	0x3d5c9cdb	0.053860527
243	0x3dad91cf	0.084750764
244	0xbdcaa569	-0.09894831
245	0xbe9dcf9a	-0.3082245
246	0xbe156e43	-0.14592843
247	0x3d5ecf11	0.054396693
248	0xbcff9651	-0.031199606
249	0x3d1affb1	0.037841503
250	0x3eb73584	0.35783017
251	0xbe434a4b	-0.1907131
252	0xbca00d23	-0.019537514
253	0xbe9cf889	-0.30658367
254	0x3e4f488e	0.20242521
255	0x3e3e614c	0.18591803

rnn.weight_hh_l0_reverse f4 [192, 64]
0	0xbce82862	-0.028339569
1	0xbd0355fd	-0.032064427
2	0x3e3defee	0.18548557
3	0x3e116de8	0.14202082
4	0xbd53f8d4	-0.051750973
5	0xbd375f09	-0.044768367
6	0xbd81aaa3	-0.063313745
7	0xbae69605	-0.0017592317
8	0x3df25d86	0.118342444
9	0x3ce87da7	0.028380228
10	0x3d2c6a34	0.04209347
11	0x3c60fb0f	0.013731732
12	0xbbd0f4b6	-0.006376828
13	0x3d99fb4a	0.07518633
14	0xbeab7ffe	-0.33496088
15	0x3c9702ef	0.018434016
16	0xbd8db031	-0.069183715
17	0x3b478df8	0.003044961
18	0x3c67ff4f	0.014159991
19	0xbe243add	-0.1603808
20	0x3c993244	0.018700726
21	0xbbffc72b	-0.007805725
22	0xbd1400e7	-0.036133673
23	0x3cf59340	0.02997744
24	0xbd4ab5e1	-0.04948986
25	0xbd575515	-0.052571375
26	0x3c9bf13a	0.019035924
27	0x3d032476	0.032017194
28	0x3c847043	0.016166812
29	0x3d153d57	0.03643545
30	0x3e263c45	0.16233929
31	0x3e1a3734	0.15060121
32	0xbc93c180	-0.018036604
33	0xbcd0e115	-0.025497952
34	0x3e5d27dd	0.21597238
35	0xbb20abbf	-0.002451643
36	0x3d0ff20b	0.03514294
37	0xbda13db4	-0.07873097
38	0xbcf905e3	-0.030398315
39	0xbd95983b	-0.07304426
40	0xbd104a6b	-0.03522722
41	0xbdfc32f9	-0.1231441
42	0x3e337f18	0.17528951
43	0xbcbae6f7	-0.02281521
44	0x3dab6d9f	0.08370518
45	0x3c25a4e4	0.010110114
46	0xbcb2e3da	-0.021837164
47	0xbd20a2d3	-0.03921778
48	0xbcc6fe0f	-0.024291066
49	0xbce696e0	-0.028148115
50	0x3bf472a4	0.0074599553
51	0x3c83ace3	0.01607365
52	0x3c0b34d7	0.008496485
53	0x3e946646	0.28984278
54	0xbea970ba	-0.33093816
55	0xbde4609c	-0.11151239
56	0x3ced01e7	0.028931571
57	0x3d97c7ba	0.07411142
58	0x3d5fbf25	0.05462565
59	0x3dccb1e7	0.0999487
60	0xbd37ab29	-0.044840965
61	0xbd28e63c	-0.041235194
62	0x3e0bc46f	0.13649152
63	0xbcf332af	-0.029687254
64	0xbd10af14	-0.035323218
65	0xbd9c1432	-0.076210395
66	0x3d740a66	0.05958023
67	0x3d040b94	0.032237604
68	0x3d6b78da	0.0574883
69	0xbc3e5c23	-0.011618647
70	0xbdaa516a	-0.0831631
71	0xbd0b3e51	-0.033994976
72	0xbd2424d5	-0.04007419
73	0xbc85f7bc	-0.01635348
74	0x3e02fb7e	0.12791249
75	0xbc0d3c6d	-0.008620364
76	0xbb7423ab	-0.0037252705
77	0x3e051ebb	0.13000004
78	0xbe7e2aec	-0.24821061
79	0x3d2d49a9	0.042306576
80	0xbe20a3be	-0.15687463
81	0x3de9555e	0.113932356
82	0xbb71f894	-0.0036921846
83	0xbcea17f3	-0.028575873
84	0x3d251f69	0.04031316
85	0xbe04484c	-0.12918204
86	0x3b2b713e	0.0026160027
87	0x3d6735ec	0.05644791
88	0xbd757476	-0.05992552
89	0x3c784920	0.015154153
90	0xbd45cb81	-0.04828978
91	0x3cf5844b	0.029970309
92	0xbca6b7af	-0.020351259
93	0x3d7f7d82	0.062375553
94	0x3dab23b3	0.083564185
95	0x3cd25765	0.025676439
96	0x3d2fbfa8	0.042907387
97	0x3c83cf5d	0.01609009
98	0x3d5815f0	0.052755296
99	0x3d73b7fb	0.05950163
100	0xbe1a7c9e	-0.150866
101	0xbdbeb012	-0.093109265
102	0x3d583f38	0.052794665
103	0xbda9a692	-0.08283724
104	0xbd06d964	-0.032922164
105	0xbdb89e85	-0.0901461
106	0x3d3d5577	0.046224084
107	0xbd5d3e2e	-0.054014377
108	0x3db3792c	0.08763346
109	0x3dc8d392	0.09805979
110	0xbde06ce6	-0.10958271
111	0x3da0d3b7	0.078528814
112	0xbc352d6c	-0.011058193
113	0x3cb4d2da	0.022073198
114	0xbdc19ab9	-0.09453339
115	0xbd9b0949	-0.075701304
116	0x3e2c92bc	0.1685285
117	0x3d9d5c30	0.07683599
118	0xbe3d5e9a	-0.18493119
119	0xbdd94102	-0.106081024
120	0x3ca4157e	0.02002978
121	0x3c9bd8aa	0.019024212
122	0xbcf93e29	-0.030425148
123	0x3d82651f	0.063669436
124	0xbb597bbb	-0.0033185321
125	0x3dcad4d1	0.09903873
126	0x3e30fb31	0.17283322
127	0xb9102096	-0.0001374505
128	0xbd0658f5	-0.03279968
129	0x3e144700	0.1448021
130	0x3ced08c6	0.028934848
131	0xbe53faef	-0.20701192
132	0x3e41de41	0.1893244
133	0x3e4a0b67	0.19730912
134	0x3d7e1fc5	0.062042017
135	0x3d59e284	0.053194538
136	0xbe0d35c9	-0.13790049
137	0xbe7ade10	-0.24498773
138	0x3eb042fe	0.3442611
139	0x3dcedb40	0.10100412
140	0x3de688d5	0.112565674
141	0x3e80c55a	0.25150567
142	0x3c32ee67	0.010921097
143	0x3deebb1f	0.11656784
144	0xbea54f16	-0.322869
145	0x3e684f91	0.22686602
146	0xbc58363c	-0.013196524
147	0x3e84a1bf	0.25904652
148	0x3e3efd56	0.18651327
149	0xbea8a2de	-0.32936758
150	0x3e70ce30	0.23516154
151	0xbe853f21	-0.26024726
152	0x3e69d291	0.22834231
153	0x3e319298	0.17341077
154	0xbd37b6fe	-0.04485225
155	0xbe0a2595	-0.13490899
156	0x3d24b56d	0.040212084
157	0xbe1a8ea3	-0.15093474
158	0x3eb0c1a6	0.34522742
159	0xbd29c659	-0.041448925
160	0x3cb7007a	0.022339094
161	0x3e88ecf6	0.26743287
162	0xbe8c475b	-0.2739819
163	0xbc966753	-0.018359816
164	0xbe3f6c63	-0.1869369
165	0xbd545b8e	-0.051845126
166	0x3e9a48b6	0.301336
167	0xbd90e9b6	-0.07075827
168	0x3e0c6e8a	0.13714042
169	0x3ca96cfa	0.020681847
170	0xbe68f1c9	-0.22748484
171	0xbe2fb77f	-0.17159842
172	0xbe711840	-0.23544407
173	0x3ea0b127	0.31385157
174	0x3d61a3e0	0.055087924
175	0x3e36b0b2	0.17840841
176	0x3e9c84ac	0.3056997
177	0x3e0cce4f	0.13750575
178	0x3e0b9efe	0.1363487
179	0xbe8e16a7	-0.27751657
180	0x3e964933	0.29352722
181	0x3e8d1737	0.27556774
182	0x3e5c9c86	0.21544084
183	0x3db118ab	0.08647283
184	0xbe498665	-0.19680174
185	0x3e7ea53e	0.24867722
186	0x3e85535b	0.26040158
187	0x3ec63783	0.38714227
188	0x3e58d6ff	0.21175765
189	0x3ea63369	0.32461098
190	0xbca103ba	-0.019655097
191	0x3e8e79cf	0.27827308
192	0xbd7bd917	-0.06148633
193	0xbe481a7b	-0.19541351
194	0x3bcea3b3	0.0063061356
195	0x3e8e7942	0.27826887
196	0xbd33e01d	-0.043914903
197	0xbe622bb5	-0.22086985
198	0xbe5b1c38	-0.21397483
199	0xbdf8e40a	-0.1215287
200	0xbe6042c6	-0.21900472
201	0x3e7b12de	0.24518916
202	0xbdb4c1f7	-0.08826058
203	0xbcc32e3d	-0.023825759
204	0x3e954499	0.29153898
205	0xbd71ac7d	-0.05900239
206	0xbecc8d57	-0.39951584
207	0xbd177235	-0.03697415
208	0x3dd9ec9b	0.10640832
209	0xbdb6a95c	-0.089190215
210	0xbe69fa10	-0.22849298
211	0x3e405ab5	0.18784602
212	0xbd9da333	-0.076971434
213	0x3e0661b1	0.13123204
214	0xbe75571b	-0.2395901
215	0x3e77e158	0.24207056
216	0xbe5bd16e	-0.2146661
217	0x3e7b24ec	0.24525803
218	0x3d601bc1	0.05471397
219	0x3dcd8657	0.10035389
220	0x3cf0fb6c	0.029416762
221	0x3e671b7d	0.2256908
222	0xbdde4e14	-0.10854736
223	0xbe1d7e88	-0.15380299
224	0xbd57d437	-0.05269262
225	0xbe6a7218	-0.22895086
226	0xbe270535	-0.1631058
227	0x3e98cf88	0.29845834
228	0x3d962490	0.073311925
229	0xbd53885f	-0.051643725
230	0xbe4ec4b9	-0.20192231
231	0x3d56c13c	0.052430376
232	0xbe0f5aab	-0.13999431
233	0xbec545b7	-0.3852975
234	0xbdfe2e99	-0.124112315
235	0xbe9adae7	-0.30245134
236	0x3e9c995e	0.3058576
237	0xbdfdfffd	-0.124023415
238	0xbe25c2ef	-0.16187643
239	0xbde1a1f3	-0.110172175
240	0xbe61faff	-0.22068404
241	0xbd8ac197	-0.067752056
242	0xbd9b0d88	-0.0757094
243	0x3e17fb9b	0.14842074
244	0xbdda1851	-0.10649169
245	0x3f06aaa7	0.52604145
246	0xbc986d0f	-0.01860669
247	0xbebc8b12	-0.36824852
248	0x3e7dca93	0.24784307
249	0xbde634e6	-0.11240558
250	0x3edf433f	0.43605992
251	0xbdd630d6	-0.104585335
252	0xbe448c13	-0.19194059
253	0xbdd542e3	-0.10413148
254	0x3e31a8b9	0.17349519
255	0xbe44037d	-0.19141956

rnn.bias_ih_l0_reverse f4 [192]
0	0xbff3c986	-1.9045875
1	0xbfc11f9f	-1.5087775
2	0xbdc6f5ef	-0.09714877
3	0x3d272138	0.040803164
4	0xbf4f4dfa	-0.8097836
5	0xc0076bca	-2.115954
6	0xbf424cfd	-0.75898725
7	0xbf2ed013	-0.68286246
8	0xbd22599b	-0.039636236
9	0xbfca9408	-1.5826426
10	0xbe4d6522	-0.2005811
11	0xbf9ccbfc	-1.2249751
12	0x3e057caa	0.13035837
13	0xbe8beba1	-0.27328208
14	0xbec3053b	-0.38089928
15	0xbfac4fe5	-1.3461882
16	0xbe9ae0db	-0.30249676
17	0xbf5b5ced	-0.8568867
18	0xbe01b3d2	-0.12666252
19	0x3d69185e	0.056908004
20	0xbe41e62c	-0.1893546
21	0xbeb9cddd	-0.36289874
22	0xbff99610	-1.949892
23	0xc00b11f5	-2.172971
24	0xbfd63403	-1.6734623
25	0x3dcc11ae	0.0996431
26	0xbf54d163	-0.83132
27	0xbfa59e72	-1.2938979
28	0xbfaf4dfb	-1.3695673
29	0xbfdf090c	-1.7424636
30	0xbdf396a8	-0.1189397
31	0xbd571f3d	-0.052520026
32	0xbf698dfe	-0.9123229
33	0xbfc0e67a	-1.5070336
34	0x3d0c9412	0.0343209
35	0xbdee230c	-0.116277784
36	0xbedaf178	-0.4276235
37	0xbe8b2624	-0.27177536
38	0xbfcfe86b	-1.6242803
39	0xbe2757f1	-0.1634214
40	0xbff0fcad	-1.882711
41	0x3cdfa3d8	0.027299806
42	0x3d24b2fc	0.040209755
43	0x3da14fb9	0.07876534
44	0xbe0bc3da	-0.1364893
45	0xbe4e0788	-0.2012006
46	0xbf45b329	-0.772265
47	0xbe99f506	-0.3006975
48	0xc002be6e	-2.042873
49	0xbf7b8429	-0.98248535
50	0xbe1f39b8	-0.15549362
51	0xbfb20a87	-1.3909463
52	0xbebf3400	-0.3734436
53	0xbe1bfbd6	-0.15232787
54	0xbb6005db	-0.0034183178
55	0xbe0e0844	-0.1387034
56	0xc00abe19	-2.1678526
57	0xbe252ce3	-0.16130404
58	0x3d51d15e	0.05122506
59	0xbe23945a	-0.1597456
60	0xbfcb7322	-1.5894511
61	0xbe8e9840	-0.27850533
62	0xbe90e738	-0.28301406
63	0xc000c053	-2.0117385
64	0x3ed578e2	0.4169379
65	0x3f31973e	0.693714
66	0x3e8e6c5d	0.2781705
67	0x3d5cbdec	0.05389206
68	0x3ef480de	0.47754568
69	0x3f0f5503	0.5598909
70	0x3f3a9d72	0.7289649
71	0x3f21c110	0.63185215
72	0x3e3d1fa6	0.18469104
73	0x3f27ea6d	0.6559208
74	0x3f0a765d	0.5408686
75	0x3ef3111f	0.47474
76	0xbccaed55	-0.024771372
77	0x3f1a32e0	0.6023388
78	0x3f0ef64a	0.5584456
79	0x3f02b25e	0.51053417
80	0x3f28d185	0.659447
81	0x3f2da83e	0.6783484
82	0x3e9d943d	0.3077716
83	0x3d2046fe	0.039130203
84	0x3ef13153	0.47107944
85	0x3f2f687b	0.685188
86	0x3f210512	0.6289836
87	0x3f2bc3a1	0.6709538
88	0x3f254490	0.64557743
89	0xbd52b453	-0.0514415
90	0x3ef9becd	0.48778382
91	0x3f09d62e	0.5384244
92	0x3edb4116	0.42823094
93	0x3f242953	0.64125556
94	0x3e94f776	0.29095048
95	0x3e50537a	0.20344344
96	0x3eebc54e	0.4604897
97	0x3f2e8f25	0.6818717
98	0x3e01c3c8	0.12672341
99	0x3e7a4e5d	0.24443956
100	0x3f3cdb47	0.7377209
101	0x3f220e7b	0.63303345
102	0x3f1655e7	0.58724827
103	0x3f09fe26	0.53903425
104	0x3f0224b8	0.5083728
105	0x3dbf8e5a	0.09353323
106	0x3de6e59c	0.11274263
107	0x3d3fa528	0.046788365
108	0x3eae8860	0.3408842
109	0x3ef51430	0.47866964
110	0x3f358346	0.7090343
111	0x3efe185e	0.49627966
112	0x3f2377d6	0.6385473
113	0x3f04f1fa	0.51931727
114	0x3ee13466	0.4398529
115	0x3f22abfc	0.6354368
116	0x3f2c6691	0.67344004
117	0x3e93613d	0.28785124
118	0x3e5f4de2	0.21807054
119	0x3e8e9b73	0.27852973
120	0x3f28272f	0.6568479
121	0x3eb318a0	0.34979725
122	0xbc13ba9e	-0.009016661
123	0x3ebf1003	0.37316903
124	0x3f118dff	0.56857294
125	0x3ef381a2	0.4755984
126	0x3f292dfa	0.6608578
127	0x3f144f60	0.57933617
128	0x3ac8b500	0.0015312731
129	0xba58ce55	-0.0008270492
130	0xbb881f71	-0.0041541387
131	0x39d10386	0.00039866212
132	0xbbaab5f2	-0.005209678
133	0xb9a53c8e	-0.0003151637
134	0x3b3f3c40	0.00291802
135	0x3b702b3c	0.0036646863
136	0x3bdfd897	0.0068312394
137	0x3b6edb36	0.0036446578
138	0xbb950dfc	-0.004548786
139	0xba7c73ea	-0.00096303097
140	0x3b6a361b	0.0035737816
141	0x39f11775	0.0004598458
142	0x3b7cf4ae	0.003859799
143	0xba1c210e	-0.0005955853
144	0xbba80a88	-0.0051282085
145	0x3a2a8ba4	0.00065057934
146	0x3bb5bf29	0.0055464697
147	0x3b30f0f5	0.002699909
148	0xbb526b78	-0.0032107513
149	0x3b02a1b9	0.001993282
150	0xbb0caf0c	-0.002146664
151	0x3ab5d679	0.0013873122
152	0xbab63515	-0.0013901318
153	0x3b3407bd	0.0027470433
154	0xbb1ecd31	-0.002423119
155	0x3a187112	0.00058151886
156	0x396e8ed1	0.00022750652
157	0xbac30d5d	-0.0014881302
158	0x3abaf2e0	0.0014263056
159	0x3c0bd7df	0.008535354
160	0x39cc83f7	0.00039008234
161	0xba14b4f8	-0.00056727184
162	0x3bc34ae8	0.0059598573
163	0x3ab3d2b3	0.001371941
164	0x3be4a2a8	0.006977398
165	0xba91bc8d	-0.0011118815
166	0x3acb7148	0.0015521431
167	0xbaceacbb	-0.001576803
168	0x3b128b33	0.0022360801
169	0xba32d4bc	-0.0006821861
170	0x3c012e89	0.00788463
171	0xbb65d9de	-0.0035072486
172	0xba55083f	-0.0008126534
173	0xbb15de68	-0.002286816
174	0x3b6fc23a	0.0036584274
175	0x3b9b0090	0.0047302917
176	0xba1ab8a5	-0.0005902148
177	0xbb07ec7b	-0.0020740319
178	0xbbec80dd	-0.00721751
179	0xb9373b0e	-0.0001747424
180	0xbb02088b	-0.0019841518
181	0xb9e2dccf	-0.00043270594
182	0xbb29532b	-0.0025836925
183	0xbb58ecd8	-0.0033100154
184	0xb8bd215e	-9.0184374e-05
185	0xbb489584	-0.0030606696
186	0x3af203ac	0.0018464229
187	0xbba6c356	-0.005089204
188	0x3a899b58	0.0010498567
189	0xbac34492	-0.0014897755
190	0x3b8420dc	0.0040322375
191	0xbb32ae2d	-0.0027264461

rnn.bias_hh_l0_reverse f4 [192]
0	0xbff2a009	-1.8955089
1	0xbfc1b7c2	-1.5134203
2	0xbdc5a8ab	-0.096513115
3	0x3d4b3a82	0.049616344
4	0xbf50aa94	-0.8151028
5	0xc0071a01	-2.1109622
6	0xbf45113a	-0.7697941
7	0xbf30b9a4	-0.69033265
8	0xbce11e62	-0.027480308
9	0xbfc88790	-1.566637
10	0xbe42d8d8	-0.19028032
11	0xbf9dd6df	-1.2331198
12	0x3e04386c	0.12912148
13	0xbe864e35	-0.26231542
14	0xbec53440	-0.38516426
15	0xbfac765a	-1.3473618
16	0xbe97e85d	-0.29669467
17	0xbf588917	-0.8458418
18	0xbdfbdf95	-0.12298504
19	0x3d583c5c	0.05279194
20	0xbe3b1662	-0.18270257
21	0xbeb800dd	-0.3593816
22	0xbff944cb	-1.9474119
23	0xc00b80b5	-2.1797307
24	0xbfd70250	-1.6797581
25	0x3dbc4c88	0.09194285
26	0xbf55091a	-0.8321701
27	0xbfa62850	-1.2981052
28	0xbfaec747	-1.3654565
29	0xbfe01269	-1.7505618
30	0xbdf49086	-0.11941628
31	0xbd8cfe37	-0.06884425
32	0xbf6ba2ee	-0.92045486
33	0xbfc2d869	-1.5222293
34	0x3cf76ca3	0.03020317
35	0xbdec52a4	-0.115392
36	0xbed9c9cf	-0.4253678
37	0xbe8639a0	-0.2621584
38	0xbfd0cecc	-1.6313109
39	0xbe263f9b	-0.16235201
40	0xbff2601d	-1.8935581
41	0x3cdd5e64	0.027022548
42	0x3d1a61d3	0.03769095
43	0x3d8babb9	0.06819863
44	0xbe048fe3	-0.12945513
45	0xbe3e8729	-0.18606247
46	0xbf44e3b7	-0.76909965
47	0xbe9928f1	-0.29914048
48	0xc002a22c	-2.0411482
49	0xbf79dfa1	-0.97606856
50	0xbe1d37a9	-0.15353264
51	0xbfb283e3	-1.3946499
52	0xbec45e42	-0.38353163
53	0xbe126a02	-0.14298251
54	0xba436e19	-0.00074550655
55	0xbe1439f7	-0.14475237
56	0xc00a5f7b	-2.1620777
57	0xbe227a00	-0.15866852
58	0x3d54b63c	0.051931605
59	0xbe210875	-0.15725882
60	0xbfcb7cb1	-1.5897428
61	0xbe8b61bb	-0.27223
62	0xbe927627	-0.28605768
63	0xbfffe5b6	-1.9991977
64	0x3ed1833a	0.4092043
65	0x3f31351c	0.69221663
66	0x3e88a9ab	0.26691946
67	0x3d778efa	0.060439087
68	0x3ef43d5e	0.4770307
69	0x3f0f5d0b	0.5600135
70	0x3f3b3aae	0.73136413
71	0x3f22d198	0.63601065
72	0x3e3ad481	0.18245126
73	0x3f256649	0.646092
74	0x3f098ef9	0.53733784
75	0x3ef67ab9	0.48140505
76	0xbc794c77	-0.015215985
77	0x3f1afbc9	0.60540444
78	0x3f0b3999	0.5438476
79	0x3f049839	0.51794773
80	0x3f2b5fb3	0.669429
81	0x3f2d8615	0.6778272
82	0x3ea4a01f	0.32153413
83	0x3d36fbb6	0.044673644
84	0x3ef241df	0.4731588
85	0x3f30f51f	0.69124025
86	0x3f23df83	0.64012927
87	0x3f27f4bd	0.65607816
88	0x3f24022e	0.64065826
89	0xbd4a74f0	-0.049427927
90	0x3efa1c81	0.48849872
91	0x3f0ac9ad	0.5421398
92	0x3ee373dd	0.44424334
93	0x3f22d878	0.63611555
94	0x3e961282	0.29310995
95	0x3e525b47	0.20542632
96	0x3eeb3377	0.45937702
97	0x3f2df61a	0.67953646
98	0x3dfd52ed	0.123693325
99	0x3e8122fc	0.25222003
100	0x3f3a39d3	0.7274448
101	0x3f224752	0.63390076
102	0x3f192396	0.59819925
103	0x3f0ac517	0.54206985
104	0x3f03817b	0.51369447
105	0x3dc0553a	0.09391256
106	0x3dd75f4e	0.10516225
107	0x3d0d3102	0.034470566
108	0x3ea9eacb	0.33186945
109	0x3ef7ecce	0.48422855
110	0x3f37151a	0.71516573
111	0x3ef78a93	0.4834791
112	0x3f2101b6	0.62893236
113	0x3f024fa7	0.5090279
114	0x3edecdc7	0.4351637
115	0x3f220a3b	0.6329686
116	0x3f2e3c06	0.6806034
117	0x3e91167d	0.2833747
118	0x3e6374b6	0.2221249
119	0x3e852e0f	0.26011702
120	0x3f28c5c0	0.6592674
121	0x3eb10100	0.34571075
122	0xbca72776	-0.020404559
123	0x3ec26fb2	0.37975842
124	0x3f0f13f5	0.55889827
125	0x3ef230f3	0.4730297
126	0x3f28b725	0.65904456
127	0x3f180ce1	0.5939465
128	0x3b40e165	0.002943122
129	0x3a03c4c9	0.00050265767
130	0xbc0f5d20	-0.00875023
131	0xbc78dceb	-0.01518939
132	0x3be4e8d5	0.0069857636
133	0x38bf972b	9.135747e-05
134	0xbadaf4a7	-0.0016704992
135	0x3b1ea526	0.0024207323
136	0xbc8036b7	-0.01565109
137	0x3a58ce1c	0.0008270459
138	0xbc3a667b	-0.011376972
139	0xbb8dec46	-0.0043311445
140	0x3ba3815a	0.004989785
141	0xb92790c2	-0.00015980288
142	0xba32cc7f	-0.00068206334
143	0xbacdc758	-0.0015699668
144	0x3b6b0c2f	0.0035865416
145	0xbb161398	-0.0022899862
146	0x3c23263b	0.009957845
147	0x3c715d83	0.014731768
148	0x3ba490ce	0.005022145
149	0xbbe45d93	-0.0069691627
150	0xbaa215bf	-0.00123661
151	0x3a37c4d4	0.00070102257
152	0xbaea9d78	-0.0017899713
153	0x3bb4c1a6	0.0055162488
154	0xbb109639	-0.0022062196
155	0xbc0c8f2f	-0.0085790595
156	0xbbadfbdf	-0.0053095664
157	0xbb221f5e	-0.0024737935
158	0xbaf1e870	-0.0018456113
159	0xbc239b43	-0.009985748
160	0x3ac49c83	0.0015000257
161	0x3b59124b	0.0033122476
162	0xbbfb9e3a	-0.007678774
163	0x3bc22400	0.0059247017
164	0xba05146f	-0.0005076592
165	0x3be754b9	0.0070596603
166	0x3b1ef2aa	0.0024253526
167	0x3c173162	0.009228082
168	0x3b9cc8e1	0.004784689
169	0xbb992666	-0.004673767
170	0x3b260f6a	0.0025338777
171	0x3c017be1	0.00790307
172	0xbca67dfc	-0.020323746
173	0xb985a42f	-0.00025490063
174	0x37f4001c	2.9087118e-05
175	0xbb247016	-0.0025091222
176	0xba4056f7	-0.00073371775
177	0xb954dde9	-0.00020300563
178	0x3c040809	0.008058556
179	0xbab1a409	-0.0013552915
180	0x3b5e5b58	0.0033928957
181	0x3b85b94a	0.004080926
182	0x3c4b8077	0.012420765
183	0x3b39e9e3	0.0028368167
184	0xb90b24d8	-0.00013269798
185	0xbbe36949	-0.006940041
186	0xbc21409d	-0.009842065
187	0x3b8379a3	0.004012303
188	0x3ba9dc64	0.0051837433
189	0xba9c7891	-0.0011937787
190	0xbb456218	-0.0030118283
191	0xba65556e	-0.0008748387
