trained_models/gru_k6.pt (torch, 711447 bytes, 26 tensors)

rnn.weight_ih_l0 f4 [192, 3]
-0.08787823 0.02530154 0.010191857 -0.0022707542 0.002110795 0.0005672311 0.06201783 -0.037425872
-0.16259335 0.08708141 -0.103741795 -0.17798547 -0.047528762 -0.041607007 -0.059766024 -0.4926875
-0.45687273 0.17025544 0.39173326 0.14782949 -0.22270043 -0.07873238 0.0061385594 -0.28519246
-0.18423532 -0.07859478 -0.1854447 0.07050023 -0.029754693 0.007104905 -0.10576034 0.21157275
-0.08279637 -0.16009374 -0.066872306 -0.13982455 -0.14429185 0.05444374 -0.26935676 0.06303086
0.00054881914 -0.10903333 0.30522442 0.1774331 0.203086 -0.049493253 0.06682201 0.011941101
0.0302002 0.04819067 0.048132394 -0.13289239 -0.11054812 -0.031830516 -0.20158543 0.18981364
0.11860651 -0.016490465 0.021871788 -0.08760082 -0.098210424 0.02682525 0.03151175 -0.07753806
-0.14260378 -0.062353723 0.00384274 -0.01085323 -0.01016711 -0.05230545 -0.0037566933 -0.064999476
-0.076687574 -0.029264964 -0.10991713 -0.118839085 0.08081667 -0.19944155 -0.14027639 -0.09208576
0.11693726 -0.0735213 -0.08543849 0.19523354 0.15716586 -0.07983639 0.22298785 0.15957198
0.1259546 0.071433224 -0.040011365 0.020875787 -0.23666403 -0.0602873 -0.09559644 -0.08972387
0.021913748 0.06820203 0.07524411 -0.27418405 0.22010374 0.11798897 -0.05897758 -0.011270991
-0.045131944 -0.18160985 0.12724394 -0.18392143 -0.048447542 -0.032130454 0.02511515 -0.09609705
0.035322156 0.11566208 0.0077462 -0.13170512 0.008971404 -0.040467862 -0.009191481 -0.035653137
0.004627269 -0.083951846 0.18087943 -0.12146699 0.012060859 0.050725307 -0.022871187 0.120750904
-0.1208335 -0.1917908 -0.17929903 -0.4117219 -0.18690042 0.09792533 -0.29401368 -0.13698462
0.03596221 -0.08621986 0.078216776 0.04424635 -0.106048025 0.58896345 -0.41773838 0.25721088
-0.07175787 0.111851014 -0.06355294 -0.10689561 -0.10189134 0.036269944 -0.11832775 0.094039865
0.0016214488 -0.04615638 -0.03484342 -0.05642844 -0.18383995 0.023378002 0.0678795 -0.15524003
0.058462188 0.070319265 0.029314477 0.06847536 0.060057756 -0.0621226 -0.07632502 -0.16854438
-0.12860882 0.087530404 -0.11884293 -0.08845065 0.030318743 -0.11740871 -0.0626582 0.04513324
-0.2097657 -0.18866816 0.045751695 -0.18446226 -0.07746031 -0.10741533 0.045712747 -0.124709554
0.08293653 0.07788088 -0.032369133 -0.07078074 -0.049529467 0.008569711 -0.0062563913 0.017942958
-0.23609957 -0.29981107 0.004107686 -0.032690883 0.15005466 -0.133265 -0.07545268 0.22157021
-0.05785861 -0.32653496 0.26033255 -0.39953226 0.19943984 0.15485692 0.11044404 -0.4473149
-0.035303846 -0.0045281774 0.1624989 0.3625359 -0.014931447 -0.14357749 -0.011706659 -0.075120404
-0.17348099 -0.065123156 -0.01478987 0.3911975 0.18795143 -0.17996462 -0.3843266 0.38274857
-0.15855995 0.48994294 -0.18502258 0.061918493 -0.13340728 0.050132502 0.26298288 0.15353487
0.16654332 0.0007354495 0.15430258 0.24607223 0.0044495994 0.25875014 0.112854324 -0.17256078
0.24558066 0.21867295 -0.20309378 -0.069938414 -0.28213614 0.38983473 -0.44674993 0.69126654
-0.021604178 0.123215355 0.17959468 -0.08540313 -0.16102587 0.4145395 0.008686666 -0.11360089
00000000: 80f9 b3bd 2d45 cf3c bffb 263c efd0 14bb
00000010: 4355 0a3b 3cb2 143a 6806 7e3d df4b 19bd
00000020: df7e 26be bd57 b23d 9476 d4bd d341 36be
00000030: 85ad 42bd 1c6c 2abd 38cd 74bd 8941 fcbe
00000040: 39eb e9be 7157 2e3e 4391 c83e 9d60 173e
00000050: 950b 64be 713e a1bd f825 c93b bf04 92be
00000060: 2fa8 3cbe 4df6 a0bd 37e5 3dbe 6d62 903d
00000070: 1dc0 f3bc 43d0 e83b e198 d8bd 87a6 583e
00000080: 2591 a9bd 9def 23be 59f4 88bd 2b2e 0fbe
00000090: 3ec1 13be 6600 5f3d 21e9 89be 5316 813d
000000a0: a1de 0f3a de4c dfbd 6046 9c3e 06b1 353e
000000b0: c7f5 4f3e 70b9 4abd fad9 883d 9ca4 433c
000000c0: 6966 f73c 9463 453d 7926 453d f114 08be
000000d0: 0e67 e2bd b760 02bd 696c 4ebe 825e 423e
000000e0: f8e7 f23d 0317 87bc 772c b33c 0f68 b3bd
000000f0: 8c22 c9bd a0c0 db3c 7712 013d 46cc 9ebd
00000100: ba06 12be 9e66 7fbd 7bd6 7b3b bfd1 31bc
00000110: f393 26bc 3d3e 56bd db32 76bb 721e 85bd
00000120: 600e 9dbd 14bd efbc 3b1c e1bd e861 f3bd
00000130: 3683 a53d 683a 4cbe 9da4 0fbe 7597 bcbd
00000140: cd7c ef3d 5692 96bd 60fa aebd 4deb 473e
00000150: 16f0 203e 4381 a3bd ed56 643e d666 233e
00000160: 3efa 003e 954b 923d f5e2 23bd b303 ab3c
00000170: 0e58 72be d1ef 76bd 11c8 c3bd 26c1 b7bd
00000180: 7684 b33c 82ad 8b3d 9519 9a3d da61 8cbe
00000190: e062 613e 33a4 f13d 7a92 71bd f6a9 38bc
000001a0: 46dc 38bd eff7 39be 3c4c 023e e655 3cbe
000001b0: ee70 46bd 399b 03bd 49be cd3c 88ce c4bd
000001c0: f7ad 103d 3ee0 ec3d d6d3 fd3b b5dd 06be
000001d0: ccfc 123c a1c1 25bd de97 16bc 0609 12bd
000001e0: 59a0 973b f2ee abbd 7538 393e afc3 f8bd
000001f0: e99a 453c 57c5 4f3d 5b5c bbbc 404c f73d
00000200: 8e77 f7bd cf64 44be 2a9a 37be 36cd d2be
00000210: d362 3fbe 138d c83d f688 96be b245 0cbe
00000220: 1c4d 133d 0a94 b0bd 1e30 a03d a93b 353d
00000230: b52f d9bd 4fc6 163f cee1 d5be 25b1 833e
00000240: caf5 92bd 2512 e53d 0b28 82bd 16ec dabd
00000250: 68ac d0bd cb8f 143d d255 f2bd f997 c03d
00000260: cb86 d43a 790e 3dbd f9b7 0ebd 8221 67bd
00000270: 8a40 3cbe 3983 bf3c 6804 8b3d 3ef7 1ebe
00000280: 0c76 6f3d 8c03 903d ea24 f03c cf3c 8c3d
00000290: 1fff 753d 4474 7ebd 4b50 9cbd e696 2cbe
000002a0: 08b2 03be 2443 b33d ec63 f3bd 9d25 b5bd
000002b0: 035f f83c fa73 f0bd f152 80bd a2dd 383d
000002c0: d2cc 56be 3a32 41be 2166 3b3d ade3 3cbe
000002d0: 83a3 9ebd 92fc dbbd 4a3d 3b3d b967 ffbd
000002e0: a1da a93d 0380 9f3d 7f95 04bd 7ef5 90bd
000002f0: 69df 4abd f967 0c3c 6a02 cdbb 1cfd 923c
00000300: 16c4 71be d680 99be c599 863b e0e6 05bd
00000310: eea7 193e 9f76 08be ef86 9abd 4de3 623e
00000320: 26fd 6cbd 972f a7be 4f4a 853e 7e8f ccbe
00000330: f539 4c3e d092 1e3e 7c30 e23d 7506 e5be
00000340: c49a 10bd 1b61 94bb 1d66 263e 4e9e b93e
00000350: 07a3 74bc fa05 13be 49cd 3fbc bad8 99bd
00000360: 00a5 31be 4a5f 85bd 3651 72bc 0a4b c83e
00000370: 5776 403e a548 38be 75c6 c4be 9ff7 c33e
00000380: 8a5d 22be cdd9 fa3e 8f76 3dbe 3f9e 7d3d
00000390: eb9b 08be bd57 4d3d b1a5 863e 3f38 1d3e
000003a0: 558a 2a3e 2ecb 403a 7f01 1e3e 5cfa 7b3e
000003b0: f2cd 913b e67a 843e 2b20 e73d c6b3 30be
000003c0: 7f79 7b3e cdeb 5f3e d1f7 4fbe df3b 8fbd
000003d0: 2674 90be 6b98 c73e 68bc e4be d8f6 303f
000003e0: 3ffb b0bc 5558 fc3d abe7 373e d6e7 aebd
000003f0: f7e3 24be 853e d43e 8552 0e3c 95a7 e8bd

rnn.weight_hh_l0 f4 [192, 64]
0.14826535 0.11061493 -0.04049603 -0.0068454007 -0.16095014 0.26183063 -0.24499951 -0.05725184
-0.028124733 -0.109836206 0.036767635 0.02679682 0.020117808 -0.010176284 -0.07447075 -0.1615453
0.101302914 0.0641778 -0.18757892 -0.05998242 -0.15171373 0.029618384 -0.12502486 0.071368575
-0.078831 0.017439848 -0.0913143 -0.031717077 -0.06609275 -0.3836192 -0.048274864 -0.1349154
0.08208279 -0.2438806 -0.058854327 -0.070810765 0.051514976 0.054179937 -0.10910459 -0.029507434
-0.024725316 -0.0072119026 0.01008168 0.3016706 0.020505875 -0.0956182 0.07143421 -0.29873946
-0.07187273 0.11364656 0.06754036 -0.12826562 0.13978569 0.014293425 -0.05482099 0.019678842
0.07924304 -0.046333328 -0.0701316 0.0496267 0.13028787 -0.052911066 0.09102629 -0.06409042
0.1308824 0.07633557 -0.06462868 0.0342794 -0.09857179 0.30338794 -0.22609305 -0.13524051
0.03681535 0.087566726 0.07914463 -0.05102276 0.13931668 0.001220939 -0.10837308 -0.075895965
-0.06909658 0.0610912 -0.16945635 0.01618567 -0.081876926 0.13068081 -0.0017630686 0.017599782
-0.043349616 0.074511565 0.15665308 -0.06889201 -0.055789486 -0.15182659 0.039333973 -0.06396383
0.021957424 -0.23667875 -0.054711036 -0.15174189 0.01780894 0.07703539 -0.0057871547 -0.021181298
0.008079834 -0.064903595 -0.06584442 0.34820223 -0.12718771 -0.18659791 0.09931085 -0.22771494
-0.08492427 0.05757425 0.19733322 -0.03314467 0.13892224 -0.18415028 0.033508968 0.06276322
0.10730066 -0.08566336 -0.22636288 0.024632137 0.0038671808 -0.20279852 0.048341513 0.0044809496
0.1215648 -0.014035956 -0.08404623 0.19176356 0.033064097 0.4193749 0.048744056 0.00996527
0.16840509 0.17934963 0.018056907 -0.06914368 0.07259066 0.08045084 -0.052661203 0.13606712
-0.041927554 0.088233374 -0.03941917 0.028167913 0.030399205 0.12186188 0.060096845 -0.055415638
-0.0040041045 -0.0400225 0.31038195 -0.030015819 0.0032861652 0.16829643 0.16644228 -0.06134123
-0.06905375 -0.11519645 -0.045348864 -0.034634907 0.131574 0.09146929 0.03379353 0.09268069
-0.023930708 -0.032354664 -0.01688273 0.056419697 -0.121389516 -0.016057808 0.04397109 -0.25644016
0.04966457 0.0721136 0.03890541 0.109546416 -0.020376166 -0.108977996 0.024513293 0.0038841465
0.022072908 -0.011656857 -0.07209043 -0.036791153 -0.029919377 0.059977327 0.04529848 -0.19532034
0.14901069 0.03655251 0.03104373 -0.09549699 0.02405653 0.17315081 0.26426637 0.121337526
0.044787277 0.0024924153 -0.16097122 -0.07312139 -0.071225815 -0.043188125 -0.10648166 0.038869243
0.04831565 0.11063687 0.1724649 -0.023533888 0.0031949913 0.045900986 -0.05906539 -0.11109499
-0.12954713 -0.0901429 0.16877992 -0.022878692 -0.11676444 0.018167369 0.08916147 -0.13399635
-0.09245046 0.17921528 -0.06304701 0.08450448 0.12535423 0.029472047 -0.064786285 0.035578754
0.058778662 -0.052267466 -0.019084778 -0.17127793 -0.0007801852 0.03905731 0.043523416 0.07063062
0.14530233 0.020702465 -0.052897625 0.036515117 -0.08183115 0.024004905 0.11144147 0.049561396
-0.015328966 0.00454784 0.05749337 -0.05679525 0.06507159 0.059355944 0.06248003 -0.019952338
00000000: dfd2 173e 158a e23d 2adf 25bd 624f e0bb
00000010: 1dd0 24be aa0e 863e 27e1 7abe e880 6abd
00000020: d765 e6bc cef1 e0bd a999 163d 0185 db3c
00000030: 1ace a43c 6eba 26bc 1f84 98bd 226c 25be
00000040: e777 cf3d a76f 833d b014 40be 20b0 75bd
00000050: d85a 1bbe 41a2 f23c 8406 00be b029 923d
00000060: 2672 a1bd 03de 8e3c fe02 bbbd c4e9 01bd
00000070: a35b 87bd bc69 c4be ddbb 45bd 4327 0abe
00000080: 061b a83d d6bb 79be 3c11 71bd 3c05 91bd
00000090: 5e01 533d c8eb 5d3d 3a72 dfbd 93b9 f1bc
000000a0: bf8c cabc d351 ecbb a12d 253c 9274 9a3e
000000b0: f0fb a73c 7ad3 c3bd 194c 923d 61f4 98be
000000c0: 0332 93bd 87bf e83d 9a52 8a3d 1058 03be
000000d0: fb23 0f3e f82e 6a3c f98b 60bd 8635 a13c
000000e0: 2d4a a23d 04c8 3dbd 28a1 8fbd 5e45 4b3d
000000f0: 2f6a 053e 46b9 58bd fe6b ba3d d741 83bd
00000100: 0906 063e d355 9c3d 0b5c 84bd 8e68 0c3d
00000110: 02e0 c9bd aa55 9b3e f084 67be 7d7c 0abe
00000120: b1cb 163d 2f56 b33d 9416 a23d 3efd 50bd
00000130: 08a9 0e3e ea07 a03a b5f2 ddbd 586f 9bbd
00000140: 8282 8dbd c43a 7a3d f785 2dbe cf97 843c
00000150: 17af a7bd 31d1 053e c416 e7ba 6b2d 903c
00000160: 5e8f 31bd 8599 983d aa69 203e 4117 8dbd
00000170: 8483 64bd 6e78 1bbe a91c 213d 78ff 82bd
00000180: 0ee0 b33c ea5b 72be ae18 60bd 3a62 1bbe
00000190: 0ee4 913c bbc4 9d3d 2ca2 bdbb 6784 adbc
000001a0: 4861 043c 2dec 84bd 70d9 86bd 9047 b23e
000001b0: 7f3d 02be 8613 3fbe 7d63 cb3d 1b2e 69be
000001c0: c7ec adbd fad2 6b3d b811 4a3e b5c2 07bd
000001d0: a241 0e3e e491 3cbe b340 093d 018a 803d
000001e0: 73c0 db3d 4670 afbd accb 67be 56c9 c93c
000001f0: 8770 7d3b 6aaa 4fbe c001 463d eed4 923b
00000200: f7f6 f83d 11f7 65bc 6e20 acbd ab5d 443e
00000210: 386e 073d 4fb8 d63e d9a7 473d 5f45 233c
00000220: 6272 2c3e 6ea7 373e 14ec 933c 349b 8dbd
00000230: 69aa 943d 69c3 a43d 46b3 57bd 2e55 0b3e
00000240: 3abc 2bbd b3b3 b43d ff75 21bd 65c0 e63c
00000250: c107 f93c b992 f93d 1c28 763d 82fb 62bd
00000260: dd34 83bb a2ee 23bd 62ea 9e3e bce3 f5bc
00000270: b45c 573b e655 2c3e d86f 2a3e f140 7bbd
00000280: 0d6c 8dbd 1eec ebbd bbbf 39bd 55dd 0dbd
00000290: 56bb 063e 4054 bb3d 166b 0a3d 60cf bd3d
000002a0: 550a c4bc 5386 04bd a74d 8abc 5718 673d
000002b0: 119b f8bd aa8b 83bc 081b 343d 204c 83be
000002c0: 136d 4b3d 4cb0 933d 475b 1f3d df59 e03d
000002d0: ebeb a6bc db2f dfbd 1ad0 c83c 2a8d 7e3b
000002e0: 3ed2 b43c 67fc 3ebc 26a4 93bd 52b2 16bd
000002f0: 7b19 f5bc c9aa 753d e68a 393d 0e02 48be
00000300: 4296 183e 16b8 153d 6c4f fe3c ed93 c3bd
00000310: 3312 c53c 724e 313e ec4d 873e cf7f f83d
00000320: dd72 373d ca57 233b a4d5 24be abc0 95bd
00000330: d7de 91bd 08e6 30bd 0e13 dabd 5b35 1f3d
00000340: a2e6 453d 9595 e23d a49a 303e 24ca c0bc
00000350: 0f63 513b ac02 3c3d 8dee 71bd c585 e3bd
00000360: 01a8 04be d79c b8bd a5d4 2c3e 186c bbbc
00000370: 3222 efbd bcd3 943c 4a9a b63d 5736 09be
00000380: ab56 bdbd 3684 373e ca1e 81bd af10 ad3d
00000390: dc5c 003e 5d6f f13c acae 84bd 07bb 113d
000003a0: e5c1 703d 6916 56bd ae57 9cbc 7b63 2fbe
000003b0: 5885 4cba 8ffa 1f3d 9c45 323d c9a6 903d
000003c0: 22ca 143e 3798 a93c 2eab 58bd e090 153d
000003d0: 1797 a7bd efa5 c43c 6d3b e43d e400 4b3d
000003e0: 5826 7bbc 0c06 953b 2b7e 6b3d 23a2 68bd
000003f0: 4144 853d 381f 733d 0feb 7f3d 1673 a3bc

rnn.bias_ih_l0 f4 [192]
0.017576277 0.01331816 -0.044573676 0.30475006 -0.05029698 0.086510144 0.27620775 0.010851454
-0.034726735 -0.031571485 0.13131194 -0.14964361 -0.015659811 -0.059620228 0.39496502 -0.02926549
0.024026653 0.022372277 0.07584095 -0.061090376 -0.036171567 0.019596903 -0.04587402 0.027962359
0.031252872 -0.016263643 -0.05315591 -0.0952658 -0.08031403 -0.04158608 0.008667169 0.018141393
0.11815403 0.060557887 -0.055124197 -0.009851973 0.039146785 -0.005298349 -0.015572324 -0.020786304
0.4767261 0.43713477 0.07120726 0.34046304 -0.035467107 -0.030874943 -0.02132251 -0.047173943
0.027715685 0.04488744 -0.017883837 -0.05875337 -0.041960232 -0.027322268 0.06945994 -0.0681305
-0.024917077 -0.026826989 -0.02071248 -0.019133314 0.0021362032 -0.021763423 0.04006513 -0.009311048
-0.7517473 -0.9953612 -0.8046296 0.6687616 -0.8160601 0.61711425 0.8117725 -1.4386767
-0.79730105 -0.8735728 -1.3074423 -0.30690587 -0.964679 -0.8856347 0.60911185 -0.85357344
-1.0997231 -0.6156046 -0.5602747 -0.9376522 -0.91620725 -0.7426308 -0.8451889 -0.87424326
-1.1189746 -0.8341245 -0.30860156 -0.5094788 0.63013333 -0.44256437 -0.93828577 -1.0716852
-1.7252918 -0.48765126 -0.8927537 -0.7919526 -0.90891445 -0.78671896 -0.88429636 -0.9677963
0.49750498 0.56094754 -1.6554717 0.80036676 -0.86103106 -0.8527198 -0.9444712 0.7789604
-1.2818182 -0.907018 -0.8140447 -0.7407951 -0.71637774 -0.64137733 -1.7165577 -0.40671536
-0.89112395 -1.0773865 -0.73994213 -0.79870677 -0.948039 -0.84878635 -1.0519097 -0.7219693
0.002868369 0.0021441341 -0.010408239 0.0037744623 0.00029123347 0.008553281 -0.0058543882 -0.012532068
-0.0020968707 0.0073546637 0.018721297 -0.007446281 0.0011860732 -0.005288309 -0.0049649724 0.009239114
8.953082e-05 0.0042964485 -0.009608354 0.0064726733 0.0002916514 -0.00639228 -0.0009944045 0.016516123
-0.005115 -0.0031507688 -0.0083557675 0.0042087696 0.014375581 0.00049457565 -0.002208694 0.005353627
0.00086543034 -0.016333656 -0.0015712932 -0.0023986625 0.002496522 0.008956921 0.010325243 0.0021233463
-0.001793765 -0.0018983412 -0.0060927393 0.0048503987 -0.007014203 -0.019132126 0.008628183 -0.008140416
-0.011316874 0.0043562413 0.0072473153 -0.00014901596 0.004957183 -0.014980553 0.0077545894 -0.003305226
0.006116327 0.0014393853 -0.016733281 -0.0026881348 -0.011182692 -0.0067387177 -0.008664126 -0.0038610029
00000000: 20fc 8f3c 6934 5a3c e392 36bd 3308 9c3e
00000010: 3504 4ebd 3b2c b13d 1a6b 8d3e 4cca 313c
00000020: 9f3d 0ebd 1a51 01bd a376 063e 2d3c 19be
00000030: 0149 80bc 5734 74bd db38 ca3e 2ebe efbc
00000040: 8bd3 c43c 1146 b73c 8052 9b3d e739 7abd
00000050: a328 14bd af89 a03c 65e6 3bbd 5111 e53c
00000060: 0303 003d 553b 85bc 03ba 59bd b71a c3bd
00000070: af7b a4bd 2a56 2abd be00 0e3c 429d 943c
00000080: bdfa f13d 8c0b 783d e9c9 61bd 2b6a 21bc
00000090: 6158 203d c69d adbb 1023 7fbc 0a48 aabc
000000a0: 7215 f43e 21d0 df3e 1dd5 913d 2c51 ae3e
000000b0: f545 11bd 73ed fcbc 8bac aebc 7739 41bd
000000c0: 010c e33c e4db 373d 2081 92bc 60a7 70bd
000000d0: 7ede 2bbd f3d2 dfbc 0341 8e3d 0188 8bbd
000000e0: e61e ccbc 46c4 dbbc 38ad a9bc 78bd 9cbc
000000f0: 8bff 0b3b 3549 b2bc 551b 243d 5e8d 18bc
00000100: 8372 40bf fecf 7ebf 35fc 4dbf f633 2b3f
00000110: 51e9 50bf 33fb 1d3f 53d0 4f3f 8f26 b8bf
00000120: ec1b 4cbf 78a2 5fbf 455a a7bf c422 9dbe
00000130: 34f5 76bf f5b8 62bf c1ee 1b3f ca83 5abf
00000140: bac3 8cbf 4398 1dbf 2a6e 0fbf f909 70bf
00000150: 8f8c 6abf 0d1d 3ebf 4d5e 58bf 68ce 5fbf
00000160: 8f3a 8fbf 2f89 55bf 0601 9ebe 346d 02bf
00000170: 6b50 213f cc97 e2be 7f33 70bf fb2c 89bf
00000180: 5dd6 dcbf 6dad f9be 828b 64bf 68bd 4abf
00000190: 9eae 68bf 6a66 49bf 3f61 62bf 80c1 77bf
000001a0: f9b8 fe3e 429a 0f3f 7fe6 d3bf d6e4 4c3f
000001b0: 886c 5cbf d84b 5abf ddc8 71bf f369 473f
000001c0: 9e12 a4bf 5532 68bf 3c65 50bf bfa4 3dbf
000001d0: 8864 37bf 4e31 24bf 2ab8 dbbf ff3c d0be
000001e0: b320 64bf cde7 89bf d96c 3dbf 0c78 4cbf
000001f0: afb2 72bf 104a 59bf faa4 86bf fbd2 38bf
00000200: 3ffb 3b3b 9a84 0c3b 5287 2abc f85c 773b
00000210: b2b0 9839 1023 0c3c 2bd6 bfbb 4e53 4dbc
00000220: a76b 09bb 64ff f03b 685d 993c efff f3bb
00000230: 0376 9b3a 8d49 adbb 35b1 a2bb a75f 173c
00000240: 7ec2 bb38 39c9 8c3b 5c6c 1dbc b818 d43b
00000250: cae8 9839 5576 d1bb ae56 82ba d24c 873c
00000260: bb9b a7bb 217d 4ebb a1e6 08bc b8e9 893b
00000270: 8f87 6b3c 69a6 013a bcbf 10bb 7a6d af3b
00000280: 0cde 623a 29ce 85bc daf3 cdba e132 1dbb
00000290: b09c 233b 0dc0 123c 352b 293c d727 0b3b
000002a0: c41c ebba c3d1 f8ba 9aa5 c7bb 18f0 9e3b
000002b0: 66d7 e5bb faba 9cbc 395d 0d3c 615f 05bc
000002c0: 696a 39bc cdbe 8e3b e37a ed3b 2b41 1cb9
000002d0: dd6f a23b fe70 75bc 361a fe3b 7e9c 58bb
000002e0: 786b c83b c2a9 bc3a 3c14 89bc 6b2b 30bb
000002f0: 9c37 37bc 76d0 dcbb faf3 0dbc e108 7dbb

rnn.bias_hh_l0 f4 [192]
0.007923502 0.008119044 -0.04188555 0.31145242 -0.061500628 0.083918564 0.2630684 0.00978881
-0.04803315 -0.028452277 0.13378309 -0.1354564 -0.021846686 -0.05875403 0.40472758 -0.018225739
0.017748963 0.017545842 0.07739536 -0.05517995 -0.036627233 0.016086373 -0.032490958 0.03026459
0.043049127 -0.013271663 -0.04393266 -0.09005546 -0.08003274 -0.053941973 0.0038858394 0.017886164
0.121272564 0.06649448 -0.048638355 -0.0022094848 0.036392957 0.0010037321 -0.023297999 -0.03183374
0.49073064 0.43357718 0.07236719 0.34924927 -0.02849534 -0.027773948 -0.021357177 -0.053660624
0.037533037 0.037646543 -0.02545836 -0.05644552 -0.052090917 -0.023865534 0.05841516 -0.060121883
-0.017401317 -0.030065542 -0.007904805 -0.02284635 0.006015114 -0.031988084 0.028647522 -0.0066333464
-0.75886875 -1.0014573 -0.8120889 0.6652637 -0.8203543 0.61203897 0.8085634 -1.45636
-0.8053601 -0.8688921 -1.3094935 -0.30180463 -0.9546082 -0.8837054 0.60966957 -0.84354764
-1.0944432 -0.6054248 -0.54046136 -0.927475 -0.9137462 -0.7441158 -0.8435924 -0.8836781
-1.1236072 -0.8297665 -0.3222641 -0.50311357 0.63226485 -0.4475004 -0.93380314 -1.076183
-1.7367799 -0.48967576 -0.90694183 -0.79850525 -0.9076327 -0.78486365 -0.871379 -0.9671891
0.50024194 0.569418 -1.657989 0.8037165 -0.85755503 -0.8569816 -0.96181786 0.7712653
-1.2852958 -0.90212387 -0.81808925 -0.7515414 -0.71636647 -0.6354621 -1.7095056 -0.4082683
-0.8861125 -1.074108 -0.7319509 -0.81296724 -0.9490033 -0.84381413 -1.0627584 -0.71659464
-0.0056746197 -0.0051243636 0.01576712 0.0022259888 -0.0009300159 -0.00653918 0.008156918 0.027767355
0.009337314 -0.010419378 -0.041436642 0.021668686 -0.001055216 0.016921228 0.009632101 -0.016087089
-0.007506176 -0.0011132458 0.021470716 -0.0011026849 -0.0023224154 0.01653121 -0.004888475 -0.019672513
0.015804525 0.0032962412 0.0084372265 -0.0020966535 0.00618724 -0.0035080826 0.004264627 -0.015044127
-0.005681858 0.013176925 0.002398871 0.008811585 -0.0011012784 0.0003361849 -0.0005016511 -0.01114113
0.0068606855 0.0030313805 0.015667873 -0.006386156 0.0024207453 0.035199754 -0.021444838 0.003097233
0.016625008 -0.00665213 -0.007789711 0.0012382704 -0.002780053 0.02362578 -0.010911928 0.016031425
-0.012407392 -0.012176298 0.03604665 0.008962785 0.019873306 0.011029779 0.014086055 0.015817024
00000000: 93d1 013c bd05 053c 2f90 2bbd b176 9f3e
00000010: 15e8 7bbd 7fdd ab3d e7b0 863e 3f61 203c
00000020: 69be 44bd c014 e9bc 6ffe 083e 15b5 0abe
00000030: d2f7 b2bc 11a8 70bd 7438 cf3e 254e 95bc
00000040: 4666 913c 4cbc 8f3c 7581 9e3d 5f04 62bd
00000050: 7006 16bd 92c7 833c 3d15 05bd 72ed f73c
00000060: 4854 303d 6471 59bc bcf2 33bd ff6e b8bd
00000070: 35e8 a3bd 42f2 5cbd 91a9 7e3b 0186 923c
00000080: c05d f83d 422e 883d 0339 47bd 01cd 10bb
00000090: c810 153d a98f 833a 72db bebc 1964 02bd
000000a0: 0c41 fb3e d4fd dd3e 4035 943d cdd0 b23e
000000b0: 0f6f e9bc 3186 e3bc 3ff5 aebc 3ecb 5bbd
000000c0: 3ebc 193d 4333 1a3d 0d8e d0bc 6b33 67bd
000000d0: 495d 55bd a781 c3bc bc44 6f3d 5d42 76bd
000000e0: 358d 8ebc 034c f6bc 2883 01bc 4528 bbbc
000000f0: 6f1a c53b f005 03bd 35ae ea3c 8b5c d9bb
00000100: 3945 42bf c12f 80bf 0fe5 4fbf b94e 2a3f
00000110: bd02 52bf 96ae 1c3f 03fe 4e3f 016a babf
00000120: 142c 4ebf b66f 5ebf 7c9d a7bf 2386 9abe
00000130: 3461 74bf 843a 62bf 4e13 1c3f bdf2 57bf
00000140: b716 8cbf 1ffd 1abf ad5b 0abf 006f 6dbf
00000150: 45eb 69bf 607e 3ebf acf5 57bf ba38 62bf
00000160: 5cd2 8fbf 946b 54bf cdff a4be 0dcc 00bf
00000170: 1cdc 213f c61e e5be b90d 6fbf 5dc0 89bf
00000180: ce4e debf c8b6 fabe 572d 68bf d76a 4cbf
00000190: 9e5a 68bf d3ec 48bf b212 5fbf b499 77bf
000001a0: db0f 003f 61c5 113f fc38 d4bf 5dc0 4d3f
000001b0: ba88 5bbf 2563 5bbf b239 76bf a571 453f
000001c0: 9384 a4bf 97f1 66bf 4c6e 51bf 0465 40bf
000001d0: cb63 37bf a5ad 22bf 14d1 dabf 8b08 d1be
000001e0: 45d8 62bf 5f7c 89bf 2261 3bbf 9f1e 50bf
000001f0: e1f1 72bf 3404 58bf 7808 88bf bf72 37bf
00000200: 29f2 b9bb 47ea a7bb 0c2a 813c e5e1 113b
00000210: 50cc 73ba 9e46 d6bb 98a4 053c 5d78 e33c
00000220: 89fb 183c 0ab6 2abc 78b9 29bd 8782 b13c
00000230: 2c4f 8aba 639e 8a3c f6cf 1d3c 12c9 83bc
00000240: 5ef6 f5bb 55ea 91ba 5be3 af3c f787 90ba
00000250: aa33 18bb 766c 873c 802f a0bb 4028 a1bc
00000260: 7e78 813c c005 583b 4b3c 0a3c 0268 09bb
00000270: 55be ca3b dce7 65bb 49be 8b3b a47b 76bc
00000280: e12e babb 07e4 573c 6036 1d3b 775e 103c
00000290: c558 90ba f941 b039 3c81 03ba 4989 36bc
000002a0: 9acf e03b 20aa 463b e959 803c f642 d1bb
000002b0: 5ea5 1e3b 9e2d 103d 16ad afbc f2fa 4a3b
000002c0: 2b31 883c 1cfa d9bb d540 ffbb 764d a23a
000002d0: 8d31 36bb da8a c13c f1c7 32bc 5654 833c
000002e0: 6048 4bbc 187f 47bc a7a5 133d a5d8 123c
000002f0: 58cd a23c 3fb6 343c 32c9 663c b492 813c

rnn.weight_ih_l0_reverse f4 [192, 3]
0.0662265 -0.15850896 0.12092578 -0.007967042 -0.05914963 0.0056628035 -0.07146207 0.12891237
0.1924258 -0.13255405 0.08804667 0.24034189 -0.056931537 -0.19409738 0.0076606087 0.04116574
-0.051368866 -0.011524053 0.056441743 0.001016129 0.24858882 0.06585335 0.27588013 -0.07010463
-0.08086056 0.05045249 0.18399835 0.0689519 -0.064250976 0.3727136 0.005351592 -0.015507726
0.10330635 0.10781634 0.20715243 -0.07411301 -0.0044198097 0.032828018 -0.22625421 0.02349879
-0.05020751 -0.28352624 0.12039049 0.06388227 -0.07891934 0.12081637 0.38970864 0.013817413
0.17511754 -0.006239107 -0.22616361 0.1330998 -0.095820256 -0.13628717 -0.06657535 -0.029880513
-0.08605207 -0.080306426 -0.004106481 0.16091052 -0.13558294 0.021904133 0.37696466 -0.009555389
-0.0838863 0.18872532 -0.011099179 -0.085316494 0.022275345 0.044362895 0.04434208 -0.01935615
0.10478833 0.017401176 0.013278866 0.004736582 -0.019564401 0.29847297 -0.028584374 0.010496213
-0.19924739 -0.19912307 -0.26609808 -0.08549143 0.09567501 0.18874249 -0.049459644 0.010101599
0.0019259326 0.035088845 0.017939858 0.060494322 0.045620184 -0.052546784 0.06407731 -0.037522636
0.08849536 0.23058715 -0.10638928 -0.01833059 -0.1175941 0.0073020756 -0.1199584 -0.1387713
0.26037836 0.006437186 -0.029185701 -0.032004915 0.092890404 0.1041692 -0.052479614 0.07256005
-0.01225883 0.06136631 0.02852308 0.11713703 -0.027703235 0.07065764 -0.031108996 -0.43920705
-0.004898508 0.04562239 -0.009728079 -0.12393571 0.013515715 0.12384259 0.053399354 0.10595061
-0.05071743 -0.0881496 -0.077044055 -0.16888228 0.03220064 -0.15903193 0.17544758 -0.020111907
-0.1277442 -0.13287278 -0.0073991236 0.0026099877 0.31081846 -0.04005056 0.035834666 -0.123147205
0.10406309 -0.024614679 -0.019638875 0.14241052 -0.027632762 0.03331829 -0.0562583 -0.25140443
0.03913423 0.053298216 0.052185964 0.05443385 0.083720446 -0.10239538 0.1909636 0.09515484
-0.056694563 0.30067503 -0.19086747 -0.0030355449 0.15813541 -0.07887941 -0.05881418 -0.022431416
-0.057948537 -0.060336296 -0.042380888 0.053922825 0.106457815 -0.08606265 -0.01540877 -0.06708762
0.24435194 0.028781721 -0.13382152 -0.0033005914 -0.010179979 -0.055738587 0.035260513 -0.06399644
-0.17836617 0.082886435 0.078716606 -0.05307188 -0.19109778 0.018213598 0.14990786 -0.04370828
0.012427954 0.084867656 -0.31025982 0.06591029 -0.05074406 -0.118539244 0.42475298 0.5115626
-0.22803114 0.20689137 0.18229659 -0.19544351 -0.023284653 0.034711335 0.103098966 0.12283468
-0.0461019 -0.071325295 0.02203203 0.15135832 0.060396917 -0.001410493 0.042009313 -0.22453287
0.28680593 0.35637864 -0.2529821 0.063508056 0.405904 -0.51023954 -0.017341899 -0.19308697
-0.07247791 -0.020256773 0.07090536 -0.10787641 -0.34132484 -0.64550215 0.035203498 -0.5358399
-0.56734014 -0.08172431 -0.32900506 -0.60446125 0.003496969 0.049538095 -0.06823577 -0.21064891
0.076420605 -0.010054603 0.090941064 0.07093262 -0.17164661 -0.3570086 0.027913148 -0.26594
0.023264132 0.19032258 0.2907818 -0.25429076 0.14261231 -0.26276588 0.14342028 0.18535773
00000000: c2a1 873d 2c50 22be efa7 f73d 3288 02bc
00000010: e246 72bd 0a8f b93b b55a 92bd 9b01 043e
00000020: 450b 453e 40bc 07be d051 b43d 2f1c 763e
00000030: 0b31 69bd 77c1 46be d805 fb3b 689d 283d
00000040: 2968 52bd 62cf 3cbc 752f 673d a22f 853a
00000050: 118e 7e3e 1fde 863d 2940 8d3e 0493 8fbd
00000060: 399a a5bd 45a7 4e3d 106a 3c3e a736 8d3d
00000070: 0496 83bd 51d4 be3e 685c af3b 1e14 7ebc
00000080: 4892 d33d d0ce dc3d c41f 543e 90c8 97bd
00000090: 0dd4 90bb ac76 063d 2faf 67be 8980 c03c
000000a0: 64a6 4dbd 5a2a 91be 4a8f f63d b5d4 823d
000000b0: 77a0 a1bd 936e f73d e487 c73e 6e62 623c
000000c0: 0352 333e 6c71 ccbb 6f97 67be 504b 083e
000000d0: 693d c4bd dd8e 0bbe a858 88bd fac7 f4bc
000000e0: 113c b0bd b277 a4bd a98f 86bb bac5 243e
000000f0: 41d6 0abe 4c70 b33c 8301 c13e 358e 1cbc
00000100: 95cc abbd 3641 413e 55d9 35bc 6aba aebd
00000110: c97a b63c deb5 353d 0aa0 353d ca90 9ebc
00000120: 449b d63d e98c 8e3c 9a8f 593c 5435 9b3b
00000130: 8645 a0bc 73d1 983e c729 eabc 4ff8 2b3c
00000140: 8207 4cbe ebe6 4bbe 023e 88be 2116 afbd
00000150: 42f1 c33d b645 413e 3296 4abd 2d81 253c
00000160: 936f fc3a 52b9 0f3d 9cf6 923c e5c8 773d
00000170: 3bdc 3a3d 4c3b 57bd f73a 833d 56b1 19bd
00000180: 0e3d b53d 0a1f 6c3e 9fe2 d9bd 092a 96bc
00000190: 2dd5 f0bd 4046 ef3b c0ac f5bd 101a 0ebe
000001a0: 5050 853e 08ef d23b da16 efbc 9617 03bd
000001b0: 533d be3d a956 d53d ddf4 56bd 5d9a 943d
000001c0: 42d9 48bc 3d5b 7b3d 3ca9 e93c 8ae5 ef3d
000001d0: e5f1 e2bc f4b4 903d 4bd8 febc bfdf e0be
000001e0: aa83 a0bb 8bde 3a3d 8562 1fbc 01d2 fdbd
000001f0: 0471 5d3c 2fa1 fd3d 48b9 5a3d a2fc d83d
00000200: 14bd 4fbd c787 b4bd 46c9 9dbd 7aef 2cbe
00000210: d1e4 033d 44d9 22be 88a8 333e bac1 a4bc
00000220: 60cf 02be cd0f 08be 5974 f2bb 540c 2b3b
00000230: 9923 9f3e 0e0c 24bd 5fc7 123d 9a34 fcbd
00000240: 081f d53d b9a4 c9bc b5e1 a0bc 10d4 113e
00000250: 1a5e e2bc c278 083d 1a6f 66bd 15b8 80be
00000260: 374b 203d 3b4f 5a3d f3c0 553d 07f6 5e3d
00000270: a075 ab3d abb4 d1bd f68b 433e 8ae0 c23d
00000280: 8f38 68bd 14f2 993e c372 43be feef 46bb
00000290: 40ee 213e 878b a1bd 23e7 70bd 17c2 b7bc
000002a0: 725b 6dbd 3123 77bd 9597 2dbd 2ede 5c3d
000002b0: 8e06 da3d 9d41 b0bd 1175 7cbc 3c65 89bd
000002c0: 6537 7a3e a5c7 eb3c 8208 09be bc4e 58bb
000002d0: edc9 26bc 254e 64bd 546d 103d 9110 83bd
000002e0: 9fa5 36be 5dc0 a93d 2c36 a13d e661 59bd
000002f0: 23af 43be af34 953c 7281 193e 7407 33bd
00000300: 9e9e 4b3c 18cf ad3d 60da 9ebe f9fb 863d
00000310: 01d9 4fbd b4c4 f2bd 3979 d93e c4f5 023f
00000320: ff80 69be 55db 533e f5ab 3a3e 5822 48be
00000330: 75bf bebc 792d 0e3d 8d25 d33d c090 fb3d
00000340: 59d5 3cbd ff12 92bd 847c b43c adfd 1a3e
00000350: c262 773d 4be0 b8ba f511 2c3d f2eb 65be
00000360: 3ad8 923e 4377 b63e df86 81be 8310 823d
00000370: a6d2 cf3e 0f9f 02bf 9910 8ebc 97b8 45be
00000380: 4c6f 94bd 88f1 a5bc d436 913d 4fee dcbd
00000390: 21c2 aebe a13f 25bf 8b31 103d ce2c 09bf
000003a0: 343d 11bf 135f a7bd 5a73 a8be f9bd 1abf
000003b0: 672d 653b 75e8 4a3d 32bf 8bbd 59b4 57be
000003c0: 6882 9c3d 10bc 24bc 4f3f ba3d 1f45 913d
000003d0: 21c4 2fbe d5c9 b6be 1daa e43c 4a29 88be
000003e0: 6c94 be3c ece3 423e 5ae1 943e 6632 82be
000003f0: f608 123e 4089 86be c4dc 123e 6bce 3d3e

rnn.weight_hh_l0_reverse f4 [192, 64]
-0.034372486 0.024002448 -0.20306641 0.13057877 0.13803631 0.08963167 -0.14985739 -0.17088643
-0.19781405 -0.21486394 0.011513706 -0.1763061 -0.10257527 -0.04727166 0.0032685418 -0.13900745
-0.10923535 -0.13992675 0.17848903 0.22900665 0.12493722 0.052248534 0.028604526 0.09489994
-0.14326413 0.24823995 -0.12930897 -0.10825016 -0.17129907 0.00026034756 0.06337826 0.04866587
0.17104599 0.036027595 -0.19186944 -0.06711783 0.12118658 -0.009587518 -0.1345676 -0.17561589
0.082350515 -0.15168594 0.17017792 -0.046902366 -0.027378602 0.10627048 -0.09783625 0.06993049
0.0131453145 0.06561121 0.002910786 0.052775085 0.1183808 0.15422986 0.15306057 -0.0034578305
-0.010196737 0.0843338 0.12378908 0.103622586 0.085782655 0.02751686 -0.026780088 -0.13494484
-0.07610438 -0.05108302 0.1995587 -0.10411161 -0.004724267 -0.02544117 -0.07489353 0.0054565095
0.12003862 0.013290142 -0.0013306178 0.008008841 0.15135309 0.15273522 -0.20507602 0.024634967
-0.03275832 0.04568151 -0.06638326 -0.119896255 0.047592647 -0.08411113 -0.0071160584 0.042805236
-0.03984415 -0.14422633 -0.018847903 0.037557386 0.01067177 0.05581766 -0.08331256 0.0076093897
-0.0034741533 -0.0121859955 0.068096995 -0.00020778079 -0.057293855 -0.01948167 0.0345003 0.0005104249
-0.040469162 0.060726125 -0.0041121356 -0.061166298 0.0068706363 0.019550709 -0.05702226 -0.16296624
-0.018803554 -0.0069345348 -0.10405328 -0.06376905 0.08925239 0.014694717 -0.055894107 -0.0052587655
0.018400187 0.02614755 -0.03639894 0.006803628 -0.03529733 0.013721257 0.04195365 -0.009691008
0.2024442 0.12625766 0.45840243 -0.41499007 0.1136613 0.14928736 0.10623664 -0.010918345
0.43654713 0.28379405 0.21796016 -0.07296153 -0.19500463 -0.11415982 0.007050527 -0.028602093
-0.19527291 0.046584647 0.21051504 -0.41275278 -0.003254331 -0.3038114 0.118060976 -0.08139032
0.06713929 -0.42349514 -0.11118584 -0.11234646 0.0061933114 -0.09736995 0.15848441 0.2112479
0.077736445 0.14734308 0.40332505 -0.13539913 -0.05481792 0.08238181 0.05651968 -0.016245557
0.15903722 0.45605716 -0.025531616 0.070644364 -0.19152816 0.15663362 0.04525183 0.23592097
0.15247357 0.19937356 0.3352233 -0.09863356 0.19999668 -0.3086398 -0.3560496 0.31720307
-0.07389763 0.24780604 -0.30977574 0.18944195 0.17257355 -0.36772916 -0.030992547 0.07707657
0.048960667 0.025889939 0.41203964 -0.28460366 0.022148786 0.030316642 0.09757478 0.14722575
0.29249123 0.2689348 -0.0059431344 0.10967892 0.07327695 0.0031188205 -0.33333552 0.15893161
-0.045676548 0.21161665 -0.07740586 -0.238018 -0.1478169 -0.18563497 0.13047059 -0.13429643
0.19130358 -0.30647472 0.01713375 -0.0015140988 0.16653699 -0.023256984 -0.246951 -0.033446893
-0.11098361 0.18469971 0.30456644 -0.04991932 -0.22494537 0.15876742 0.18450065 0.088697925
0.043445885 0.18878439 -0.13761857 -0.0170157 0.026668176 0.012706587 0.007849958 -0.04689388
0.21846151 0.031919014 0.056834813 -0.26998597 0.068378754 -0.1906711 -0.45042506 0.048449267
-0.051508382 0.024650844 -0.13899 0.02826776 0.06288108 -0.11403098 0.23974301 0.21006964
00000000: 2aca 0cbd c8a0 c43c a4f0 4fbe 71b6 053e
00000010: 6459 0d3e cf90 b73d 3774 19be dafc 2ebe
00000020: c48f 4abe 4b05 5cbe fca3 3c3c 9689 34be
00000030: fc12 d2bd ee9f 41bd 0835 563b f857 0ebe
00000040: c8b6 dfbd f548 0fbe d4c5 363e b880 6a3e
00000050: 16df ff3d 8f02 563d 0a54 ea3c e65a c23d
00000060: d5b3 12be 9d32 7e3e 9269 04be 43b2 ddbd
00000070: 0669 2fbe 427f 8839 76cc 813d dd55 473d
00000080: ae26 2f3e ac91 133d 6c79 44be 1375 89bd
00000090: ab30 f83d f714 1dbc 17cc 09be a7d4 33be
000000a0: 63a7 a83d 8f53 1bbe 1f43 2e3e b21c 40bd
000000b0: 1749 e0bc 56a4 d93d 5f5e c8bd b737 8f3d
000000c0: 725f 573c 2c5f 863d e3c2 3e3b b02a 583d
000000d0: a271 f23d 6fee 1d3e e9bb 1c3e c59c 62bb
000000e0: 3710 27bc 33b7 ac3d 2185 fd3d 1438 d43d
000000f0: d1ae af3d 0a6b e13c ea61 dbbc fb2e 0abe
00000100: 9ddc 9bbd 6e3c 51bd 1e59 4c3e 7838 d5bd
00000110: 06ce 9abb 006a d0bc c761 99bd 85cc b23b
00000120: cfd6 f53d e5be 593c 2068 aeba 8437 033c
00000130: 4efc 1a3e 9f66 1c3e 73ff 51be 45cf c93c
00000140: 972d 06bd 891c 3b3d f2f3 87bd 2b8c f5bd
00000150: 82f0 423d 7542 acbd d32d e9bb 8b54 2f3d
00000160: 9f33 23bd 11b0 13be eb66 9abc c6d5 193d
00000170: a6d8 2e3c 0fa1 643d c79f aabd 3058 f93b
00000180: 9fae 63bb c5a7 47bc 7076 8b3d bbdf 59b9
00000190: f6ac 6abd 0698 9fbc 3050 0d3d 09ce 053a
000001a0: fec2 25bd f5bb 783d 18bf 86bb 8389 7abd
000001b0: 1323 e13b cf28 a03c 2c90 69bd 9fe0 26be
000001c0: e909 9abc 183b e3bb e319 d5bd 5999 82bd
000001d0: f5c9 b63d 1cc2 703c 38f1 64bd b951 acbb
000001e0: fdbb 963c 6333 d63c 0e17 15bd f8f0 de3b
000001f0: ef93 10bd 20cf 603c 97d7 2b3d 09c7 1ebc
00000200: 884d 4f3e b049 013e b9b3 ea3e 9479 d4be
00000210: 41c7 e83d c9de 183e 9892 d93d dce2 32bc
00000220: 1b83 df3e 744d 913e f330 5f3e db6c 95bd
00000230: 4baf 47be a0cc e9bd 1b08 e73b f04e eabc
00000240: 9ff5 47be 8bcf 3e3d 4191 573e 5554 d3be
00000250: 9d46 55bb 2b8d 9bbe f4c9 f13d f8af a6bd
00000260: 5380 893d 5bd4 d8be 67b5 e3bd e715 e6bd
00000270: 43f1 ca3b e569 c7bd bd49 223e 5f51 583e
00000280: 4934 9f3d 1be1 163e 9f80 ce3e 12a6 0abe
00000290: c188 60bd cbb7 a83d 2e81 673d 6715 85bc
000002a0: a7da 223e 5380 e93e ae27 d1bc fead 903d
000002b0: f51f 44be 9064 203e fc59 393d 4495 713e
000002c0: 0822 1c3e 9528 4c3e 63a2 ab3e 6400 cabd
000002d0: eecb 4c3e 0906 9ebe 224c b6be 7168 a23e
000002e0: a457 97bd dec0 7d3e ed9a 9ebe 12fd 413e
000002f0: 1fb7 303e ff46 bcbe 15e4 fdbc 52da 9d3d
00000300: fb8a 483d 2317 d43c dcf6 d23e 92b7 91be
00000310: 5f71 b53c 9b5a f83c 49d5 c73d 59c2 163e
00000320: 69c1 953e d2b1 893e a0be c2bb 579f e03d
00000330: 3a12 963d 2065 4c3b f4aa aabe f8be 223e
00000340: 5517 3bbd 09b2 583e f786 9ebd feba 73be
00000350: 505d 17be 1817 3ebe 159a 053e 0185 09be
00000360: 16e5 433e 41ea 9cbe 145c 8c3c ba74 c6ba
00000370: ac88 2a3e 6e85 bebc b9e0 7cbe 9cff 08bd
00000380: 604b e3bd ec21 3d3e 22f0 9b3e 3378 4cbd
00000390: 1458 66be ed93 223e bded 3c3e 42a7 b53d
000003a0: 50f4 313d b250 413e e2eb 0cbe 8264 8bbc
000003b0: 3877 da3c 4a2f 503c 1c9d 003c cc13 40bd
000003c0: 60b4 5f3e 83bd 023d 9fcb 683d 9a3b 8abe
000003d0: 290a 8c3d 493f 43be 1d9e e6be bd72 463d
000003e0: 74fa 52bd 91f0 c93c 6553 0ebe ca91 e73c
000003f0: ccc7 803d 1389 e9bd 317f 753e 7f1c 573e

rnn.bias_ih_l0_reverse f4 [192]
-0.17729536 -1.5547985 0.04680046 0.12519091 -0.30095446 -1.870546 -0.6088357 -1.330564
0.003903061 -0.000927855 -0.0895687 -1.3823931 0.09913593 0.060427666 -0.16907403 -1.0801651
-0.28475645 -1.0394229 -0.08998849 0.06475124 -0.36641517 -0.07541739 -1.8318682 -2.114961
-1.8983791 0.03526919 -0.22778094 -1.1711986 -1.7226205 -1.7502466 -0.09562897 -0.10556587
-1.1324834 -0.7553659 -0.022508636 -1.1497638 -0.92149526 -0.604955 -1.9610085 -0.4098389
-2.0160022 0.04705997 -2.1401253 -0.8348916 -0.0793933 -0.34165153 -0.77852535 0.11373304
-1.8859713 -0.104269356 -0.08240197 -1.348763 -0.32967123 -0.021435922 -0.13995463 -0.121989086
-1.7793776 -0.10278251 0.058601197 -0.2706939 -1.6998432 -0.032702707 -0.32348475 -1.7670954
0.4489502 0.56062305 0.12622328 -0.050601974 0.49631578 0.5299921 0.68609047 0.5292883
0.08821491 0.21792771 0.27527806 0.34513733 0.11060664 0.13644011 0.36327 0.4576138
0.6255343 0.5691866 0.2294871 -0.0041503008 0.6557427 0.28419024 0.6126349 0.6093117
0.61950403 0.079390354 0.46710846 0.48092875 0.4602979 0.563053 0.2727225 0.33514965
0.31453568 0.69220984 0.17694966 0.5866257 0.6096374 0.6722654 0.54977345 0.68378884
0.3983557 0.0110993115 0.5548841 0.69352263 0.300287 0.5662625 0.65672404 0.02666257
0.6551077 0.41351932 0.20315008 0.6369552 0.62493706 0.19832149 0.26447812 0.21919312
0.60014343 0.3496985 0.035980325 0.6096552 0.5027952 0.12936759 0.71800935 0.62286735
-0.0062371725 0.0003946584 0.0066122212 -0.0042022704 -0.0011962549 0.0002754116 0.002856755 0.0007951007
0.004454685 0.014517103 0.0010800004 0.0006545309 0.0020092411 0.0083936555 0.0008168128 -0.0030067917
-0.0011758083 0.0011885732 -0.0040636435 -0.004435138 -0.0023404998 -0.0004695687 0.00033768854 -0.0015151335
0.0017106172 -0.007330997 0.00069137546 0.0008148317 -0.0029373078 0.0007930559 -0.002317331 -0.00015474761
-0.0007549941 -0.0016992656 -0.004248321 0.0007771478 0.00089878304 -0.0019390013 0.00043346325 -0.0032884402
-0.00018828944 0.001823526 -0.00062441174 -0.003364554 0.0027532259 -0.0019377818 0.0003253879 -0.012340846
0.0010783195 0.0075580613 -0.0062196897 -0.0003981813 -0.0038154817 0.007602319 0.0067310664 0.0030011793
-0.005282852 0.0023149047 -0.008685586 -0.0014365702 -0.0019969633 -0.0041330415 0.0010573532 0.005080734
00000000: ea8c 35be a303 c7bf d7b1 3f3d 0c32 003e
00000010: b416 9abe 0d6e efbf a8dc 1bbf ec4f aabf
00000020: 7fca 7f3b 4c3b 73ba cb6f b7bd 42f2 b0bf
00000030: c707 cb3d 0083 773d be21 2dbe da42 8abf
00000040: 99cb 91be cf0b 85bf e34b b8bd 4c9c 843d
00000050: c59a bbbe 6f74 9abd a87a eabf 855b 07c0
00000060: 16fe f2bf 6d76 103d 683f 69be d6e9 95bf
00000070: d47e dcbf 1508 e0bf 1fd9 c3bd eb32 d8bd
00000080: 37f5 90bf a95f 41bf 0864 b8bc 762b 93bf
00000090: 1de7 6bbf 55de 1abf 5402 fbbf 68d6 d1be
000000a0: 2e06 01c0 f5c1 403d d0f7 08c0 75bb 55bf
000000b0: f498 a2bd f3ec aebe 704d 47bf deec e83d
000000c0: 8267 f1bf 2c8b d5bd 5dc2 a8bd 44a4 acbf
000000d0: abca a8be 639a afbc 4450 0fbe 6ad5 f9bd
000000e0: a5c2 e3bf a37f d2bd cf07 703d 6498 8abe
000000f0: 7694 d9bf 46f3 05bd cb9f a5be 2f30 e2bf
00000100: cddc e53e fe84 0f3f ad40 013e 0444 4fbd
00000110: 1a1d fe3e 90ad 073f a0a3 2f3f 707f 073f
00000120: 05aa b43d 7128 5f3e 3ff1 8c3e d7b5 b03e
00000130: bc85 e23d f5b6 0b3e 87fe b93e 5b4c ea3e
00000140: 0423 203f 37b6 113f abfe 6a3e 3fff 87bb
00000150: c1de 273f 6281 913e a4d5 1c3f dafb 1b3f
00000160: d197 1e3f 6997 a23d d728 ef3e 4b3c f63e
00000170: 2bac eb3e 3e24 103f 49a2 8b3e bc98 ab3e
00000180: d20a a13e aa34 313f 4b32 353e 1a2d 163f
00000190: 3211 1c3f 9619 2c3f f4bd 0c3f c90c 2f3f
000001a0: 47f5 cb3e e3d9 353c e20c 0e3f b38a 313f
000001b0: 38bf 993e 94f6 103f 111f 283f 766b da3c
000001c0: 23b5 273f ceb8 d33e 9306 503e 7f0f 233f
000001d0: e0fb 1f3f ca14 4b3e ad69 873e 2974 603e
000001e0: 00a3 193f af0b b33e 1b60 133d 5d12 1c3f
000001f0: 30b7 003f f078 043e 76cf 373f 3c74 1f3f
00000200: 3261 ccbb 27ea ce39 55ab d83b 33b3 89bb
00000210: a7cb 9cba 1f65 9039 6538 3b3b 4e6e 503a
00000220: 9bf8 913b 25d9 6d3c cd8e 8d3a d394 2b3a
00000230: 79ad 033b 8b85 093c 611f 563a 980d 45bb
00000240: 941d 9aba e6c9 9b3a 5028 85bb a254 91bb
00000250: 1263 19bb 7230 f6b9 ca0b b139 7297 c6ba
00000260: ca36 e03a dc38 f0bb 6c3d 353a 6e9a 553a
00000270: d97f 40bb 15e5 4f3a 5dde 17bb bf43 22b9
00000280: ccea 45ba e4b9 deba 8035 8bbb 82b9 4b3a
00000290: 4f9c 6b3a 1626 feba 7442 e339 df82 57bb
000002a0: 906f 45b9 6103 ef3a 90af 23ba d97f 5cbb
000002b0: 776f 343b 2bfd fdba d398 aa39 4231 4abc
000002c0: 6656 8d3a 9da9 f73b 8ace cbbb fdc2 d0b9
000002d0: 290d 7abb e01c f93b 4790 dc3b 6faf 443b
000002e0: c61b adbb a8b5 173b fd4d 0ebc 4c4b bcba
000002f0: 7cdf 02bb 776e 87bb e396 8a3a 497c a63b

rnn.bias_hh_l0_reverse f4 [192]
-0.16667852 -1.5602324 0.047549196 0.1355884 -0.3072524 -1.8638656 -0.6214872 -1.3394892
0.018245135 0.018025313 -0.07740475 -1.3919938 0.09767392 0.073358096 -0.17408846 -1.0816687
-0.27791265 -1.0262587 -0.08564798 0.05989614 -0.35856694 -0.07126516 -1.828864 -2.1257768
-1.9059532 0.026186341 -0.22879255 -1.1761322 -1.717475 -1.7597126 -0.09619314 -0.1248283
-1.1422782 -0.77316654 -0.02736645 -1.1487422 -0.9188339 -0.59361506 -1.9693352 -0.40857822
-2.0292623 0.046732318 -2.1429899 -0.84736556 -0.07109497 -0.32378697 -0.7748049 0.11557557
-1.88369 -0.09673341 -0.08008984 -1.3530142 -0.34158814 -0.01041202 -0.1368023 -0.12912919
-1.7710989 -0.09967225 0.059433855 -0.2677682 -1.7001936 -0.025298879 -0.3270848 -1.7515626
0.4398232 0.5587384 0.1129484 -0.04287398 0.49573788 0.5301613 0.68890315 0.5341719
0.085574344 0.20632453 0.27113497 0.35297242 0.12187901 0.14006001 0.34605256 0.46635482
0.6372931 0.56851655 0.24574415 0.0023907998 0.65829384 0.2913338 0.6258155 0.59177166
0.61366355 0.08176616 0.46793947 0.48537412 0.47921962 0.557014 0.27528325 0.33748144
0.3132165 0.6893475 0.17337665 0.59578294 0.5975589 0.6733006 0.5626695 0.68739337
0.40464398 0.011545524 0.5458572 0.67894185 0.28965592 0.572831 0.6640283 0.011546599
0.64376783 0.40141097 0.19763455 0.6340409 0.6333912 0.19302541 0.26925644 0.19747178
0.60299253 0.34488213 0.022544809 0.6174092 0.49134025 0.12633331 0.7158709 0.640072
-0.0036896253 0.0014336164 -0.02871378 0.008327848 0.00016450352 0.00025356616 -0.0067681572 0.0037288559
-0.016565468 -0.011548306 -0.012028932 0.0023315023 0.00085560005 -0.004600272 0.0020881123 0.0059358343
0.008811126 -0.0032438184 -0.006404454 0.013096552 0.010602699 0.004148743 3.1117328e-05 -0.0012685995
0.00046003176 0.010826672 0.008896091 -0.009000417 -0.00042397162 0.00081513537 -0.00080989086 -0.00189113
-0.0056722225 0.005382136 -0.00647565 0.00044794718 -0.0043638526 0.0069059115 0.00055829046 0.011018325
0.0008622973 -0.014163522 -0.0011574012 0.0052349977 -0.0080260215 0.0006894893 -0.0031777802 0.00414069
0.00048794184 -0.0062767016 0.013007477 -0.0019676075 0.010977972 0.019923938 0.020486653 0.001943396
-0.005502826 -0.008143894 -0.002460155 0.009147499 -0.0006258044 0.006344256 -0.002541824 0.0059741153
00000000: c6ad 2abe b2b5 c7bf f2c2 423d afd7 0a3e
00000010: 3050 9dbe 2693 eebf c919 1fbf 6274 abbf
00000020: d276 953c d2a9 933c 6286 9ebd da2c b2bf
00000030: 4409 c83d c53c 963d 3f44 32be 1f74 8abf
00000040: 914a 8ebe 725c 83bf 3568 afbd a855 753d
00000050: 1696 b7be 78f3 91bd 3718 eabf ba0c 08c0
00000060: 46f6 f3bf bd84 d63c 9848 6abe 808b 96bf
00000070: 39d6 dbbf 433e e1bf e900 c5bd fba5 ffbd
00000080: 2c36 92bf 3eee 45bf 9b2f e0bc fc09 93bf
00000090: b338 6bbf 28f7 17bf 2d13 fcbf 2a31 d1be
000000a0: 6fdf 01c0 636a 3f3d bf26 09c0 f3ec 58bf
000000b0: 3d9a 91bd 68c7 a5be 9d59 46bf e2b2 ec3d
000000c0: c11c f1bf 2b1c c6bd 2406 a4bd 922f adbf
000000d0: a4e4 aebe 2d97 2abc e715 0cbe 713a 04be
000000e0: 5eb3 e2bf f720 ccbd ea70 733d ea18 89be
000000f0: f29f d9bf 983f cfbc a977 a7be 3433 e0bf
00000100: 8230 e13e 7b09 0f3f 7e51 e73d a09c 2fbd
00000110: 5bd1 fd3e a7b8 073f f55b 303f 7dbf 083f
00000120: 9a41 af3d bd46 533e 34d2 8a3e cdb8 b43e
00000130: b49b f93d e46b 0f3e cd2d b13e 0fc6 ee3e
00000140: a425 233f 4d8a 113f 5ba4 7b3e f7ae 1c3b
00000150: f285 283f b429 953e 7235 203f 597e 173f
00000160: 0e19 1d3f 0475 a73d c395 ef3e f582 f83e
00000170: 465c f53e 7898 0e3f edf1 8c3e 5eca ac3e
00000180: ea5d a03e 1479 303f a689 313e 3b85 183f
00000190: 9ff9 183f 6e5d 2c3f 1c0b 103f 03f9 2f3f
000001a0: 7f2d cf3e 7029 3d3c 4cbd 0b3f 22cf 2d3f
000001b0: c84d 943e 0da5 123f c2fd 293f f22d 3d3c
000001c0: f8cd 243f bd85 cd3e b660 4a3e 8150 223f
000001d0: ed25 223f 74a8 453e fbdb 893e 0b36 4a3e
000001e0: b85d 1a3f 6494 b03e e4af b83c 880e 1e3f
000001f0: f390 fb3e 855d 013e 5143 373f c2db 233f
00000200: a4cd 71bb 2fe8 bb3a 2939 ebbc 8771 083c
00000210: 947e 2c39 13f1 8439 6bc7 ddbb d25f 743b
00000220: 4eb4 87bc 1b35 3dbc ff14 45bc 1ecc 183b
00000230: 594a 603a e1bd 96bb b6d8 083b 6381 c23b
00000240: 8b5c 103c 3e96 54bb 74dc d1bb ec92 563c
00000250: f1b6 2d3c 2ef2 873b fa83 0238 2347 a6ba
00000260: 6b30 f139 5b62 313c e9c0 113c 7c76 13bc
00000270: 8248 deb9 cfae 553a db4e 54ba cbdf f7ba
00000280: 0dde b9bb a15c b03b b031 d4bb 74da ea39
00000290: a6fe 8ebb fc4a e23b 3d5a 123a 3486 343c
000002a0: cb0b 623a 1e0e 68bc f1b3 97ba 588a ab3b
000002b0: 937f 03bc d8be 343a 4e42 50bb a0ae 873b
000002c0: 72d2 ff39 caac cdbb 501d 553c faf2 00bb
000002d0: f4dc 333c 8737 a33c a0d3 a73c 8db9 fe3a
000002e0: 0d51 b4bb f86d 05bc 8d3a 21bb 64df 153c
000002f0: 060d 24ba 7ae3 cf3b bb94 26bb 83c2 c33b

rnn.weight_ih_l1 f4 [192, 128]
0.14126961 -0.012150247 0.10644804 -0.329899 0.03214391 0.24203105 -0.43709567 0.20153426
-0.020533532 0.12831916 -0.13403323 -0.14590108 -0.11092216 0.17280293 -0.33066538 0.09580061
-0.1881334 0.1796101 0.21021265 0.13574752 0.11531578 0.021208966 -0.09202018 -0.148215
-0.08533364 -0.19768557 0.162971 -0.07428375 0.018437652 0.13856651 0.13896751 -0.04898694
0.0134471655 0.23302123 0.03903602 0.069790035 0.13275939 -0.0074772383 -0.014429918 0.17668706
0.4635709 0.1462419 -0.08872444 -0.07631658 0.15069106 0.2147686 -0.025356488 -0.039246414
0.135033 0.041664634 -0.16469288 0.08783359 -0.12430623 0.12475408 -0.09106105 0.15001212
-0.25524452 0.21708341 0.21307169 -0.12964162 -0.07081291 0.12838812 -0.07547949 -0.107064106
0.28472176 0.14280537 0.2652897 -0.3911761 0.17928547 0.14454201 0.11179883 -0.23763505
0.0050292443 0.016328622 -0.06603458 -0.33681053 -0.19474657 -0.17651086 -0.09558523 -0.27386218
-0.041151926 -0.26572922 -0.09179162 0.034952413 -0.017638275 -0.05855259 -0.010417095 0.027000835
-0.08381516 -0.072880335 -0.20812434 -0.15754032 -0.23903234 -0.1790812 -0.20506062 0.061885856
0.3284163 0.053620685 0.3208184 -0.051751506 0.35737336 -0.012837571 -0.095108025 -0.14909273
0.20282638 -0.032321554 0.16416037 0.057106905 -0.008025956 0.08090157 0.06969106 0.14413048
-0.048011858 0.27368358 0.017496482 0.21850142 -0.20153165 -0.005914973 -0.08866915 -0.21461853
-0.0020072043 0.04073984 -0.105196275 0.061362937 0.1821536 -0.03639442 -0.1530058 -0.08782858
0.03395109 0.14649758 -0.21526402 -0.108131655 -0.11572598 -0.03190834 0.085810564 -0.0082480395
0.24404052 -0.20826401 0.23691109 -0.056211088 0.09044144 -0.13428703 -0.22968096 -0.1333749
0.23432398 -0.018706176 0.020012584 -0.3983295 -0.16073355 0.21250302 -0.32192886 0.10387348
-0.02769053 0.10783732 0.06888361 -0.27849936 -0.17184302 -0.038487308 0.03881522 -0.22187066
0.03040493 0.117740855 -0.15845743 0.069709845 -0.11352301 0.23243095 -0.3130365 -0.20223805
0.09576987 -0.09409151 0.1911865 -0.43717316 0.02788639 -0.06862145 0.26153502 0.023874234
-0.053675424 0.019498937 0.13070603 -0.10316183 0.075266704 0.028868893 0.1784733 0.32007664
0.09371374 -0.11239983 0.03157899 -0.028052999 0.13585933 -0.103640184 0.16933125 -0.0038558242
0.14916551 0.17648427 0.64321154 -0.41518095 0.020329865 0.26951757 0.13903253 -0.10434818
0.32189324 0.21045397 0.18850532 -0.16516437 -0.026195532 -0.33483058 0.015712902 -0.11367769
-0.13373826 -0.10009075 0.2750773 -0.30602267 -0.00973154 -0.19414333 -0.04518014 0.15004246
-0.17716675 -0.47353074 -0.12055964 -0.18608369 0.026126659 -0.08825123 0.08432013 0.115701556
0.01882923 -0.08413486 0.26388907 -0.09841546 0.043736573 -0.072712794 -0.1420934 -0.18102372
0.18508609 0.32066637 0.1177333 0.15136641 -0.12707816 0.13614981 0.06930589 0.13637996
-0.18719877 0.09259454 0.24491625 0.14056438 -0.003895905 -0.21889657 -0.21286033 0.29105538
0.005357352 0.13734673 -0.24203698 0.0163534 0.13216895 -0.2724364 -0.104325905 -0.21042031
00000000: fba8 103e d411 47bc 6e01 da3d 86e8 a8be
00000010: 55a9 033d fdd6 773e 01cb dfbe ff5e 4e3e
00000020: f035 a8bc 1966 033e 0240 09be 1867 15be
00000030: 282b e3bd 40f3 303e f94c a9be 1c33 c43d
00000040: 0ba6 40be b6eb 373e fc41 573e 6601 0b3e
00000050: ae2a ec3d 6dbe ad3c 1375 bcbd acc5 17be
00000060: 67c3 aebd 166e 4abe dfe1 263e 1422 98bd
00000070: 8f0a 973c 61e4 0d3e 804d 0e3e 88a6 48bd
00000080: 8051 5c3c 1e9d 6e3e 3ce4 1f3d 14ee 8e3d
00000090: 14f2 073e 9f03 f5bb 766b 6cbc 74ed 343e
000000a0: 2a59 ed3e 70c0 153e 29b5 b5bd de4b 9cbd
000000b0: c24e 1a3e 4dec 5b3e 69b8 cfbc d9c0 20bd
000000c0: 1746 0a3e 89a8 2a3d 40a5 28be 19e2 b33d
000000d0: 4494 febd 117f ff3d 377e babd c79c 193e
000000e0: 69af 82be 1d4b 5e3e 772f 5a3e c6c0 04be
000000f0: 5c06 91bd 2d78 033e fe94 9abd 6d44 dbbd
00000100: 0dc7 913e 923b 123e 0dd4 873e 3c48 c8be
00000110: 9c96 373e d202 143e c9f6 e43d 9a56 73be
00000120: 5ccc a43b 9ac3 853c 233d 87bd 6e72 acbe
00000130: a56b 47be 43bf 34be 30c2 c3bd aa37 8cbe
00000140: ec8e 28bd a90d 88be 3ffd bbbd 432a 0f3d
00000150: 257e 90bc d7d4 6fbd 77ac 2abc db30 dd3c
00000160: 48a7 abbd 4942 95bd 8c1e 55be 4052 21be
00000170: e5c4 74be 1061 37be 69fb 51be 067c 7d3d
00000180: 2e26 a83e 5da1 5b3d 4f42 a43e 63f9 53bd
00000190: a4f9 b63e ad54 52bc ffc7 c2bd c4ab 18be
000001a0: b8b1 4f3e 9b63 04bd a819 283e eee8 693d
000001b0: 4d7f 03bc b9af a53d 30ba 8e3d f196 133e
000001c0: 15a8 44bd 4120 8c3e c854 8f3c d6be 5f3e
000001d0: 505e 4ebe 64d2 c1bb 2c98 b5bd f6c4 5bbe
000001e0: 4d8b 03bb d2de 263d 2571 d7bd b457 7b3d
000001f0: 7986 3a3e 5112 15bd 8dad 1cbe 78df b3bd
00000200: 4c10 0b3d 7603 163e 2c6e 5cbe 2174 ddbd
00000210: be01 edbd 52b2 02bd 73bd af3d c922 07bc
00000220: c2e5 793e 2943 55be d298 723e 993d 66bd
00000230: 5d39 b93d 8a82 09be 7c31 6bbe 6e93 08be
00000240: a0f2 6f3e b23d 99bc 6ef1 a33c d8f1 cbbe
00000250: 5697 24be 649a 593e dcd3 a4be 9ebb d43d
00000260: 40d7 e2bc d0d9 dc3d da12 8d3d 7897 8ebe
00000270: 9ef7 2fbe dea4 1dbd b5fc 1e3d 1032 63be
00000280: c213 f93c 1e22 f13d aa42 22be 09c4 8e3d
00000290: c07e e8bd 6102 6e3e 5246 a0be 7e17 4fbe
000002a0: fe22 c43d 0db3 c0bd 65c6 433e 29d5 dfbe
000002b0: 0072 e43c 6789 8cbd ebe7 853e e693 c33c
000002c0: c3da 5bbd 3cbc 9f3c cdd7 053e 8246 d3bd
000002d0: 6e25 9a3d 757e ec3c b4c1 363e 16e1 a33e
000002e0: fdec bf3d e231 e6bd f958 013d 67cf e5bc
000002f0: b51e 0b3e 4e41 d4bd 2c65 2d3e ffb1 7cbb
00000300: d8be 183e 4bb8 343e 83a9 243f 9992 d4be
00000310: d18a a63c 35fe 893e 8b5e 0e3e 80b4 d5bd
00000320: 31cf a43e 3f81 573e 8a07 413e d920 29be
00000330: 0398 d6bc ea6e abbe 58b8 803c d9cf e8bd
00000340: aff2 08be 61fc ccbd efd6 8c3e 01af 9cbe
00000350: 0a71 1fbc 82cd 46be cf0e 39bd bba4 193e
00000360: 336b 35be 9f72 f2be f9e7 f6bd b98c 3ebe
00000370: 9307 d63c 10bd b4bd 08b0 ac3d f0f4 ec3d
00000380: c23f 9a3c e64e acbd 781c 873e 0b8e c9bd
00000390: 1f25 333d 72ea 94bd ef80 11be 485e 39be
000003a0: 3587 3d3e 622e a43e 281e f13d ccff 1a3e
000003b0: c720 02be db6a 0b3e 3ff0 8d3d 30a7 0b3e
000003c0: 09b1 3fbe 35a2 bd3d 53cb 7a3e 1cf0 0f3e
000003d0: 7152 7fbb 6c26 60be 0ff8 59be 3605 953e
000003e0: ba8c af3b 9fa4 0c3e 8bd8 77be 91f7 853c
000003f0: 4c57 073e c97c 8bbe d2a8 d5bd 6c78 57be
