trained_models/gru_k4.pt (torch, 711447 bytes, 26 tensors)

rnn.weight_ih_l0 f4 [192, 3]
00000000: acc3 f0bd 5790 633c 33e3 aabd bf1c 60bd
00000010: bdd2 a3bc b106 3fbe 7fb4 04bd a071 083d
00000020: 4934 2dbe c262 383e b8f1 93be 2c74 863e
00000030: 54c1 1cbe df41 943d a3e8 013d 71b8 e9bd
00000040: 8111 19be 1b2c 643c db0a 8f3e 8592 5bbd
00000050: 9e5f fe3c 9752 edbd 186d 523c 047e b7bd
00000060: 80c2 79be 344b fabe 4574 9a3e 1295 bf3c
00000070: 6ec9 19bd 5867 d2bd e462 13be c7f0 0b3e
00000080: 9ca6 52be d2f5 e53d 0f39 36be 5d80 303e
00000090: 014a bcbd ae83 973d bd79 e7bd f98e 16bc
000000a0: 5037 d8bc 0c8f d7bd 5353 be3e 9904 9a3e
000000b0: 5e88 ae3e 4d71 0abe 5ff3 573d 2cd6 85be
000000c0: 60a1 463d f960 373d 51d6 9fbd 0668 50be
000000d0: c15b 5bbd 6912 1abd b4f9 53be 99d8 283e
000000e0: ce6e 3e3a 34b0 8a3c c5cb 0cbe 925d 51be
000000f0: e204 0ebd 6fa5 ed3a 3ab0 fbbd 4b9f cdbd
00000100: b7e5 0dbc a509 093d 1498 57bd 7a0e bb3b
00000110: ed26 2abc 8f2c eabd 4800 1abc 9d60 dabd
00000120: ca86 01be 792b 943c b702 1bbe 05ec 09be
00000130: 8ce0 923d 2947 26be aae1 f2bd d52e f2bc
00000140: 647e 173d 78fd 8fbd 8ab9 cfbc 28d3 d9bd
00000150: 4b29 fa3e f961 99be b9c6 9b3e 6745 febd
00000160: 7e82 ee3d 17a1 18bd a54b 16be 9135 e43c
00000170: 871b 07be 6e86 77bd 6c1c 0ebd 4f4c abbe
00000180: 3a83 9ebd b5c9 d3bd c845 33be 23cf 27be
00000190: 10a2 1b3e 8469 34be 96dd adbd a394 ffbc
000001a0: 50d2 26be 1502 55be c220 9e3d 560a 56be
000001b0: d6d4 a2bd f056 1a3d 703d f1bd 22f8 dabc
000001c0: 0100 8bbd 50f2 50be 881c 71bd 5314 8c3c
000001d0: f090 debd ad16 fd3c f084 97bc 3f72 73be
000001e0: 42b3 273c 2787 54bd 5131 a33e 5b3d 76bd
000001f0: 546b 84bd 5841 b63e 1c6e 89bc 180c c8bd
00000200: 90e0 72be 9f63 bdbd de80 553e a937 ccbd
00000210: 82be b4bd 1f62 b63d b695 5ebe 3ab2 a8bd
00000220: 8837 6f3d 6482 7abc d2a2 333d 8f45 503d
00000230: cecf dcbd 3ad2 3fbd f8d9 89be bbae ad3d
00000240: 7703 39be 2104 803c 947b b5bc 00d8 20be
00000250: e997 9b3d 2942 12be 1572 38be b91f 793d
00000260: 86ac 2a3c 022f 4cbd 810c 62ba ed1b 32be
00000270: 336f 02be f46d 553c 8f08 f3bd 66f7 9dbb
00000280: 03fe ba3c 2915 f8bc ec21 93bd c508 ccbc
00000290: 6b64 e83c 920c 94bd 85e7 813c e3dc fdbc
000002a0: 052a cbbd a6c6 853d f131 89be eaf2 6cbd
000002b0: a6cd eebc e255 48be 8466 e8bd d0f3 1ebd
000002c0: 08b3 abbd 0e2e cdbd 506d 023e e06f f2bd
000002d0: e796 e7bd 91f6 0dbe 4706 24be eef7 e2bd
000002e0: 8653 7a3d bd57 b4bd 87e0 84bd 4f7a d4bd
000002f0: 80dd 4bbe 152b 03be 0f95 94bd 18da 18be
00000300: 761e a3be 5c88 22bf 7bea ac3e 6351 19be
00000310: 3109 b2bd f404 9b3d 5cde 12be c607 913e
00000320: 4eb6 85bd 15b4 82be 667d cf3e 0a56 b0be
00000330: 4faf c5bd 499e 6e3e cb6f 503d e658 49bd
00000340: ffb0 36be 5ff2 873e a80c debd bd4e 8bbd
00000350: e78f 0dbe 61f3 1abe 66f9 913e 79e1 8c3a
00000360: 942e d7be 5a71 cdbe dd8b 75be 81f4 8a3e
00000370: 91e9 b9bc bc04 0bbe 95a8 bbbe 69ea caba
00000380: ea20 21bd 850d c7be 922d 953e 8405 6ebe
00000390: 3254 063e ee38 2bbe dee7 523e f345 12bd
000003a0: 18a0 853d 69b4 d73c 5a79 1e3d 5bd3 973e
000003b0: eeff cebd ae8f de3d a572 4d3d 7d65 fdbc
000003c0: 8a82 b43a 0081 e63d c7a6 a23c 7c62 243e
000003d0: 9a1f a2be b2ca aa3e 112c d2be 9c39 dd3e
000003e0: 2ddc 7c3e 76c8 193e cd1f 863e 0014 23be
000003f0: 6473 063e ed84 363e bac6 d2ba 58d3 ebbd
-0.117560714 0.013889394 -0.08344116 -0.054714914 -0.019997949 -0.18654896 -0.032398697 0.033311486
-0.16914476 0.18006423 -0.28895354 0.26260507 -0.15308124 0.072391264 0.031716 -0.114121325
-0.14948083 0.013926531 0.2793797 -0.05360653 0.031051453 -0.115880184 0.012843393 -0.089595824
-0.24390602 -0.488855 0.30166832 0.023386512 -0.037545614 -0.102736175 -0.14393193 0.13666068
-0.20571369 0.11228527 -0.17795204 0.17236467 -0.091938026 0.07398163 -0.113025166 -0.009189361
-0.026393563 -0.10525331 0.37172946 0.30081633 0.34088415 -0.13519783 0.05272233 -0.26139963
0.048493743 0.044770215 -0.078045495 -0.20352182 -0.0535543 -0.037615214 -0.20700723 0.16488875
0.0007264436 0.016929723 -0.13749607 -0.2044585 -0.034672625 0.0018130968 -0.12289472 -0.10040148
-0.008660725 0.033456463 -0.052635267 0.005708513 -0.010385257 -0.1143428 -0.009399481 -0.10662959
-0.12649074 0.018087136 -0.15137754 -0.1346894 0.07171735 -0.16238083 -0.11859448 -0.029563347
0.03698577 -0.07030767 -0.025357027 -0.10635978 0.4885963 -0.2995756 0.3042505 -0.12415581
0.11645983 -0.037263002 -0.14677294 0.027857574 -0.13194095 -0.060430937 -0.034695074 -0.33456656
-0.07739873 -0.10341207 -0.17507088 -0.1638761 0.1519854 -0.17618376 -0.0848953 -0.031198805
-0.16291165 -0.20801575 0.07721092 -0.2090238 -0.079507515 0.037680566 -0.117792964 -0.026729647
-0.0678711 -0.20404935 -0.0588651 0.017099535 -0.108674884 0.030894602 -0.018496007 -0.2377405
0.0102356095 -0.051886704 0.31873563 -0.060117107 -0.06465784 0.35596728 -0.016776137 -0.09767932
-0.23718476 -0.09247517 0.2084994 -0.09971554 -0.08825399 0.08905434 -0.21736798 -0.08237119
0.058402568 -0.015289877 0.04385645 0.050847586 -0.10781823 -0.046831347 -0.2692411 0.08480593
-0.18067728 0.015626969 -0.022153653 -0.15707397 0.07597334 -0.1428305 -0.18012269 0.06082127
0.010417109 -0.049849518 -0.0008623079 -0.17393465 -0.12737732 0.013026703 -0.11866867 -0.004820752
0.0228262 -0.030283527 -0.071842045 -0.024906525 0.028368196 -0.0722896 0.015857467 -0.030989116
-0.09920124 0.0653203 -0.26795915 -0.05784885 -0.029150795 -0.19564012 -0.11347678 -0.038806736
-0.08383757 -0.1001855 0.12737012 -0.11837745 -0.11308079 -0.13863589 -0.1601802 -0.11082445
0.06111481 -0.08805797 -0.06488138 -0.10374891 -0.19908714 -0.12809403 -0.07254993 -0.14926946
-0.31859177 -0.6348932 0.33772644 -0.14972453 -0.08693159 0.07569304 -0.14342636 0.28326243
-0.065289125 -0.25528017 0.4052536 -0.34440643 -0.09652578 0.23302568 0.050887864 -0.049157046
-0.17840956 0.26552102 -0.10842258 -0.068021275 -0.13824426 -0.15131904 0.28510588 0.0010748348
-0.42027724 -0.40125543 -0.23979135 0.27139667 -0.022694381 -0.13576025 -0.36652055 -0.0015481237
-0.03933803 -0.38877502 0.2913633 -0.23244292 0.13118055 -0.16720936 0.20596263 -0.03571124
0.06524676 0.026331143 0.03868995 0.2965344 -0.101074085 0.108672485 0.05015816 -0.030932182
0.0013771814 0.112550735 0.019854916 0.16053194 -0.31664735 0.3335777 -0.41049245 0.43208015
0.24693365 0.15017876 0.26196137 -0.15925598 0.13129956 0.17824145 -0.0016080954 -0.1151492

rnn.weight_hh_l0 f4 [192, 64]
00000000: 7ae5 833e e49c bf3c 75e8 57be f69a 32be
00000010: f64e e3bd f918 07be 4333 33be 1f1b 123d
00000020: a6c8 3cbe bdf2 afbd 4239 fbbd 3eb7 c8bd
00000030: 0bba 543c 040f 27be 6514 25be 49ab 19be
00000040: 7143 913d fbca fb3d a1dc 3cbd 4a79 8fbd
00000050: b7e3 d9bd 860e 7b3d 1aba 9f3c 5b2c bebc
00000060: 8c3c 29be 180b bbbd 28a6 803d 0f7d 8abd
00000070: cebd 413d 062d 03be 659e c03d c045 54bd
00000080: 1fea 3c3e d757 58bd 3ff3 41be 6627 eb3c
00000090: 30e7 ac3b a4e4 043c 0537 17be bd01 21be
000000a0: 8281 84bd 5bf0 46bd fca9 2e3e 7326 253c
000000b0: 6364 d8bc 95df dcbc 27a0 393d 0ecb b3bd
000000c0: 3912 fa3d eb21 c1bc 0de4 393d 5ca5 5cbd
000000d0: 9371 793d b1a4 f9bd 2b44 e93d 4389 4a3d
000000e0: 6f3d 613d 7d90 2abe 9dc4 ffbd 163f 913b
000000f0: 149f 653d 3dcb 14bd 40fb cb3c 6689 c6bd
00000100: d427 8d3e f74e 343d 3124 62bd a88d 9ebd
00000110: c4d2 eabb 2364 b6bd 55d2 49bd d576 59bd
00000120: c52f 02bc 3551 623d 5f25 953d 5b43 73bd
00000130: 783b 41bd 90af 1bbd cabe 6fbe 5005 6f3c
00000140: 5a0f 83bd ba2f 063e 5bda aa3c f5e1 1d3d
00000150: e7e4 b2b9 36ec 83bc 96aa 22bd a42a 063d
00000160: 48a3 21be 00d1 8cbd d12c ebbc c413 8fbd
00000170: 1b38 d43d 9ac1 9ebd 34fe d0bb 898a 703d
00000180: 7fa8 083e 0210 b6bd adf2 70bd 2b62 02bc
00000190: d7da 06bc 40da 7d3c ed05 8fbc 8f91 623d
000001a0: 9a2e 613d 99eb 23bd d7f3 433c b1bf e33d
000001b0: 4d20 dd3b 5e0f 5dbd 134b 68bd 51bc 8cbd
000001c0: ecf0 fbbc 50db e33c 421d e6bb d49d b43d
000001d0: d66e a83d c685 8c3c d551 a4bd fa93 763b
000001e0: eab0 41bd 2b00 fd3c 24d6 5a3a 648e 10bb
000001f0: 715b 8d3d dee4 cabd ed6e a7bc c478 7abe
00000200: 9cb8 5f3e 498e f93c 7106 77be da1b 503e
00000210: c801 09be 2881 a3bd ad38 d5bd 2f74 23be
00000220: 193b 67bd 3f5b 473d 4ca2 dd3d 3a9c 8a3e
00000230: 30cb 873b 15b9 15be 63bc d9bd 3399 88bd
00000240: 55b1 0a3d 6414 4fbd 0948 6bbe 04ea cabb
00000250: 8ad5 43bd e537 bb3c 11bd ebbd e340 f83c
00000260: dc83 45be 8340 5e3d 170b 783d 6a7f aabd
00000270: bbd4 993e 39c7 00be 9416 873c 622a 92bd
00000280: 50b4 4b3e 60a8 22be d598 10be eafc 1abe
00000290: 94e1 1bbd 65f3 d93d 4df0 63bd 45b5 263d
000002a0: bec0 4abd 393d 7cbd 68e7 e1bd 3ad2 e73d
000002b0: 3cc0 1bbe e6d6 1ebe 9965 8f3d d4ce 08be
000002c0: 504d e9bc 50c9 8dbd 314d fb3d 87dc 20bc
000002d0: 8fb3 9b3d d063 06be 883c d2bd e67f a13d
000002e0: 9a80 5e3d c714 55bd 43ca f4bd f40a 6b3d
000002f0: 76f9 c03c 7478 3bbe 1d4c 7a3d eefa 12be
00000300: 7d22 813e 450f 893e 6b9e 423e 51fd e3be
00000310: 8f62 463e 4eef 3ebd 8113 19be 7784 803e
00000320: 9a74 f5bd a312 a83d 4731 a4bd 0fe7 81be
00000330: dd96 9ebe a04d 303e d30c 92bd 45f2 723e
00000340: 2d8a 30bd 5234 933e 5d37 953e 6086 b2bd
00000350: e54f 4a3e e2f2 403e 3b00 51be f486 9abe
00000360: 5e66 5ebe d4f5 abbe 7b43 993e cf10 0bbd
00000370: 056d f1bd d6b1 463e dbd6 9f3e 2118 9abe
00000380: c2f2 99bd 05b0 61bd 3a58 103d 8366 9d3e
00000390: e8a6 b43e f87a be3d 4963 0b3d 4e16 7a3e
000003a0: aa78 54bd 0f0b 413e 009a c9bd 67b2 29be
000003b0: c4d9 903e 1fa1 823e 9662 973d a6ad 663e
000003c0: 6683 6c3e 17b7 9b3e 7233 a4be 5de0 863e
000003d0: 51f1 86be be7e 613e eee0 8e3d 4874 213e
000003e0: 849a b9be c0f7 8d3e 6438 8b3e c269 c4be
000003f0: 7be1 74bd 0181 973e 0904 2c3e 3083 8ebe
0.25761014 0.023390241 -0.21084769 -0.17441925 -0.11099045 -0.1319312 -0.17500024 0.035670396
-0.18435916 -0.085912205 -0.122667804 -0.09800576 0.012983809 -0.16314322 -0.16121061 -0.15006746
0.070929416 0.12294575 -0.046108846 -0.07005556 -0.10639136 0.061293148 0.01949792 -0.02321451
-0.16527003 -0.09132975 0.06281692 -0.06762134 0.047300152 -0.12810144 0.09405211 -0.05182433
0.18448685 -0.052818146 -0.18940447 0.02870531 0.005276583 0.008111153 -0.14767082 -0.1572332
-0.06470014 -0.048569065 0.17057031 0.010079968 -0.026415056 -0.026962081 0.04531875 -0.08778964
0.12210507 -0.023575744 0.0453835 -0.053868636 0.06089933 -0.121896155 0.11389955 0.04944731
0.05499023 -0.1665668 -0.12488673 0.0044325693 0.05605991 -0.036326636 0.024900079 -0.096941754
0.2756945 0.04402062 -0.055210296 -0.077418625 -0.0071662385 -0.08905818 -0.049272854 -0.053091843
-0.007945959 0.055253226 0.072825186 -0.059390407 -0.047175854 -0.038009226 -0.23412624 0.014588669
-0.063994125 0.13104144 0.020856073 0.038545568 -0.0003412135 -0.016103845 -0.039713465 0.03275551
-0.15784943 -0.06875801 -0.028707894 -0.06986192 0.10362264 -0.0775177 -0.0063779596 0.058725867
0.13345526 -0.08889772 -0.058825184 -0.007957975 -0.008230886 0.015493929 -0.01745888 0.055314597
0.054976083 -0.040019605 0.011959991 0.111205466 0.0067482353 -0.053969733 -0.05671222 -0.06871856
-0.030754529 0.027814537 -0.007022531 0.08819166 0.08224265 0.017153632 -0.08023421 0.0037624822
-0.04728786 0.03088387 0.00083479495 -0.0022057528 0.06902207 -0.09906934 -0.020438636 -0.24460131
0.21847767 0.030463355 -0.24123551 0.20323125 -0.13379586 -0.07983619 -0.10411201 -0.1596229
-0.056452844 0.048671003 0.10821971 0.27072316 0.004144095 -0.14621384 -0.10631635 -0.066698454
0.033860523 -0.050556555 -0.22976698 -0.0061924476 -0.04781107 0.022853801 -0.11510671 0.030304378
-0.19288582 0.054260742 0.06055745 -0.083250836 0.30045113 -0.12575997 0.016490258 -0.0713699
0.19893003 -0.15884542 -0.14120801 -0.15135542 -0.038056925 0.10642127 -0.05564909 0.040700216
-0.04950022 -0.061581824 -0.11030465 0.113193944 -0.1521005 -0.15511665 0.070018 -0.13360149
-0.028479248 -0.06923163 0.122705825 -0.009818203 0.076026075 -0.13124013 -0.10265452 0.07885723
0.054321863 -0.052021768 -0.11952641 0.057383493 0.023556452 -0.18307668 0.061107744 -0.14353535
0.25221625 0.26769462 0.19005744 -0.44529203 0.19373535 -0.046614937 -0.14948846 0.25101063
-0.119851306 0.0820668 -0.080172114 -0.25371596 -0.30974475 0.17217112 -0.07131352 0.23725231
-0.043100525 0.28750855 0.291438 -0.08717036 0.1975704 0.18842652 -0.20410244 -0.30181086
-0.21718737 -0.3358599 0.29934296 -0.033951577 -0.11788372 0.19403777 0.3121861 -0.30096534
-0.075170055 -0.055099506 0.03524039 0.30742273 0.3528359 0.09300798 0.034030233 0.24422571
-0.051872887 0.18851875 -0.09843826 -0.16571961 0.28291142 0.2551355 0.07391851 0.22527179
0.23097 0.30413124 -0.320705 0.2634305 -0.26355985 0.22021005 0.06976496 0.15767014
-0.362507 0.2772808 0.2719146 -0.38361937 -0.059785347 0.2959061 0.16798414 -0.27834463

rnn.bias_ih_l0 f4 [192]
00000000: 9146 473d 21e4 1e3d 3e2b d3bc e81a d2be
00000010: ad66 6cbd d021 21bd de46 ef3e 3bc9 22bc
00000020: 0066 4c3e e105 46bd 770f 0f3e 91e6 0dbf
00000030: a053 ea3a 5ba1 7dbd f160 c83e ef0e 69bd
00000040: 30ec c1bc d94f 8bbd b4b4 d63c ccf1 85bb
00000050: 220d 53bd 3ea1 f7bc 712c 113c 74ed 0dbc
00000060: 4186 eebb 83cf 44ba 880c 85bc 84fd 50bd
00000070: 0d14 8a3e 7a0c 893c 9cfc e03c 0983 303c
00000080: 6b8c 313b 9b7d d03d 51d6 14bd d1b2 873c
00000090: 28d4 ec3a fb5c a73c 7866 8ebc 2fa5 10bd
000000a0: 4ebe f23e b088 993e 56e8 1f3e e142 4d3d
000000b0: 4c15 7ebd 2478 fdbc af4d 77bc a494 3fbe
000000c0: c9dc 023d 7fae 41bb 8843 34bd ae07 87bd
000000d0: d620 70bd 7db2 08bd ab5a 073e 5127 88bc
000000e0: 0851 afbc b167 98bc 65f2 12bd 4b40 4abd
000000f0: 45b3 02bd 4535 b6bc d1e8 1c3c 61a5 6f3d
00000100: edb2 56bf fadf 7dbf 30b7 44bf b287 5f3f
00000110: e0b2 39bf d3ca bbbe 3202 073f 30b9 64bf
00000120: 876a 433f cff8 58bf f70c edbf 01f3 6e3f
00000130: 6f0d 75bf f4c0 53bf ec56 253f 289a 66bf
00000140: a596 81bf 51d4 d4be 77b9 1cbf 6e4b 85bf
00000150: 344c 5dbf eaf4 40bf 775a 7fbf 92d4 61bf
00000160: ac0e 59bf 94a8 79bf 5015 61bf 7a1c 33bf
00000170: 8af4 343f 1dfb 60bf c00f 88bf 65e4 8dbf
00000180: c1c5 61bf 00f8 aebf 254c 4dbf 04b2 58bf
00000190: 997e 84bf 1761 75bf c9a6 68bf 0520 7ebf
000001a0: 6cd3 f43e 779a 1c3f a77d 05c0 1699 a8bf
000001b0: ef24 35bf d004 48bf a067 72bf 5060 a83e
000001c0: c50e 9fbf e79c 60bf 935e 41bf 0175 5ebf
000001d0: f582 4abf f212 50bf c258 fbbf 7c04 36bf
000001e0: 1b8c 60bf a4c5 69bf 2827 37bf dca3 2dbf
000001f0: 7990 75bf 8046 75bf 8f04 82bf b782 7cbf
00000200: 8606 663c 687d 483b 6618 c1bb e325 66bb
00000210: 7922 5a3b 8034 f7ba ddf3 e1bb a5cd 2abc
00000220: 66e8 3bbc fdea 8a3b 3371 723b 1d98 243b
00000230: 1f48 a3bb aa64 08bc 7362 16bc d5fc 0d3c
00000240: e662 ed3b f75e d5bb 61c1 f8bb fa7c ed3b
00000250: e216 3a3b cad4 2bbb 6b84 1e3b 0b5e d33b
00000260: 758d 07bc 1aff c6ba 9135 d4bb 6cb6 003c
00000270: f19b 2b3c b2ab 30bb a53d d23a 88cc 003b
00000280: 4f8c 923b bf84 fdb9 eefe bebb 0619 c7bb
00000290: 4bff 61bb 9341 4e3a 809b 8fbb 4836 623a
000002a0: b662 f0ba 8ebb b6bb be27 1438 16c8 343a
000002b0: c76c 8abb a62e 23bc 3871 1f3c bd68 323b
000002c0: 0915 67bb bdb7 38bb 3d37 05b8 8855 57ba
000002d0: fdc6 013a 5187 47bc 8d56 6b3c 590c 9dbb
000002e0: 103d 3f3c 9ef6 c1ba 33ec 55bc 91a3 b3bb
000002f0: 163b d9bb dd9d d9bb 7328 a5bb 19a9 dd3a
0.04865128 0.03879178 -0.025777455 -0.41036153 -0.057715107 -0.039338887 0.46733755 -0.009935672
0.19960785 -0.04834545 0.13970743 -0.5542994 0.0017877705 -0.06192146 0.3913646 -0.056899007
-0.023672193 -0.06802339 0.026209213 -0.0040876623 -0.051526196 -0.030228253 0.008860693 -0.00866257
-0.007279188 -0.00075077283 -0.016241327 -0.05102302 0.26968423 0.016729582 0.027464204 0.010773429
0.0027091752 0.10180207 -0.0363372 0.016564758 0.0018068599 0.020430079 -0.017382845 -0.03531378
0.47410816 0.29987097 0.15615973 0.05011261 -0.06203203 -0.030941077 -0.015094205 -0.18709046
0.03194884 -0.002955347 -0.044009715 -0.06593262 -0.058625065 -0.033373345 0.13218181 -0.01662031
-0.021400943 -0.018604131 -0.035875697 -0.04937772 -0.031909246 -0.022242198 0.009576992 0.058507327
-0.8386677 -0.99169886 -0.7684202 0.8731643 -0.72538567 -0.3667818 0.52737725 -0.89345074
0.7633442 -0.8475465 -1.8519582 0.93339545 -0.95723623 -0.827163 0.6458576 -0.90078974
-1.0124098 -0.41568235 -0.61220497 -1.0413644 -0.864444 -0.7537371 -0.99747413 -0.8821498
-0.8478801 -0.97522855 -0.87923145 -0.69965327 0.70685637 -0.8788317 -1.0629807 -1.1085325
-0.88192374 -1.3669434 -0.8019431 -0.8464663 -1.0351135 -0.9585127 -0.90879494 -0.9926761
0.47817552 0.61173195 -2.0857942 -1.3171718 -0.7075948 -0.78132343 -0.9468937 0.3288598
-1.2426382 -0.87739414 -0.75534934 -0.86897284 -0.79106075 -0.8127891 -1.9636462 -0.7110059
-0.87713784 -0.913172 -0.7154412 -0.67828155 -0.9592357 -0.958107 -1.0157641 -0.98636955
0.014039641 0.0030592326 -0.005892801 -0.0035117797 0.0033284707 -0.0018860251 -0.006895526 -0.010425006
-0.011468982 0.0042394386 0.0036993742 0.002511508 -0.0049829627 -0.008324781 -0.009178746 0.008666237
0.0072444556 -0.006511565 -0.007591412 0.0072475644 0.0028394987 -0.0026219361 0.0024187814 0.00645042
-0.008273472 -0.0015182227 -0.006476112 0.007855993 0.010474191 -0.0026957807 0.00160401 0.001965316
0.0044722925 -0.00048354824 -0.00582873 -0.006075981 -0.0034484442 0.00078680477 -0.0043825507 0.00086293044
-0.0018339965 -0.0055765575 3.5322963e-05 0.000689627 -0.004224393 -0.009959852 0.009731583 0.0027223073
-0.003526034 -0.0028185688 -3.1761116e-05 -0.0008214344 0.0004950611 -0.012178258 0.014363897 -0.0047927317
0.011672273 -0.0014798229 -0.013056803 -0.005482145 -0.006629358 -0.006641133 -0.0050402223 0.0016911357

rnn.bias_hh_l0 f4 [192]
00000000: fa27 233d 406f 0b3d 7b0b bfbc 07f9 cebe
00000010: b629 8bbd fbd3 2abd db1e e93e f4af 32bc
00000020: baf3 3f3e 6659 3abd ef5e 113e 3a95 0abf
00000030: b143 7dbb c763 7abd dbf1 cc3e dabe 3fbd
00000040: 7ae7 f0bc e059 94bd 1156 e23c 69e9 ab3a
00000050: 80c1 54bd 3ff3 08bd 68bf ac3c c7ee d6bb
00000060: 3d4b 653b 09e4 013b 4a09 00bc 3078 3dbd
00000070: bb35 8a3e 8545 b23b ee33 bd3c f9b2 2c3c
00000080: 941f b63b 489a db3d 2023 f9bc 39e3 c03c
00000090: 08db 39ba c588 d63c 4037 c8bc b4fc 39bd
000000a0: 8b4d f93e 89df 973e 6ffe 203e b123 6e3d
000000b0: c9fe 63bd 6843 e6bc 1cd2 77bc 74a6 45be
000000c0: fe98 273d 98cc 1cbc 5a9d 50bd ffb6 82bd
000000d0: 4106 8bbd 9085 f7bc 420b fa3d 5970 18bc
000000e0: 0322 6ebc 41a4 b0bc 330a c6bc f325 58bd
000000f0: c05e e8bc 1a5d 01bd 45cd 5fba 23ac 793d
00000100: 3b59 58bf 414b 7fbf 3c78 46bf 3bb5 5e3f
00000110: deb5 3abf b32b bebe 5a45 063f 1ad5 68bf
00000120: df88 413f 7ce0 57bf 6850 edbf 0d27 703f
00000130: 42b6 72bf 9a4c 53bf 5f77 253f 4e3f 64bf
00000140: 0df5 80bf a70f d0be 2a15 18bf f31a 84bf
00000150: 9eb8 5cbf 9c4e 41bf 93f9 7ebf 5d09 64bf
00000160: 2828 5abf 69a2 78bf 7a46 64bf 4ea0 31bf
00000170: b073 353f 5423 62bf ab8e 87bf 176b 8ebf
00000180: 6c76 64bf d934 afbf 379b 50bf c33c 5abf
00000190: 965d 84bf 99f2 74bf e9a5 65bf 07fd 7dbf
000001a0: 0c1a f63e 5195 1e3f 25a0 05c0 0837 a8bf
000001b0: 8550 34bf f101 49bf 0074 76bf 5dc6 a43e
000001c0: f477 9fbf a079 5fbf 3452 42bf 66f6 60bf
000001d0: 4782 4abf 93b3 4ebf 6c7d fabf 5363 36bf
000001e0: a85f 5fbf 1a02 69bf 8e49 35bf a5f8 30bf
000001f0: daca 75bf bc1b 74bf d948 83bf ed3e 7bbf
00000200: 40c8 8bbc 88da 22bc cb45 de3c 44e9 8a3c
00000210: 8935 0d3c a9b5 083b 684c 163c 48bd fa3c
00000220: b234 883c 3181 81bb 6ee0 4cbc 8efa 0e3d
00000230: 1612 eb3a dbde af3c 4b7e 273c 65fc 85bb
00000240: 8150 0dbc 8f52 0e3c fc64 843c 427e 113b
00000250: f094 11bb d943 883c 1e07 0fbb aaa4 a6bc
00000260: 793e b43c dbe0 44bb 3006 a33c 7e9c 2d3b
00000270: 9a2d 19bc db20 b63b a493 a339 7607 b4bb
00000280: af85 b4bb 71b6 363c 3073 9e3a 9d25 6b3c
00000290: 1be4 413b c380 dabb f74a 65bb 604a e9bb
000002a0: aa2e c33b d8ff 1dbb 8cd9 163c c6e6 cbbb
000002b0: 3df0 f63b 06f0 e83c f888 8ebc b051 15bc
000002c0: cba5 5f3c cb42 cc3b bbc2 8abb 43b4 203c
000002d0: 0214 9ebb 523f a63c fed3 45bc 7638 073b
000002e0: 6205 c3bb 556b 93bb c3b3 e73c 9879 93bb
000002f0: 0b97 263c 2911 c53b f9cc c03b 811b 193c
0.039833046 0.034041643 -0.023320904 -0.40424368 -0.06795065 -0.041706067 0.45531353 -0.010906208
0.18745318 -0.045495413 0.1419637 -0.5413395 -0.0038645084 -0.06113031 0.4002827 -0.04681287
-0.029407252 -0.07243705 0.02762893 0.0013115826 -0.05194235 -0.033435103 0.021087363 -0.006559226
0.0034987472 0.0019819757 -0.007814715 -0.046257198 0.26994118 0.0054404163 0.023096051 0.010540717
0.0055579636 0.10722786 -0.030412257 0.023545848 -0.0007089828 0.026188264 -0.024440408 -0.045407012
0.48691973 0.2966273 0.15722059 0.058139507 -0.055662904 -0.028108314 -0.015125778 -0.19301778
0.04091739 -0.009570263 -0.050931312 -0.0638256 -0.06788302 -0.030215055 0.122091785 -0.0093041295
-0.014534476 -0.021562697 -0.024174785 -0.052770566 -0.028365493 -0.03158293 -0.00085373624 0.060955178
-0.84511155 -0.99724203 -0.77527213 0.86995286 -0.7293376 -0.37142715 0.5244957 -0.9095017
0.75599474 -0.8432691 -1.8540163 0.93809587 -0.94809353 -0.8253876 0.6463527 -0.89159095
-1.0074784 -0.40636942 -0.59407294 -1.0320724 -0.86219203 -0.75510573 -0.9959957 -0.8907679
-0.85217524 -0.9712282 -0.8917004 -0.6938523 0.7087965 -0.88335156 -1.0590414 -1.1126431
-0.892432 -1.3688003 -0.8148684 -0.85248965 -1.034106 -0.95682675 -0.89706284 -0.99214214
0.48066747 0.6194659 -2.0878994 -1.3141794 -0.70435363 -0.7851859 -0.9627075 0.3218259
-1.2458482 -0.8729496 -0.7590668 -0.87875974 -0.7910504 -0.8074276 -1.9569526 -0.71245307
-0.87255335 -0.9101883 -0.7081536 -0.691294 -0.9601265 -0.9535482 -1.0256606 -0.9814289
-0.01706326 -0.009939797 0.02713289 0.016956933 0.008618721 0.002086023 0.00917349 0.030607834
0.01662669 -0.0039521684 -0.01250468 0.034906916 0.0017934467 0.02146857 0.010222982 -0.0040889257
-0.008625151 0.008686676 0.016161434 0.00222005 -0.0022214018 0.016633915 -0.002182431 -0.02034219
0.022002446 -0.003004125 0.019900411 0.0026490982 -0.009349251 0.005558116 0.00031199784 -0.0054940535
-0.0055091004 0.011151896 0.0012088772 0.014352229 0.0029585424 -0.0066681816 -0.003498731 -0.007119462
0.0059564905 -0.0024108794 0.009207141 -0.0062225787 0.007535963 0.028434765 -0.017399296 -0.009113714
0.013650368 0.0062335483 -0.0042346395 0.009808603 -0.0048241625 0.020293865 -0.012074469 0.0020633019
-0.0059515694 -0.004498879 0.02828396 -0.004500579 0.010167847 0.0060140085 0.0058838096 0.009344936

rnn.weight_ih_l0_reverse f4 [192, 3]
00000000: 9132 453e 7243 ad3e 96cc 533c 6edb 14be
00000010: a3c3 23bd 6652 29bb 3432 dabd 7f4a 0c3c
00000020: 2d52 233e 1896 73be 9056 84be 2e1e aebd
00000030: 7353 d53d c0c4 12be 27a2 a4bd 237c bebc
00000040: ccbf 26bd 84d3 963c fb67 8cbd 08b2 0c3e
00000050: a97a 043c 6ed2 c63d 6391 d13d d4ab 8cbd
00000060: 724d 0fbe 2bba bfbd c9a0 4c3d bff4 1bbd
00000070: 7dd9 10bd 9392 023e fc8c 4a3d b180 a63b
00000080: f47f 473e 7062 1b3e ec8d 1cbe 6c9d 343d
00000090: 8b70 79bd 3c5c 45bc de55 fa3c 2039 b7bc
000000a0: 9d93 fe3d 5622 35bf e926 5e3e 3313 6dbc
000000b0: a3d8 d0be 17a0 973d 4c53 c4bd 3131 a83d
000000c0: 4c0b 2a3e 3183 95bc 16b7 e5bc 6165 2f3e
000000d0: d600 57bd ebd7 8dbd 32ae b63c ef25 0ebd
000000e0: 1c32 e8ba 7988 28bd d162 7a3b 9e49 34bd
000000f0: fd9f 5cbc 3f24 173e b215 9cbd 2409 25bd
00000100: 03f1 0fbe a323 853e ad75 2cbe a7d7 833d
00000110: 1f83 213e 8dcc 9d3d 6ea0 313d ed12 8839
00000120: 0aca 203e c4b3 a2bc 75bf 723d c601 6fbd
00000130: 6eac 4d3a 9eed 103e e907 163e 53c4 e9ba
00000140: edf2 28be 4059 433d 63cf 04be d994 07bc
00000150: 3c1d 2d3e ca3d ad3d 7d6e b6bc 3b83 533e
00000160: 8f1e 423d 89e3 a63d 5117 e23d 3661 72bd
00000170: cb45 a5bd 2360 553d ddeb 2d3d dc94 e63d
00000180: 95f9 1c3e edb2 5a3e e88c 95bd 23c2 58be
00000190: e26e 7c3b 66a9 e23d 6f8b 45bd aac8 e1bd
000001a0: da06 8e3e e711 8cbc ca8c 6abb 1e24 3a3e
000001b0: a374 0f3e 8a0a 353d 069c fd3d d36c 993d
000001c0: a404 40bd b7a9 63be bb20 773d eb96 e93b
000001d0: 6fa1 7c3c 0f86 753d 5648 743d e294 21be
000001e0: 5a57 0b3e cc0b b13d 835f b53c 38d4 f6bd
000001f0: 1524 71be e639 0b3e 1551 cbbd 905a eabd
00000200: 2839 513e 33e1 03be a191 0ebe 7f0f 2d3e
00000210: 3bcd dfbd 2043 d6bc 94af 4e3d cb09 423e
00000220: f42b 733d be02 28be dbed 15be 7bab ce3d
00000230: 7254 c63d 011b d43d 9a2a ab3d 4f1c cabd
00000240: 1602 0c3e 724c 17be a7d1 a63d db43 273e
00000250: b999 953e af4e 1bbd 003a b1bc dc05 09be
00000260: 1594 5a3e e0d9 153d bc94 6939 1ecb 423d
00000270: 7f31 2a3e 191f 4a3c 4c12 2c3e 26b9 933d
00000280: 6376 febc 617f acbd 5c48 99bd 8b7c 953d
00000290: 133b 1c3e 95ab 98bd b225 f1bd d5bc 213e
000002a0: 429d 0bbe db4f 80bd 4b2c 463e e6bd 443d
000002b0: e527 1dbd 927d e0bd e500 173d 757a abbc
000002c0: f3e5 0e3e 7893 84be 77cc a3bd a5bd b2bb
000002d0: 890d a4bd 3baa 24bd 43a1 803b 5c11 b4bb
000002e0: 206c d1bc 4bb5 093c 9f25 8bbb bb29 a0bd
000002f0: a2bd 64be 4824 c13d c23c cdbd 1aff 563d
00000300: 3367 d13d 88f2 55bb 1776 3cbe 6a58 153d
00000310: ba6d 313d 08e4 adbd b950 163f e15b 583f
00000320: 2086 3dbe ba54 f23d 7072 673c 73f4 e6bd
00000330: 10e3 e0bd 4b1a 56ba 4978 d5bc 335b e63d
00000340: f167 8d3d 7f4a f3bd 5752 4e3d 8e76 39bd
00000350: 6623 4c3d d88b 86bd d269 293d 6b18 18be
00000360: 7f12 e3bd 46b6 e1be 57a2 18bc 5a44 083e
00000370: 5748 1bbe cf02 07be 32b1 fc3b f6f1 abbd
00000380: 7e3a 8abd 2b39 87bd dbc5 043e 08ca 50be
00000390: a62d 36be 5266 fcbe 831c 29be d8cb 99be
000003a0: 90c6 f2be 8fe3 1cbd 661a 99be 6b4f 94be
000003b0: 2a6b 5d3d e235 b13d 4ec7 0a3d b63a f4bd
000003c0: c9da 40bd aff9 ca3d fa46 00be 4ed3 d73c
000003d0: efb4 13be 1990 27be 17a0 40bd 3dc5 52be
000003e0: 63f4 94bd b686 05be 9b80 adbe f39e 76be
000003f0: 06a2 58bd c689 21bd 4a1d 3abd ee52 3a3d
0.19257571 0.3384052 0.012927195 -0.14536831 -0.039981496 -0.0025836467 -0.10654107 0.008562683
0.15949316 -0.23787725 -0.25847292 -0.0850185 0.10416307 -0.14332867 -0.080387406 -0.023252552
-0.040710256 0.018411405 -0.0685577 0.13739789 0.008085885 0.09708105 0.102328084 -0.06868711
-0.13994387 -0.093616806 0.049958024 -0.038075205 -0.035363663 0.12751226 0.04945086 0.005081259
0.19482404 0.1517427 -0.15288514 0.04409544 -0.060898345 -0.012045916 0.030558523 -0.022366107
0.12430499 -0.7075552 0.2169453 -0.0144699095 -0.4079028 0.074035816 -0.095862 0.082125075
0.16605872 -0.018251033 -0.028041404 0.17128517 -0.05249103 -0.06925949 0.02229986 -0.034704145
-0.0017715129 -0.041145775 0.0038205872 -0.04401552 -0.013465879 0.1475992 -0.076213256 -0.04029192
-0.14056782 0.2600375 -0.16841765 0.06437617 0.15772675 0.077050306 0.04336589 0.00025954042
0.15702072 -0.01986111 0.05926462 -0.0583513 0.00078458234 0.14153144 0.14651455 -0.0017834998
-0.16498919 0.047692537 -0.12969737 -0.008275234 0.16905683 0.08459051 -0.022269482 0.20655529
0.047392424 0.08148868 0.110396035 -0.05917474 -0.080699526 0.052093636 0.042461265 0.112588614
0.15329583 0.21357317 -0.07302266 -0.21167807 0.003851824 0.110674664 -0.048228677 -0.11024602
0.27739602 -0.01709838 -0.0035789483 0.1817784 0.14009337 0.044199504 0.12383275 0.0749146
-0.046879426 -0.2223271 0.06033395 0.0071285865 0.015419348 0.0599423 0.059639297 -0.1577945
0.1360754 0.08644828 0.02214027 -0.12052196 -0.2354892 0.13596305 -0.099275745 -0.11443055
0.2043196 -0.12878875 -0.1392274 0.16900443 -0.109278165 -0.026155055 0.050460413 0.18949048
0.05936809 -0.16407296 -0.14641516 0.10091301 0.096840754 0.10356713 0.08357735 -0.09868681
0.1367267 -0.14775255 0.08145457 0.16334479 0.29218844 -0.037916835 -0.021634102 -0.13381141
0.21345551 0.036584735 0.0002227602 0.04755699 0.16620444 0.012336516 0.16803855 0.07213049
-0.03106231 -0.08422733 -0.074845046 0.07299145 0.1525691 -0.07454602 -0.11774768 0.1579469
-0.13634208 -0.06265231 0.19352834 0.048032664 -0.038368125 -0.10961451 0.036866087 -0.020932416
0.13954906 -0.2589376 -0.07997983 -0.0054547363 -0.08010394 -0.040201407 0.003925474 -0.0054952335
-0.025564253 0.00840504 -0.004246428 -0.078204595 -0.22337964 0.09430748 -0.10021354 0.052489378
0.10224762 -0.003264578 -0.18404423 0.03646127 0.043317534 -0.08490759 0.58716923 0.84515196
-0.18508196 0.118325666 0.014126405 -0.11277094 -0.10980809 -0.000816737 -0.026058333 0.112478636
0.06904591 -0.118794434 0.050371494 -0.04527908 0.049838446 -0.06569642 0.041360684 -0.14853065
-0.11087512 -0.44084376 -0.009316049 0.13307324 -0.15164314 -0.13184665 0.007711553 -0.0839576
-0.06749438 -0.06602701 0.12966101 -0.20389569 -0.17790851 -0.49296814 -0.16514783 -0.30038333
-0.47417116 -0.038302954 -0.29902953 -0.2896684 0.054057278 0.086528555 0.033881478 -0.11925261
-0.04708365 0.099109046 -0.12527075 0.026345875 -0.1442449 -0.16363563 -0.047027674 -0.20583053
-0.072731756 -0.1303967 -0.3388718 -0.24084072 -0.052888893 -0.03943803 -0.04543809 0.045489244

rnn.weight_hh_l0_reverse f4 [192, 64]
00000000: bcb5 2dbe dcb7 37bd fa6d f83e 33c6 123e
00000010: ec20 d0bd 97a0 1bbe b13a 1a3c 4564 ef3c
00000020: 6aff 91be ea26 4b3c 821d bbbd 28fe 0a3e
00000030: 0048 8a3e 1b76 503e 7251 5fbe 69e1 b83d
00000040: 4abf 333d 7f74 6c3d 3914 09be 9216 c03e
00000050: 3ee0 85bd cc96 993d 8ca3 03be d065 0b3c
00000060: 9622 b4bc b9db 3abd 2bab ad3d 14c7 c33d
00000070: fbd6 ec3d c6eb 83bb 40dd debd 3f65 273d
00000080: a49e 06be e551 84bd 38ae f03d 8bd1 78bc
00000090: 7ed5 0bbd dc76 023e 6dbb 213c 4a50 033d
000000a0: cf97 1ebe d278 7cbe d088 453d 25c8 8bbd
000000b0: 2e32 d13d 6972 d2bd 5e27 1bbc 9b13 e6be
000000c0: 1bcb e6bc 86b9 2fbe 5def 8fbd de5b a8bb
000000d0: 4583 bbbd 6f23 7b3d 02cd d5bd 2d0b 09be
000000e0: 42f5 af3d 955f 9fbd f5d6 173e ec9b eebd
000000f0: 6411 f3bd 3ee0 9a3d f65d 123e 0c9d d8bb
00000100: 38e5 2f3c 95d2 893d e110 2e3e efe3 a3bd
00000110: 2d2f a03d 65bd 043e be62 0bbd cada 803d
00000120: 3726 37be 99fc e0bd 2606 ba3c 3403 8a3c
00000130: 8a8a c03c 4baf 613d e8a5 eebd ce4d cb3c
00000140: 294b 25be 23fa e13d e0da 61bc 4b23 423d
00000150: 7e2b ab3c 76ae 2abd c4b5 233e ff4c c1bd
00000160: a24c ab3d f2e2 ddbc b1a7 e5bd 3ed8 7ebd
00000170: d42b 803c 9e12 ed3d 58cb be3d c4f7 e13c
00000180: 86b1 c5bc 606f 083e 1410 703b 7914 c63c
00000190: bd3c 08be 4115 0d3d b81f f33d 5569 b73c
000001a0: c7f5 8f3d 046d ffbd 64e7 00bd 0714 a5bd
000001b0: 1fec 14be 3727 fc3d 361a 1fbc 0612 003b
000001c0: 5bc3 ea3d ab1e 993d c95e b3bd dd3f 01be
000001d0: f308 153e b4af b8bd a30f 21bd 7684 78bd
000001e0: 0a60 cf3d c497 b43d 38c4 a23c 83db f53d
000001f0: d0df d63d ed55 f43c c41b 893d a14a c83d
00000200: 8676 803e 5b1c bb3e 6e7e 0f3f dbbc 97be
00000210: e17a 453e a7f5 9c3e 9b60 973e 635f e63c
00000220: 25fb bf3e 3f12 6fbe f9c0 bf3e df8d 11be
00000230: e5d9 adbe 015e a9be ec35 ba3e 5100 7fbe
00000240: 9d35 03be b695 df3d 6946 c43e 5aa2 92be
00000250: e0b1 98bd fbe8 a2be 3b9e 903e dfd9 4ebe
00000260: 28d8 673e ba12 27bf 4b00 25be 42de 8ebe
00000270: 9dfe f3bd 7874 27be 6253 743e e079 cc3e
00000280: 914b ab3d f7d1 983e a9f9 1f3f 829c f1be
00000290: 628b b1bc 428e a6be feb0 0e3e 7c4f bebe
000002a0: 8014 9d3e 794c c63e 99c3 0c3f d746 093f
000002b0: 98b8 85be ff5b 453e e11f ba3e 428b 61be
000002c0: ac8c a43e 1d5d 7f3e 18cd c13e 4c99 36be
000002d0: 19ff 123e 4b3d a73e 9b87 19bf c996 df3e
000002e0: 5793 dbbe 0929 913e 2491 d4be 22b2 a23e
000002f0: 1469 a63e 466f f7be 220c d2be 6dd0 6d3e
00000300: 9d68 0b3e 95fa 823d b482 e63e 30eb 803a
00000310: 20b6 a83c 36de 633d 1d57 11bd 3820 cfbd
00000320: 6257 55be c53d 6d3d 4718 7abc 4a8e b3bd
00000330: 12ba 123e b33d d43c fd19 90bc d32f f3bd
00000340: 3335 3abd 915d c3bd e839 a3bd 1614 ff3d
00000350: ba2d 893c d8a9 ff3b 7c4d 8abb d7a7 d83d
00000360: 903c aebd b032 3dbe e9f0 5bbd 6055 fcbd
00000370: e68b cbbd 326c 74bd 41ca 10bd 3a21 4b3d
00000380: 5e22 be3d 64ac 61bd 09ec 363e c028 80bd
00000390: 53a3 743d a64b 8c3d fa18 e2bd 682c 2e3d
000003a0: a18a d53d 237b 23be 417a 7c3d 132a 2f3d
000003b0: 4033 c23b 6466 813c 483a 933c 7a70 99bd
000003c0: 76ea 96bd 61e2 e83d 7b0f 26bd 9459 9b3d
000003d0: 5d41 13bc fc32 f73d bbac 7cbe f2e8 8dbd
000003e0: 5f78 cebc 7966 d43c 826e 273b 8a1f 563c
000003f0: aab3 013d 81d9 36bd 30ca e6bc 3752 cabd
-0.16963857 -0.044853076 0.48521405 0.1433342 -0.10162529 -0.15197979 0.009413407 0.029222617
-0.28515178 0.012399415 -0.091364875 0.13573515 0.27008057 0.20357554 -0.21808413 0.090273686
0.0438836 0.057728287 -0.1338662 0.3751722 -0.065369114 0.07499465 -0.12855357 0.008508161
-0.021989148 -0.0456197 0.08479913 0.095594555 0.11564442 -0.004025909 -0.10882044 0.04086804
-0.13146454 -0.06460933 0.117519796 -0.015186678 -0.03413915 0.12740654 0.009871346 0.03205899
-0.15487598 -0.24655464 0.048226178 -0.06825284 0.10214649 -0.10275728 -0.009469835 -0.44936833
-0.02817302 -0.17160615 -0.07028077 -0.0051379045 -0.09155897 0.06131309 -0.10439493 -0.1338317
0.08591701 -0.07781903 0.14828093 -0.116508335 -0.118685514 0.07562302 0.14293656 -0.0066105183
0.010735802 0.067296185 0.16998626 -0.08002459 0.07821498 0.12962873 -0.034029715 0.06291731
-0.17885672 -0.10985679 0.02270801 0.01684723 0.02350356 0.055098813 -0.11652738 0.024817374
-0.16141953 0.11034038 -0.013785094 0.04739694 0.020894762 -0.041670285 0.15987307 -0.09438514
0.08364226 -0.027085755 -0.11213625 -0.062217943 0.015645899 0.115758166 0.093161285 0.027583964
-0.024132501 0.13323736 0.0036630677 0.024179684 -0.1330442 0.034444097 0.11871284 0.022389093
0.070293 -0.12471965 -0.03147067 -0.080604605 -0.14543198 0.12312167 -0.009710839 0.0019541993
0.11463042 0.074765526 -0.08758313 -0.12622018 0.14554195 -0.09017888 -0.039321553 -0.0606732
0.1012574 0.088180095 0.019868955 0.12004759 0.104919076 0.029826129 0.06694749 0.09779859
0.25090426 0.3654507 0.5605229 -0.29636273 0.19285156 0.30656168 0.29565892 0.028121656
0.37496296 -0.23346804 0.37451914 -0.14214276 -0.33955303 -0.33079532 0.36369264 -0.24902464
-0.1281342 0.10917227 0.3833497 -0.2863949 -0.07455802 -0.31818375 0.2824572 -0.20200299
0.22641051 -0.6526295 -0.16113393 -0.27903944 -0.11913798 -0.16353023 0.23859933 0.39936733
0.083640225 0.2984769 0.62490326 -0.47189718 -0.021672908 -0.3253041 0.13934705 -0.37170017
0.30679703 0.3873022 0.5498596 0.5362372 -0.26117396 0.19273375 0.36352447 -0.22025779
0.32138574 0.24937864 0.37851787 -0.17831916 0.14355125 0.3266395 -0.5997254 0.43669727
-0.4288585 0.2835162 -0.41516984 0.3177653 0.32502043 -0.48327082 -0.41024882 0.2322404
0.13614126 0.06395451 0.45021594 0.0009835716 0.020594656 0.05563184 -0.03548347 -0.10113567
-0.20834115 0.057920236 -0.015264577 -0.08767374 0.14328793 0.025908327 -0.017590517 -0.11874356
-0.04546089 -0.09539331 -0.07970029 0.12455003 0.016745437 0.0078022294 -0.0042206626 0.10578888
-0.08507645 -0.18476367 -0.053696547 -0.123209715 -0.09938793 -0.059673496 -0.035349134 0.049592234
0.09283899 -0.055096045 0.17863478 -0.062577724 0.05972607 0.06850366 -0.1103992 0.042522818
0.10426832 -0.15964942 0.061640028 0.042764734 0.0059265196 0.015795894 0.017972127 -0.07492156
-0.073689386 0.11371303 -0.040542107 0.07585445 -0.008987752 0.120702714 -0.24675266 -0.069291964
-0.025203882 0.025927769 0.0025548046 0.013069043 0.03166548 -0.04464102 -0.028172582 -0.098789625

rnn.bias_ih_l0_reverse f4 [192]
00000000: 105d d1bf b2d2 7cbf ab44 7e3d 1f2f b8bf
00000010: d32d c0bd 6e30 e2bf df54 e4be e1e0 c2bf
00000020: d03d 76bd 90b5 c3bf 9a86 d4bd c56c a1bf
00000030: fdc4 713c 8828 18bf 5e47 b6be 17ea 44bf
00000040: a99d 07bf 5400 eabf a19b 7bbd 0351 033e
00000050: e9d8 c7be e8c4 87bd 9352 acbf 6a25 06c0
00000060: 5d83 ddbf 2095 c53d 881e 93be 3a71 89bf
00000070: 382d 90bf 808f 94bf e95b 8cbe c2fb 5abd
00000080: 7b21 bebf 8529 acbf 4667 a33d 0969 a3bd
00000090: a5e3 67bf 1ec1 a3bd baf2 08c0 4bae b1bd
000000a0: 4b63 ddbf 5c42 7bbd df1a f63c fd98 9b3c
000000b0: 895a 2abf 6ac2 b3be 7e5a f6be 40f5 6fbd
000000c0: ee71 d3bf 32ca 83bf 2e16 8cbd c776 00c0
000000d0: 2136 d8be ac8c f6bd 181f b63d cb64 d3bd
000000e0: 6809 f1bd 1449 ccbd 86b0 fcbc 237d a1bf
000000f0: 22aa 9dbf d60b d03d 5d77 c5be 1055 d6bf
00000100: c879 9a3e 0b09 293f 3ee5 ee3d b1af 093f
00000110: 8879 e23e c3c2 dd3e 5111 363f 4f71 093f
00000120: 13f4 2b3e 1b56 223f 8368 ba3e a8ad c33e
00000130: f269 b03d b314 363f dd85 243f bbd8 013f
00000140: ce08 323f d6cf 153f 1184 7e3e 5718 10be
00000150: f599 343f d919 b33e 5606 103f 9b47 1d3f
00000160: 1105 223f f6ae 5fbd 2abe 193f eac6 f23e
00000170: 3006 d13e 003e 2b3f 7566 0a3f 11ad 843e
00000180: 2529 cf3e ece5 1d3f 21d1 f53c d762 4e3e
00000190: 44a2 303f 1aff 9e3e 93cd 123f e7a5 8a3e
000001a0: aac6 b53e 3329 6e3e e56d 633d 62d0 643d
000001b0: f19f 1a3f e306 1d3f 88e2 373f 2885 4c3e
000001c0: 089e 263f 828c c63e 27a9 a93e 1bf5 213f
000001d0: f78b 1a3f 5185 8c3e 45bc 003b fefa 6f3e
000001e0: 6373 783e 9909 cd3e e7b3 aa3d 602e 133f
000001f0: 61d1 0c3f 0425 13bd a0fb 403f b454 1f3f
00000200: 07bd 303b 9add 14ba 21f0 923c 5494 093b
00000210: 78e1 0c3a 5dc7 e3b9 eab1 133b 4b4d 233a
00000220: a79b c03b 9a2f e83a 8dfd e33b c952 c43a
00000230: f293 5a38 e2a6 ae3a 6dd3 223b faba a1ba
00000240: 257a 13ba 7389 77b9 d8d6 1abb 95ba 343b
00000250: eeb1 33bb b62e 293a 5ad4 e33a 1740 35bb
00000260: c274 883b f9f9 1ebc bb5d 69ba d008 bdba
00000270: 9f19 00bb 619a af39 0f7b aeb9 684d 8cba
00000280: e061 253b 736f fbba 618d 263b 6c7d 83bb
00000290: 9ff1 353b a283 03bb adfe 223b 7e16 07bb
000002a0: c279 25ba bb08 f4ba 39fe 8e3b 81ec cd39
000002b0: e02b 713a 1d3e 303a 9e65 ae3a c951 1e3b
000002c0: 0680 f8b9 216b 543b 9f5b f8bb 85c3 9cba
000002d0: d69d 5abb c3b8 a93b b679 0fbc 8276 483b
000002e0: 5e87 19bb 4930 70bb 5741 95bb 84f4 53bb
000002f0: 361a 47b7 c693 53bc d201 ba39 3b3c 143a
-1.6356525 -0.98758996 0.062077206 -1.438938 -0.0938374 -1.767103 -0.44596002 -1.5224878
-0.060117543 -1.5289783 -0.10377236 -1.2611319 0.014756438 -0.59436846 -0.35601324 -0.7691969
-0.52974945 -1.828135 -0.061427716 0.12823872 -0.39032677 -0.06629354 -1.34627 -2.0960336
-1.7305714 0.09647584 -0.2873423 -1.0737679 -1.12638 -1.1606293 -0.27413872 -0.05346275
-1.4853967 -1.3450171 0.07978682 -0.07979018 -0.90581733 -0.079958186 -2.1398149 -0.08675822
-1.7295927 -0.061342582 0.03004211 0.018993849 -0.66544396 -0.35109264 -0.48115915 -0.058583498
-1.6519144 -1.029608 -0.06840168 -2.0072496 -0.42228797 -0.1203855 0.088926494 -0.10321959
-0.11769372 -0.09974876 -0.030845892 -1.2616314 -1.2317545 0.101585075 -0.3856763 -1.6744709
0.30171037 0.66029423 0.11664818 0.5378371 0.44233346 0.43312654 0.7112017 0.5368852
0.16792326 0.63412637 0.3640786 0.38218427 0.086139575 0.71125335 0.6426676 0.5072133
0.69544685 0.5852026 0.24855067 -0.14071785 0.7054742 0.34980658 0.5625967 0.61437386
0.6328898 -0.054610215 0.6005579 0.47417384 0.40825033 0.6689148 0.5406259 0.2591329
0.40461078 0.6167896 0.030006947 0.20154892 0.689976 0.31054002 0.5734493 0.27079698
0.3550313 0.23257904 0.055524725 0.05586279 0.604003 0.61338633 0.71830034 0.1997267
0.65084887 0.38779074 0.33136865 0.63264626 0.6036982 0.27445462 0.0019643467 0.2343559
0.24262767 0.40046385 0.08335095 0.5749264 0.55006987 -0.035923973 0.7538395 0.6223862
0.0026968138 -0.0005678773 0.017936768 0.0020992951 0.00053741736 -0.0004344535 0.0022536465 0.0006229474
0.00587793 0.0017714382 0.006957716 0.0014978285 5.2113035e-05 0.0013324881 0.0024845258 -0.0012339049
-0.0005625806 -0.0002360696 -0.0023626592 0.0027577032 -0.0027419287 0.0006453799 0.0017382011 -0.0027656609
0.0041643092 -0.009703153 -0.00089022116 -0.0014422182 -0.0019546521 0.00033493622 -0.00033279552 -0.0010704221
0.002523534 -0.0019182995 0.0025413858 -0.004012754 0.0027762426 -0.0020067473 0.0024871037 -0.0020612772
-0.0006312394 -0.0018618325 0.004363802 0.00039276856 0.00091999583 0.0006723123 0.0013305431 0.0024157634
-0.0004739763 0.0032412487 -0.0075792815 -0.0011960125 -0.0033358238 0.005179496 -0.0087570455 0.0030588214
-0.0023426632 -0.0036649874 -0.0045549083 -0.0032341788 -1.1867427e-05 -0.01291365 0.0003547804 0.0005654727

rnn.bias_hh_l0_reverse f4 [192]
00000000: 301e d0bf 2e1e 7ebf 6a89 803d d5f9 b6bf
00000010: 25f5 cbbd 8b69 e1bf 0a43 eabe bde9 c3bf
00000020: 9b92 40bd 7d7c c1bf 08c3 bdbd ed89 a2bf
00000030: b1e4 5b3c 6022 15bf d6a2 b8be 7842 45bf
00000040: c603 06bf 147a e8bf dc5f 6bbd c88d fd3d
00000050: d62c c4be 4400 80bd 32fb abbf 399b 06c0
00000060: b25a debf 6a95 b43d 9495 93be a903 8abf
00000070: 4593 8fbf 8caf 95bf 7d9f 8cbe c886 91bd
00000080: b643 bfbf 5640 aebf 2c50 9a3d 6874 a1bd
00000090: 4241 67bf cd84 8ebd a97b 09c0 9c52 afbd
000000a0: c5e3 debf 5d7a 7cbd 57dc df3c ac2c f93b
000000b0: 006b 28bf c16a abbe c598 f4be 8211 69bd
000000c0: 6a2d d3bf b3e7 82bf b8c2 87bd 07b9 00c0
000000d0: 94c5 ddbe 70eb e1bd 9005 bc3d c4bf e0bd
000000e0: 108d e1bd c178 c6bd bf75 f6bc a223 a1bf
000000f0: acb4 9dbf e6e6 dd3d 9926 c7be 208e d4bf
00000100: d634 963e b196 283f 550e d63d 537c 0b3f
00000110: 8334 e23e 52d6 dd3e 48b9 363f a796 0a3f
00000120: 7d7b 293e 5a9f 1f3f 1576 b83e 0a59 c73e
00000130: 0d82 c53d f1ec 363f 2280 203f 7ae7 033f
00000140: aaca 343f e3a9 153f 06dc 863e 10fa 09be
00000150: b932 353f bc6c b63e 6219 133f e02f 193f
00000160: 2fa6 203f 62ca 56bd 8bee 193f a5d4 f43e
00000170: fddc d93e 0fd2 293f 7d00 0b3f e1c5 853e
00000180: 888b ce3e 103c 1d3f 2e0f db3c 5bf7 563e
00000190: 8ecd 2d3f de7e 9f3e acd4 153f aa52 8c3e
000001a0: bbb8 b83e 4793 6e3e 7ef8 413d f372 2e3d
000001b0: b922 183f 758f 1e3f a096 393f 9c5f 3e3e
000001c0: 45f9 233f 59e0 c03e 4e13 a73e 6050 213f
000001d0: 7f87 1c3f f40a 8a3e 3c8d cf3b 94a7 5b3e
000001e0: 1513 7b3e 66cb ca3e 4090 913d 54fb 143f
000001f0: 0c23 0a3f c384 1ebd da7d 403f 8d5a 233f
00000200: 595d eeba 8a0b 113b 47bc c0bc bd65 fcba
00000210: 21eb ae3b e9b6 f7b9 dfd0 71bb ba93 553b
00000220: ae6d b43b dd56 c7ba 548a a4bb d569 01ba
00000230: 3e02 c03b 3f67 55bb f331 0d3b 9403 b63a
00000240: 2147 103c ab18 43ba c3c6 c9bb aea5 50bb
00000250: 3514 713b 75f7 63bc 8f81 923b f910 19bb
00000260: 207f 473b b372 3b3c 8cbe fa3a 8c10 57bb
00000270: 0b8e 9bb9 297f 4abb 1923 8eb9 c901 82bc
00000280: cf2d d1ba 2307 313b 736b 44bc 27f4 0f3c
00000290: 519a 37bb 6752 183c b02c 323b 6357 223c
000002a0: feec d5ba 59bd 993b 6bae 93bb 4e3e 383c
000002b0: f5e3 8fbb ff0f 483b 89c3 babb 2382 613c
000002c0: e181 82b9 ff64 56bb b414 083c 6e89 10bb
000002d0: 6f39 e03a 9285 e43b 0870 623c f5da 513b
000002e0: 7ccc f8bb 63f5 0fbc 5772 793b 36ea c93a
000002f0: 3c55 5639 828f d13b 2a8f a1bb ebfd 1d3b
-1.6259212 -0.992648 0.0627621 -1.4294993 -0.09958867 -1.7610334 -0.45754272 -1.5305706
-0.047014814 -1.5116116 -0.09265715 -1.2698342 0.0134212235 -0.5825558 -0.36061734 -0.7705455
-0.5234951 -1.8162255 -0.057464465 0.12380558 -0.38315457 -0.06250051 -1.3436034 -2.103224
-1.7371428 0.08817561 -0.28825057 -1.0782367 -1.1216818 -1.1694198 -0.2746543 -0.071057856
-1.4942539 -1.3613384 0.07534823 -0.07883531 -0.9033395 -0.069589235 -2.1481726 -0.08560678
-1.741326 -0.061640132 0.027326746 0.0076042023 -0.6578827 -0.33479884 -0.47772804 -0.056901462
-1.6498234 -1.0226959 -0.066289365 -2.0112932 -0.43314803 -0.11031234 0.091807485 -0.109740764
-0.11013234 -0.09691001 -0.030085443 -1.2588999 -1.2320762 0.10835056 -0.38896635 -1.6605873
0.29337186 0.65854937 0.10451952 0.5448658 0.44180688 0.43327576 0.71376467 0.5413613
0.16551013 0.62352526 0.3602759 0.3893512 0.09643946 0.71455294 0.62695515 0.5152508
0.7062174 0.5846235 0.2633974 -0.13474298 0.7078052 0.35629833 0.57460606 0.59838676
0.62753576 -0.0524391 0.6012961 0.47818485 0.42551413 0.6633615 0.5429762 0.26127532
0.4034083 0.61419773 0.026740637 0.20992796 0.67891777 0.3115148 0.58527637 0.27406818
0.36078438 0.2329837 0.04735612 0.042590093 0.5942798 0.6193765 0.7249546 0.1859116
0.6405223 0.37671164 0.32631916 0.6301327 0.6114425 0.26961482 0.006333975 0.21450645
0.24518998 0.39608306 0.07107592 0.58195996 0.5395973 -0.03870083 0.75192034 0.63810045
-0.0018185779 0.0022132122 -0.023527278 -0.0019256395 0.005338088 -0.0004724779 -0.0036898179 0.0032589273
0.005506239 -0.0015208382 -0.005021373 -0.00049367297 0.0058596423 -0.003256276 0.0021544665 0.0013886564
0.008806021 -0.00074423355 -0.0061577274 -0.0031837034 0.0036785726 -0.013913979 0.004471011 -0.0023356064
0.0030440763 0.011440921 0.0019130274 -0.003281626 -0.00029669734 -0.0030898547 -0.000271105 -0.015869992
-0.0015959087 0.002701231 -0.0119885085 0.008786238 -0.0028015564 0.00929699 0.002718728 0.00990853
-0.001632124 0.0046917615 -0.004506876 0.011245323 -0.0043911883 0.0030527113 -0.005699579 0.013763937
-0.000248923 -0.0032714007 0.008305717 -0.002205457 0.001710696 0.0069739306 0.013820656 0.0032021378
-0.007592736 -0.008786532 0.0038062537 0.0015404883 0.00020440383 0.0063952813 -0.0049303966 0.0024107646

rnn.weight_ih_l1 f4 [192, 128]
00000000: 2fa6 cd3d ec75 a8bc a055 383d 76b5 7bbc
00000010: ab3d aabc d33d 0fbe 3fa1 61be 8e86 143d
00000020: 866b 6c3e f75e d03d 4542 433d a9a6 5039
00000030: 0d3d 0cbe 96c2 c33d cdd2 22be 1a76 453e
00000040: ef2d a0bd a356 883e 8008 573d 4485 363d
00000050: 9cc5 da3d e80a 063d f0bf 85bc d7cc 5a3b
00000060: 9dfb 41bd 3ff8 3fbe fc3d 6a3c 5f8f f73c
00000070: 72a0 09be cff2 d43c 6f2d f23d 91b0 06bd
00000080: 2024 943d bf70 d4bd 9c12 e33c a3fe d53d
00000090: e715 1a3d e040 3b3d f632 9b3d 812f 693e
000000a0: 4025 a83e b9a4 733d 2705 a4bd d425 a13d
000000b0: c0f7 663d a41d 9f3d 62da 003c ce00 2dbe
000000c0: 4a9c 113e e7b8 9f3d f621 e2bd 3edf 033e
000000d0: 4d02 9dbd a3d0 093d db0a 00be 2440 0f3e
000000e0: 77dd e5bd 9855 023e c3dd a33d 771a eebd
000000f0: c7cf 16bd 3d83 483d 9d7a 533d 16e4 e1bd
00000100: 1508 583e 34f4 333e 9e96 ee3e 7d2e 48be
00000110: ea13 003e 6c31 473e 42a0 d43d 8eaf 33be
00000120: 5809 80be 7919 ff3d 8872 12be 6161 32be
00000130: 1bb8 e1bd 26ef e83d 230c 98be 4226 58be
00000140: 35ba f53c dea0 64be 7591 a6be 6c31 e5bd
00000150: f721 00be 0bcc 5b3e 17d5 103e c10e ff3d
00000160: ce65 9bbd d45c a0be 70cc 94bd e1a9 a1be
00000170: 0675 4abe 61cf e23c 3812 e5bd f6e6 4ebc
00000180: a102 5c3e c90c d03d 7280 a03e 09b0 1e3d
00000190: 3319 523e 8a83 473e d1ee 3dbe d256 84bb
000001a0: 52c2 763e d367 20be 975b 3a3e da83 80bc
000001b0: 6197 30be 3eed 953c 531e e4bc f528 1ebe
000001c0: 1001 4dbd 673a 703e 3b96 133d bae7 a73d
000001d0: bb9d 93be 71f1 25be d1db 80be 18eb 90be
000001e0: 5ce2 6e3e 354d 403d b676 893c 06b4 0f3e
000001f0: 4b13 9c3e 0f7d 2ebe 0c4d a73d c838 d3bd
00000200: 411d 593e 120b 743d 2d5e 573e 0b57 0fbe
00000210: 0d8a 0f3e 81f0 dabb 77a8 313d 8b1f d63e
00000220: 3d25 a83d 0cdd 013e e7e8 cfbe a2f6 e8bd
00000230: 751f 3dbe 35fd a13e d7b3 66bd 6733 173e
00000240: 6141 e1bc 3d47 493e 54bc ab3e 706a 53bb
00000250: 9ade 653e 2908 7b3e a1db 1fbe 90b5 72be
00000260: 15a6 91bd ec02 26be 9795 bb3e 522d b4bc
00000270: 80cf 413e 149b cb3e 02a4 a53e b0c0 a5be
00000280: c693 99be 34a6 553e e019 f33d f0a7 663e
00000290: 636f 753e 2f3f 5ebe 25bf cb3d 7a1c 873d
000002a0: fa35 fcbd f747 4abc baaf 9f3e 4941 98be
000002b0: cc6b 2b3e 80b9 ae3e 6f8f 49bd c33e 223c
000002c0: 3728 893e 2782 1e3e be5d 97be 5470 803e
000002d0: 8704 81be a981 2b3e 2ac2 c33e 8e73 b43e
000002e0: 3d24 8cbe 5ebf 553e 704c a03e 1ace 65be
000002f0: 19eb 61be a739 683e a285 ae3d cc59 d9bd
00000300: 3046 163e d1d6 5d3e 8019 883d 53f4 1d3c
00000310: 139f a0bd 6eb5 87bb a5f0 bb3e 4fbd 8ebd
00000320: dec7 32bd 96b4 303e deb8 6abd 69a8 7dbd
00000330: ec78 123e 6c0c 48be 0b54 f63d 8fbd 53be
00000340: 6625 0a3e d5d4 a9bd 4b39 26be 284b 953e
00000350: fd5e 8dbe 6466 9ebc 18e8 77be 0758 8e3d
00000360: b695 c3bd 2836 083e 354a b13d 4a89 0ebe
00000370: 5c64 8abd 14ff 3dbe db6f 10be d27a 643d
00000380: 9794 aa3c e03a 18be 1c1a a63c 9223 15be
00000390: f28e 193e 1962 373e bd2f ccbd c235 88bd
000003a0: 601d 043e 94e9 803d 3b84 07be 99a7 5dbd
000003b0: 62f0 d53d 729c bfbd fc49 913e 0a27 a0be
000003c0: ae73 26be 5ef7 6c3d e1da 0f3d 4a10 8e3d
000003d0: fc77 0abe d908 9d3e 8a68 373e bd53 d1bd
000003e0: 3a6e 32be 2636 c43c 16b2 6f3d 7de2 cfbd
000003f0: e42c 09bd 2bd7 4b3e 2a62 51be ab71 d3bd
0.10041463 -0.020564042 0.045003533 -0.015363088 -0.020781359 -0.13988428 -0.22034167 0.036261134
0.23087892 0.10174363 0.04767062 0.00019898512 -0.13695164 0.09558599 -0.15900727 0.19283333
-0.07821261 0.266286 0.05249834 0.044560686 0.10682222 0.032725245 -0.016326874 0.0033386254
-0.047359098 -0.18747042 0.014297005 0.030219732 -0.13440111 0.025994686 0.11825072 -0.03288323
0.07233453 -0.10373067 0.027718835 0.10448959 0.037618544 0.045716166 0.075780794 0.22772028
0.3284092 0.059483264 -0.08008795 0.07868543 0.056388617 0.077693254 0.0078645665 -0.16894838
0.14219776 0.07798939 -0.11041634 0.12878129 -0.076664545 0.033646237 -0.12504141 0.13989311
-0.11223882 0.12727964 0.08001282 -0.116261415 -0.036819246 0.048953284 0.051630605 -0.11029832
0.21096833 0.17573625 0.46599287 -0.19548984 0.12507597 0.19452447 0.10382129 -0.17547438
-0.2500713 0.124560304 -0.14301503 -0.1741996 -0.110214435 0.11373739 -0.2969676 -0.21108344
0.029996017 -0.22326991 -0.3253285 -0.11191067 -0.12512957 0.21464555 0.14143787 0.12453986
-0.07587777 -0.31320822 -0.07265556 -0.3157492 -0.19771203 0.027686777 -0.111851156 -0.012628308
0.21485378 0.101586886 0.31347996 0.0387421 0.20517425 0.19483772 -0.18548132 -0.00403867
0.24097565 -0.15664606 0.18199001 -0.015687872 -0.17245246 0.018301602 -0.027846491 -0.15445311
-0.05004984 0.23459779 0.036031943 0.08198495 -0.28831276 -0.16205384 -0.25167707 -0.28304362
0.23328537 0.04694863 0.016780239 0.14033517 0.3048347 -0.17039894 0.081689924 -0.103135645
0.21202566 0.05958087 0.21032019 -0.13998048 0.14017506 -0.0066815023 0.04337355 0.4182094
0.08210228 0.12681979 -0.40607378 -0.113751665 -0.18469031 0.31638494 -0.056323852 0.14765702
-0.027496995 0.19656081 0.3354212 -0.0032259487 0.22448197 0.24514832 -0.15611126 -0.23702073
-0.07111756 -0.16212052 0.36637565 -0.021994267 0.18926811 0.39766753 0.3235169 -0.3237357
-0.29995555 0.20864183 0.1187017 0.22525 0.23968272 -0.2170379 0.09948567 0.06597228
-0.12314983 -0.012346259 0.31188756 -0.2973731 0.1674034 0.341259 -0.049209055 0.009902659
0.26788494 0.15479337 -0.29563707 0.250857 -0.25198767 0.1674868 0.38234073 0.3524441
-0.27371398 0.20873782 0.31308317 -0.22441903 -0.22062339 0.22678243 0.08521582 -0.106128305
0.14675212 0.21663977 0.06645489 0.009640771 -0.07842841 -0.004141501 0.36707035 -0.069697015
-0.04364764 0.17256388 -0.05730521 -0.061928187 0.1430394 -0.19535989 0.12027749 -0.2067778
0.13490829 -0.082925476 -0.16232793 0.29158902 -0.27611533 -0.019335933 -0.2420963 0.06950384
-0.095500395 0.13301909 0.08656732 -0.13919559 -0.06757423 -0.18554336 -0.1410517 0.055781193
0.020822806 -0.14866209 0.020276122 -0.1456435 0.14995936 0.17908515 -0.09970043 -0.066508785
0.1290183 0.062945515 -0.13234036 -0.05411491 0.1044624 -0.093560115 0.28376758 -0.31279784
-0.16255066 0.057853095 0.03512085 0.06936701 -0.13522333 0.30670813 0.17910972 -0.1022105
-0.1742486 0.023951601 0.058519445 -0.10150621 -0.033490077 0.19906299 -0.20447603 -0.10324415
