trained_models/gru_k3.pt (torch, 711447 bytes, 26 tensors)

rnn.weight_ih_l0 f4 [192, 3]
00000000: 4341 17be 5de3 143d 7c69 68bd fd95 78bd
00000010: 460f 7dbc b1bf d33c 8bde 0a3d a137 babd
00000020: cdb7 92bd 2af5 373e d9a0 68bd 9759 ae3e
00000030: 88f0 87bd af4e 913d 3c9a 4abd 4b11 8ebe
00000040: 3f0e a93d d569 c2bd 13ab 8d3d 5ec8 6f3d
00000050: cb8e e1bc f96b 34be 00c1 41bd 2890 3dbe
00000060: 6337 00bd 392a 3bbe 7090 2a3e 6020 86bd
00000070: 49d4 233b 9cb1 7bbc 2caf 2ebc f83c 6a3e
00000080: 2a94 16be c3d5 f1bc 0405 413d 7ac2 bdba
00000090: 3ca1 c0bc d1c1 263d 7d7c 0bbe 020e 8a3d
000000a0: d5ec 4f3c 6ad9 87be 2c00 9c3e c65f d93c
000000b0: 2df6 833e d4b3 73be aacf bb3d dc94 06be
000000c0: cdea 733c 1b15 123d a136 34be bdfb 1cbb
000000d0: 4772 613d 7e60 eebd 2af6 debd 42e5 ff3c
000000e0: af8a 0c3e fc24 373c 439d 7dbd cbff b9bc
000000f0: 78c0 8b3c 5862 b8bb 22dd 9fbd 3275 d3bd
00000100: f9f7 a4bd 5088 d23b 4bb6 ecbd 2677 083c
00000110: 0928 9a3d 3580 34be 66d4 85bd bb59 553c
00000120: 5b45 ebbd 1fa8 0bbd c454 973d ce80 d8bd
00000130: 5640 633d dfbd df3d d373 21be fdc2 49bd
00000140: 1563 e03d 099c 8abd 8f23 3abd 4d6a 4fbd
00000150: 7922 c63e 0067 a3be b7c2 fd3d 378a babe
00000160: fe45 833e 4921 973e ed43 c1bd 54d8 ca3d
00000170: f172 b93d 84a3 63bd d354 693d 5cf5 e23d
00000180: b0e8 a9bd 0608 0d3d 6f4f f43c 6d96 febe
00000190: d51c ba3e 013c 9cbe 3f55 a4bd 80c4 91bd
000001a0: d101 31be cb5a 40bd e326 953c 3bc1 ffbd
000001b0: 8de0 89bd e7c0 2dbc 6f34 b53c 232d 1cbe
000001c0: f7c8 373e 3d08 313e 6e85 00be 6b2c 94bd
000001d0: 17f0 863d 2673 443d 8793 8c3c 091d 103c
000001e0: 9ae6 893d 09e4 c3bd fd55 3f3e 358f cc3d
000001f0: 15c8 6bbd 180a 67be f429 d6bb 022c 64bd
00000200: ab25 12be 7f7e a7bd cb8e 6cbd 9c63 b73c
00000210: 8ff2 aabd 2e65 663d 9fa2 0dbd 4c70 9bbc
00000220: 0a9c eabc 0cc4 19bb 1c39 69bd e07b 913d
00000230: b71f 6a3d 29e5 9ebd e04f 763d 9279 ccbe
00000240: 212a d9bd 677f aabc 9968 cfbd c867 2ebe
00000250: 18f4 743d e151 f1bd a96b 37bd 2aeb 973d
00000260: d311 d43c 310f 04be 4c5d fbbc d653 09be
00000270: d07a 053d 1d8a bd3c 56c0 343c 8728 82bd
00000280: ed5c 863c 83f8 b0bb 2d85 303c d261 1c3d
00000290: 30a3 0a3d 3995 3ebe 995c 9bbd 8a87 183e
000002a0: 60e1 0dbe be82 7e3d 0d94 7bbd c6e6 72bd
000002b0: 1c24 f93c d4d0 15be 80e8 7a3b 5520 38bc
000002c0: 3a74 3fbe e44e 63bd e4e7 843d 4946 2abd
000002d0: a669 76bd 7e9f 68bc fe0a 1abe 0943 d1bd
000002e0: 31ff 6b3c 69f4 e33c ac63 1fbe 41af 8fbb
000002f0: f2e7 e93d 158e 19be 5a23 11be b3b6 ba3d
00000300: 7924 bcbd 1e65 85be e85f 71bd e30e cebd
00000310: edff 57bd b0a7 a3bd 6643 2f3e ebfa 193e
00000320: 9aab f33a 1580 19be b8bd ae3e 1022 30be
00000330: 8ad9 b13d c907 19be c9af b8bd 4459 c3be
00000340: fa39 113f 4dcf c13c 34a6 063e e956 1fbe
00000350: c291 fb3d d501 36bd 24a0 533e 8962 52bd
00000360: c2ff 22be 2d2c 61be 9337 193e b2ab 103d
00000370: acb7 14be f565 353d a7db 48be 7278 143f
00000380: b5a0 2fbe b0c6 99bd b126 89bd cb8e 233d
00000390: 7f2e 88bd 022c c73c 3062 ea3e cb64 e23d
000003a0: fc3e 13bd e716 233e c65f 65be 3706 52bd
000003b0: 45b2 48bd 66f0 4fbe 0dba 453e 0e00 b23e
000003c0: ecd7 1f3d f4ac 25be 9870 f83d 35bc a03d
000003d0: 5fc6 2abe a269 9e3e 8699 d9bd c7f7 e33e
000003e0: a7b1 cd3e 5d36 8d3e c48a 56bd f859 c4be
000003f0: 0586 923e 9016 0ebe 5682 dd3d d104 a2bd
-0.14770989 0.036349643 -0.056741223 -0.060689915 -0.015445536 0.025848242 0.03390364 -0.090926416
-0.071639635 0.17964616 -0.05679402 0.34052727 -0.066376746 0.07095086 -0.049463496 -0.27747568
0.0825467 -0.09492842 0.069173954 0.058540694 -0.02753391 -0.17619313 -0.0473032 -0.18512022
-0.03130282 -0.18277825 0.16656661 -0.06549144 0.0024998358 -0.01536217 -0.010661881 0.2287482
-0.14704958 -0.029520875 0.047123924 -0.0014477514 -0.023514383 0.04071218 -0.13621707 0.06740953
0.0126907425 -0.2653306 0.3046888 0.026534926 0.25773755 -0.23799068 0.09170468 -0.13142723
0.014887524 0.03566466 -0.17598964 -0.0023953759 0.055040624 -0.11639498 -0.10886796 0.031237248
0.13724779 0.011178251 -0.061917555 -0.02270498 0.01705955 -0.005626958 -0.078058496 -0.103250876
-0.080551095 0.006424941 -0.11558207 0.008329188 0.07527167 -0.17627032 -0.065346524 0.013021882
-0.11487838 -0.03409588 0.07389215 -0.105714425 0.055481277 0.10924887 -0.1576684 -0.04925822
0.109563984 -0.067680426 -0.045444068 -0.050638486 0.38698176 -0.3191452 0.123906545 -0.36433575
0.25639337 0.29517582 -0.09436784 0.099045426 0.090551265 -0.055575863 0.05696566 0.11081955
-0.08296335 0.03443148 0.029823033 -0.4972414 0.36350122 -0.3051453 -0.08024072 -0.071175575
-0.17285849 -0.046961587 0.01820702 -0.12488028 -0.06732283 -0.0106050735 0.022119729 -0.15251593
0.17947756 0.17288299 -0.125509 -0.072350346 0.06588762 0.047961377 0.01716019 0.008795985
0.06733437 -0.09564979 0.18685146 0.09988252 -0.05756386 -0.22562444 -0.006535763 -0.05570603
-0.14272182 -0.08178424 -0.057753365 0.022386365 -0.08347046 0.056248836 -0.034578916 -0.018974446
-0.028638858 -0.00234628 -0.05693923 0.071037054 0.057159152 -0.077585526 0.06013477 -0.399365
-0.106037386 -0.020812703 -0.10127372 -0.17031777 0.0598031 -0.11783195 -0.044780407 0.07417901
0.025887405 -0.1289642 -0.030684136 -0.13410887 0.032587826 0.023137147 0.011032185 -0.06355386
0.016401732 -0.0054007187 0.010773939 0.038179226 0.033847034 -0.18611611 -0.07586021 0.14895454
-0.13855505 0.062136404 -0.06142049 -0.059302114 0.030412726 -0.14630443 0.0038285553 -0.011238177
-0.1869668 -0.055495158 0.06489542 -0.041570935 -0.060159348 -0.014198182 -0.15043256 -0.10217864
0.014404104 0.027826505 -0.15565366 -0.0043849056 0.11421193 -0.14995606 -0.14173642 0.09116878
-0.09186644 -0.2605371 -0.058929354 -0.10061433 -0.052734304 -0.07990968 0.17115554 0.15037124
0.001859057 -0.14990266 0.3412912 -0.17200494 0.086840704 -0.14944376 -0.09017903 -0.38154042
0.5672909 0.023658419 0.13149339 -0.15560497 0.122836605 -0.04443534 0.20666558 -0.0513635
-0.15917876 -0.21989508 0.14962606 0.03531999 -0.1452319 0.044286687 -0.1961504 0.57996285
-0.17151149 -0.075086 -0.06696833 0.0399311 -0.066494934 0.024312977 0.45778036 0.11054381
-0.03594874 0.15926705 -0.22399816 -0.05127546 -0.048998136 -0.20306548 0.19309254 0.34765667
0.03902428 -0.16179258 0.121308506 0.07848398 -0.16677235 0.30939966 -0.106249854 0.44524977
0.401746 0.27580538 -0.05237843 -0.3834989 0.28617874 -0.13875794 0.10815875 -0.07911075

rnn.weight_hh_l0 f4 [192, 64]
00000000: 62cf 883e 8157 fa3d 5c71 8ebd 27ae 223e
00000010: b450 363e 0fa2 8cbc be42 ffbc 02e3 cc3d
00000020: 65d5 d93c c80d c53c 5360 65be 8720 6abd
00000030: ee56 9638 78c2 3f3e 13d4 3cbe 06c2 5f3c
00000040: 6ce3 8fbd 570d 3f3c 13b1 f5bc 78a3 cebc
00000050: bf88 163e 3788 0f3d cdb2 b33c e59f 823c
00000060: 483f b5bd 1333 5d3d 22ed c1bd 31eb 88bb
00000070: 3bcc 8c3e 7757 8bbd a169 cc3c 8d05 09bd
00000080: 13a9 a03a b969 a4be ce27 8b3c dbc4 e2bb
00000090: 89c4 6a3d ac7b de3d e036 ffbd 1b5b e83d
000000a0: b011 25bc 2329 8fbd fdd1 263e 7322 b63c
000000b0: 5a6d fabc 43bf 9b3d 7773 2f3e b651 ab3c
000000c0: 005d 3f3e 3ed7 21bc cbf4 d23b 1bf1 29bd
000000d0: 5000 16bc 8a1c adbd 421a 853e fe90 973d
000000e0: ef7e d93c a1a4 0a3b ff81 3f3c 08e3 3f3d
000000f0: 749d cbbd 3239 9a3d 2003 7b3d 7546 68be
00000100: 3041 5b3e ec9a b03d 51f1 b53c ec8b bd3d
00000110: 7dfb 14bd b0a7 d4bc ea48 743d 7158 12be
00000120: a12a edbd b140 e33d 40d3 153e c14c bfbd
00000130: 2855 30bd de4b 643e e2d4 57be d48c 893d
00000140: f3a8 61be cd56 823c 44f7 fcbd f763 563e
00000150: 85eb 173e ed57 26bd 860a de3d 36e3 9c3d
00000160: 843e 8fbd 7afb 733c 49ee 47be 615b a13d
00000170: b17c e13d 0b73 883d 7dea e3bd 0785 213e
00000180: 4900 683e 72cb 7fbe a7c8 ad3d a581 5abd
00000190: 7c44 39bb 3ef9 2d3e c42d 693d cd1e 6b3e
000001a0: c36d 273e c27a bbbb 21fe f8bd 43ed eb3c
000001b0: 5c7c bb3c 9900 cebc ae86 3f3d 34cf f43d
000001c0: e149 25be 6fea 8dbc 0159 16bd 6bb1 dc3c
000001d0: c953 e33b f6d0 503b 14f4 4abe 4f79 65bd
000001e0: 0022 6fbd e287 f13d 6212 27bd 1ae4 91bc
000001f0: 8c09 26be c8c3 22bd 8c2e 02bb b28d 6fbe
00000200: c1c2 2b3d 2a03 01bd 1b07 13be 0e6b b33d
00000210: 1bd5 e4bd 0cc0 ca3d 45ad b0bd 4be4 6fbd
00000220: bb10 af3d 74b3 b1bd 6eb5 9b3c c53b 083d
00000230: 2944 933d f91d 6fbd 23b9 12be d900 19be
00000240: c703 063e 1df6 e7bc c74e 22be a118 3b3d
00000250: d0d2 b8bb d2a8 5bbd d63e 8cbd 459a cc3d
00000260: af3e afbd 6367 afbc 54aa 1c3d 1fb0 06be
00000270: 72aa e93d add9 7b3e 45c7 9b3c d8b3 7c3d
00000280: 1de1 c9bc 5877 98be 82f1 29be 4b36 1ebd
00000290: 7a9b a1bd d59e 793d 93b9 d4bd 67a3 c03d
000002a0: 28cb 063d 4fd7 29bd 8769 0dbd 7fc2 a83d
000002b0: e5bc f3bd faf8 fcbd 2643 153d ab87 b1bd
000002c0: be49 3bbd 024d 90bd 8b50 053e 0c2d c8bd
000002d0: d13a 123b 06e6 20be 83fb 163c ad49 2d3d
000002e0: 2a60 ed3d c9bc d2bd 5cd2 10be 8b4f da3d
000002f0: 7d09 3b3d 9ce8 babd 5dfe 20bd 4bd7 eebd
00000300: 2347 ed3d 7a60 07bd ea78 bb3e 9113 88be
00000310: b59c dc3d 42eb d1be 50e2 a83e b718 b43d
00000320: b2f1 4c3d ef28 b13e 5cb0 953d c656 2bbe
00000330: d983 cdbe 78dd b53e 27b5 60bd f570 e33e
00000340: b9b5 9bbe e7cd 883e 033b c63e bc36 713e
00000350: 7912 993e b234 8b3e 53e5 ea3d 11ab d3be
00000360: 5db6 1fbe 9cf5 a9be e8ec 4e3d 1498 dd3d
00000370: 5157 613e 2e3b 45be f876 403e 00e4 233e
00000380: 00b5 0d3d e187 ff3c e05d 9f3e eaf8 b93e
00000390: 8171 8b3e 6b24 9bbb 2eb0 8a3e 18fb af3e
000003a0: 1acc 30be e837 423e b6db dbbe ac5e f0bd
000003b0: c871 e63e c433 9e3e c881 13bd fd6b 733e
000003c0: 53c8 3a3d 4457 f13e e10e aabe e580 bf3e
000003d0: 6d67 59be e80f a33e 89dd 65be 2b1c e33d
000003e0: f9c7 d5be 7f8c bd3e 5327 b73e 3fda c9be
000003f0: c29e 52be 4295 873e 3dcb d23d 4cab a3bd
0.2672072 0.12223721 -0.06955215 0.15886746 0.17804223 -0.01716712 -0.031159755 0.10004236
0.026591012 0.024054423 -0.22400026 -0.057159927 7.168749e-05 0.18726528 -0.18440275 0.013657099
-0.07025799 0.011660895 -0.029991662 -0.025224432 0.14700602 0.035042014 0.021935845 0.015945384
-0.088499606 0.054003786 -0.094690576 -0.0041784276 0.27499565 -0.06803792 0.024952712 -0.03345256
0.0012257419 -0.3211191 0.016986754 -0.0069204397 0.057316337 0.10863432 -0.124616385 0.11345502
-0.010075018 -0.06990268 0.16291042 0.022233224 -0.030569721 0.0760484 0.1713389 0.020912986
0.1868782 -0.009877978 0.006437873 -0.0414897 -0.009155348 -0.08452709 0.25996596 0.07400702
0.026549784 0.0021155255 0.011688708 0.046847373 -0.09942141 0.075304404 0.061282277 -0.22683127
0.21411586 0.08623299 0.022209795 0.092552036 -0.03637265 -0.025958866 0.05963985 -0.1429155
-0.115803964 0.11096323 0.14631367 -0.093408115 -0.04304996 0.22294566 -0.21077302 0.06716314
-0.22037105 0.01591053 -0.1235185 0.20936571 0.14835937 -0.040611196 0.10841851 0.076605245
-0.06994346 0.0148915 -0.19524492 0.07878757 0.11010111 0.06662568 -0.111287095 0.15773402
0.22656359 -0.24979952 0.08485537 -0.053346295 -0.002826958 0.1698961 0.05692841 0.22960968
0.16350465 -0.005721421 -0.12157846 0.028799659 0.022886448 -0.02514677 0.0467593 0.11953583
-0.16141464 -0.0173237 -0.036705974 0.026940068 0.006937478 0.0031862832 -0.19819671 -0.056023892
-0.058382034 0.11793496 -0.040789016 -0.017808963 -0.1621458 -0.039737493 -0.001986417 -0.23393896
0.04193378 -0.031497158 -0.1435818 0.087606534 -0.11173459 0.09899911 -0.086267985 -0.058567327
0.08548113 -0.08676806 0.01900741 0.033260126 0.07190735 -0.058378194 -0.14328437 -0.1494173
0.13087378 -0.028315598 -0.15850364 0.045677785 -0.005640365 -0.053627796 -0.068479225 0.09990362
-0.08556878 -0.021411603 0.038248375 -0.13153122 0.11409463 0.24594755 0.019015918 0.06169495
-0.024643475 -0.29778552 -0.16596034 -0.038625997 -0.07890983 0.06094249 -0.10386958 0.094061665
0.03290859 -0.0414651 -0.034524467 0.08240222 -0.11901263 -0.12352176 0.03644099 -0.08668455
-0.045724623 -0.07045938 0.13019006 -0.09774217 0.002231289 -0.15712747 0.0092152385 0.04230659
0.115906075 -0.10289914 -0.14142746 0.10659703 0.045663346 -0.09126398 -0.03930508 -0.116621576
0.11585834 -0.03305099 0.36615688 -0.26577428 0.10772077 -0.409998 0.32985163 0.087937765
0.050035186 0.34601542 0.073090285 -0.1673232 -0.40139654 0.3552053 -0.05486026 0.44422117
-0.3041208 0.2671959 0.38716897 0.23556036 0.29896906 0.2718864 0.114695214 -0.4134145
-0.1559691 -0.33195198 0.0505189 0.10820022 0.22005965 -0.19260857 0.18795383 0.16004944
0.034596443 0.031192722 0.31126308 0.3632272 0.27235034 -0.004734566 0.2708754 0.34371257
-0.17265359 0.18966639 -0.42941064 -0.11736807 0.45008683 0.3089887 -0.03601244 0.23771663
0.0456012 0.4713689 -0.33214477 0.37403026 -0.2123086 0.31848073 -0.2244779 0.11089357
-0.4175413 0.37021253 0.3577219 -0.3942432 -0.20568374 0.26481062 0.10292671 -0.07991657

rnn.bias_ih_l0 f4 [192]
00000000: 4336 933d fd22 143c 7cb3 59bd 31cf e9be
00000010: 5b85 453d a8bb 413c be75 a5bd 2975 013d
00000020: d891 25be a21d bfbd e36e 163e 40ed d5bd
00000030: 90df 13bd 305f 45bd cc15 a43e 8075 f6bc
00000040: 0634 fbbc 68c8 89bc fc03 18bb e4f8 11bc
00000050: 8b8e 99bd 0f4a 47bd 43cb 39bc a66a 5cbb
00000060: bbce 203d 860e 08bd e8fa e6bc e935 24bd
00000070: dbc8 8f3e 9f30 d23e 34ab 113b 181b 863c
00000080: 0801 d93d 85e9 993e d962 6bbd 770f 0e3b
00000090: b3ca 0ebc 8b3b 62bd f220 d0bc 8a5f 4fbd
000000a0: 2a85 013f 15d7 8a3e f6e1 2d3c 6738 263d
000000b0: 271e 2ebd 618a 5dbd f8eb 723c 478c 81bd
000000c0: 83ad bc3d 5d70 8f3c 3f94 a0bd c2f7 c8bd
000000d0: 29fd 76bd d361 d2bb dbe9 0a3e 1642 d03c
000000e0: 8910 afbc 8b75 90bd 03b9 8dbd 9a68 99bc
000000f0: 7bd2 8e3c 9986 febb 53f4 d83c 6766 ce3d
00000100: a66e 53bf 37f9 57bf 4b67 5cbf 6535 3e3f
00000110: e073 a4bf 04d9 83be 7824 40bf 0832 9dbf
00000120: 65c3 6b3d a391 46bf 4fd0 c2bf 54d3 b7be
00000130: c949 56bf f08a 5abf 632e 253f d9bc 2bbf
00000140: a4c1 5abf 6497 21bf c9cb 2dbf 3a8b 59bf
00000150: 3555 37bf 1f50 4dbf 33cb 5ebf aeab 48bf
00000160: b784 61bf f056 56bf de84 21bf 2870 16bf
00000170: 7df8 1f3f 8a63 1b3f 950d 80bf 44a8 86bf
00000180: 4e31 c3bf 66c8 2d3f 73a0 3cbf 27c6 6bbf
00000190: 609c 4ebf 0379 c6be 8d1c 6abf 9cce 44bf
000001a0: 9c22 d13e 3942 333f f873 b7bf 3f45 4dbf
000001b0: b19b 53bf 947b 3fbf 5eb8 5bbf 871f a7be
000001c0: 0dc8 a8bf f044 46bf e354 39bf 5aae 4cbf
000001d0: a23c 3dbf 148a 5abf 2eaf dbbf 402f 47bf
000001e0: 401c 40bf c312 65bf 9887 3abf 6db3 44bf
000001f0: 897a 63bf ce6f 81bf de7e 5fbf 4905 5dbf
00000200: 0341 523c 8ab7 153c 605f 57bc b689 4bbc
00000210: f4b1 103b 72ee 6c3c 5237 6ebc 23f3 1bbc
00000220: 2307 2c3b 12fb 79bb f61b 133c a461 3f3c
00000230: 939d d33b 6183 43bc 2a32 10bc 7c76 fd3a
00000240: 5495 7e3b f8c3 de3b 234b 22bc 9f2f b03b
00000250: 50e3 753b 27dd ddbb 35ab 033b c9ea 143c
00000260: 8211 c4bb b519 f139 a77b 54bc 80f5 86b8
00000270: 1bfb 383c 5da6 313c bb9a aaba 7384 b23b
00000280: 7a92 c13a 63fb 4abc 134c 2cbb 5888 b93a
00000290: 4102 9bba 5984 873c 47cb 233b c9de 9c3b
000002a0: 645e c8bb 9950 2dba 814f f1bb d48d c83b
000002b0: 0303 d83b b6f4 76bc 7d8e 823c 6f6c 173b
000002c0: 29fc b8bb dbe9 58bb a388 9a3b 9884 853a
000002d0: 3482 6bbb b760 68bc d8aa 173c caac 28bb
000002e0: 743a d73b 2a0b a53a df63 77bc 02f2 22bb
000002f0: 0459 42bc c9b4 6bba 7c96 a0bb 2a7b c6bb
0.07188084 0.009041545 -0.053149685 -0.45665887 0.04822288 0.011824526 -0.08079098 0.031605873
-0.16168916 -0.09331824 0.14690737 -0.104456425 -0.036101878 -0.04818648 0.3204788 -0.030085325
-0.030664455 -0.016819194 -0.0023195734 -0.008909438 -0.07497891 -0.048654612 -0.011339965 -0.0033632903
0.039259654 -0.033216976 -0.028195813 -0.040090475 0.28082928 0.4105272 0.002222729 0.016370341
0.105959 0.30060974 -0.057467315 0.0021676698 -0.008715319 -0.055232566 -0.025406335 -0.050628223
0.5059382 0.2711722 0.010612955 0.040581133 -0.042509224 -0.054087047 0.014826767 -0.06325584
0.09212782 0.017509634 -0.07840776 -0.09812881 -0.060300026 -0.006420353 0.13565771 0.025422137
-0.02137019 -0.070536695 -0.06920054 -0.018726636 0.01743435 -0.00776751 0.02648369 0.100781254
-0.8259071 -0.84364647 -0.8609511 0.74300224 -1.2847862 -0.25751507 -0.75055647 -1.2280893
0.05755939 -0.77565974 -1.5219821 -0.35903418 -0.8370634 -0.8536825 0.64523906 -0.67085034
-0.8545172 -0.6312163 -0.67889076 -0.8497807 -0.7161439 -0.8020038 -0.8702881 -0.7838696
-0.8809313 -0.83726406 -0.63093364 -0.58764887 0.6248854 0.6069876 -1.0004145 -1.05201
-1.5249422 0.6788391 -0.73682326 -0.9209923 -0.8070736 -0.387642 -0.91449815 -0.7687776
0.40846717 0.7002292 -1.4332266 -0.80183786 -0.8265944 -0.7479794 -0.85828197 -0.3264124
-1.3186051 -0.7744894 -0.7239515 -0.7995354 -0.73920643 -0.8536694 -1.7162836 -0.7780647
-0.75043106 -0.89481753 -0.7286315 -0.7683628 -0.8885885 -1.0112245 -0.8730296 -0.8633619
0.012832883 0.009137997 -0.013145298 -0.01242297 0.0022078725 0.014461147 -0.014539557 -0.0095184175
0.002624937 -0.0038144034 0.008978834 0.011680994 0.0064579933 -0.011933179 -0.008801023 0.0019337679
0.003884633 0.0067982636 -0.009905609 0.0053767706 0.0037519522 -0.006770748 0.002009106 0.00908918
-0.0059835324 0.00045986255 -0.012968934 -6.435346e-05 0.011290337 0.010842887 -0.0013016084 0.005447918
0.0014768385 -0.012389037 -0.002629046 0.0014155013 -0.0011826233 0.0165426 0.002499299 0.0047873002
-0.006114768 -0.0006611436 -0.007364214 0.006120423 0.006592156 -0.015072992 0.015937084 0.0023105403
-0.005645294 -0.0033098373 0.0047159954 0.0010186611 -0.0035935761 -0.014183215 0.009257041 -0.0025737756
0.0065682475 0.0012591828 -0.015099495 -0.0024863486 -0.011862043 -0.00089914777 -0.0049007516 -0.006057163

rnn.bias_hh_l0 f4 [192]
00000000: 466e 813d 9a01 8f3b 10cb 4fbd e3b8 e6be
00000010: 7d3d 1c3d ba89 1b3c 50b2 bdbd 9615 fb3c
00000020: 77d3 31be 3c5e b9bd 50b4 183e a6c9 bbbd
00000030: e8ab 2abd 832d 42bd b794 a83e 7e17 a5bc
00000040: f8bb 14bd d85c adbc bb43 71ba ea6e 6bbb
00000050: 3c66 9abd a739 54bd 2369 373a ef5b a9ba
00000060: 1a46 4c3d 6511 fabc 5502 a3bc d0fd 10bd
00000070: 26eb 8f3e 3e7f cc3e e93e 08bb 7838 843c
00000080: e9bf de3d bca5 9c3e 5d7c 53bd 5128 143c
00000090: d760 37bc 0a01 4bbd ef87 04bd f114 78bd
000000a0: cebf 043f b833 893e 0bf7 3e3c 3b98 463d
000000b0: 726d 14bd 771d 52bd 2268 723c 9e7f 8dbd
000000c0: a5c3 ce3d 9327 343c 278a aebd 33b7 c4bd
000000d0: 6b29 8ebd 91f2 58bb f3bc 003e 2ba4 053d
000000e0: 645b 6fbc 0f6d 96bd 8e3f 6cbd cac9 b4bc
000000f0: 6469 ab3c 31fb 8abc 42cf 843c df55 d33d
00000100: da0e 55bf 9f62 59bf 6a20 5ebf 5b68 3d3f
00000110: 28f0 a4bf c930 86be a1e1 40bf dc38 9fbf
00000120: 7911 4e3d 8b7c 45bf 570d c3bf 1079 b5be
00000130: 01fa 53bf c019 5abf d24c 253f 896e 29bf
00000140: 2585 59bf 8f3f 1fbf 4239 29bf 7a33 57bf
00000150: aac4 36bf 55a7 4dbf f36b 5ebf c6d6 4abf
00000160: a098 62bf 7355 55bf a6aa 24bf 2ff9 14bf
00000170: c177 203f eb3f 1a3f 4213 7fbf 9b2b 87bf
00000180: 4b84 c4bf f050 2d3f d5e4 3fbf aa4a 6dbf
00000190: 7a55 4ebf 989b c5be e922 67bf 25ae 44bf
000001a0: 8c66 d23e fb32 353f 09bc b7bf 4e7e 4cbf
000001b0: c1cd 52bf 0577 40bf f1b2 5fbf abaa aabe
000001c0: bc33 a9bf 5c24 45bf 4445 3abf ff25 4fbf
000001d0: f23b 3dbf f72f 59bf 5bd8 dabf bc8a 47bf
000001e0: 67f5 3ebf 5b54 64bf 98b1 38bf c0fb 47bf
000001f0: c2b0 63bf c7dd 80bf 5cff 61bf abc8 5bbf
00000200: 0f7f 9bbc 54bf 59bc eb8b 953c 69dd 123d
00000210: 47d7 103a f7d6 c7bc 6b16 6b3c c9b3 ab3c
00000220: bd43 8f3b 7a2b 833a 6fb5 8bbc a8b6 18bb
00000230: b9b3 a93b 9f33 423c edd7 cf3b 3d45 443b
00000240: 3fde 25bc 8c27 03bc eec9 813c 7843 d8bb
00000250: 5373 fdbb 2716 ab3c 6470 3d3b 1b91 f1bc
00000260: 5846 9c3c 6cd6 b1bb b8f8 873c 815c 863a
00000270: c500 13bc d43c 0ebc 809d fd3b 39a1 0abc
00000280: ab79 aaba b0ec af3b 0816 963b e2f4 0a3c
00000290: 6cc5 96b9 842c a5bc 105d 0a3c 40e5 a2bc
000002a0: 234a 623b c6d2 20bb 1306 c33b 7974 f3bb
000002b0: 812e 823b 0b43 b83c 72af 9abc 75f2 8cb9
000002c0: 8da8 3a3c b716 5abb 0280 56bb 5bde ea3b
000002d0: b920 b33b 8a89 833c 1589 12bc 99f6 553a
000002e0: 3915 24bc 6852 1ebc 328d bd3c a11b 9b3b
000002f0: 7a02 6b3c cc6b f83b f24e 923b 2fbc 6b3c
0.06319861 0.0043642046 -0.050730765 -0.45062932 0.038144577 0.009493286 -0.09262526 0.030649941
-0.17365824 -0.09051177 0.14912534 -0.09169321 -0.04166785 -0.047406685 0.3292596 -0.020152804
-0.036312073 -0.021162435 -0.0009203513 -0.0035924264 -0.07539031 -0.051812794 0.00069965626 -0.0012921075
0.04987154 -0.030525872 -0.019898573 -0.035398304 0.28109092 0.39940828 -0.002078945 0.016140208
0.10876448 0.30595195 -0.051632274 0.009042815 -0.011192522 -0.049561538 -0.0323562 -0.060566846
0.5185517 0.2679727 0.011655579 0.048485022 -0.036237188 -0.05129763 0.014795335 -0.06909107
0.1009591 0.010995763 -0.08522444 -0.09605255 -0.069414936 -0.0033103565 0.12572078 0.032627266
-0.014609192 -0.0734502 -0.057677798 -0.022068877 0.020924278 -0.01696548 0.01621211 0.10319113
-0.83225787 -0.8491611 -0.8676821 0.7398736 -1.288579 -0.26209095 -0.7534428 -1.2439227
0.050309632 -0.7714316 -1.5238446 -0.35443926 -0.8280335 -0.8519554 0.64570343 -0.6618429
-0.8496879 -0.6220636 -0.66102993 -0.8406292 -0.71393836 -0.80333453 -0.8688347 -0.7923397
-0.8851414 -0.8333351 -0.6432289 -0.58192724 0.6268273 0.6025378 -0.9963876 -1.0560182
-1.5352873 0.67701626 -0.74958545 -0.92692053 -0.80599177 -0.3859527 -0.90287644 -0.76828223
0.41093862 0.70780915 -1.4354259 -0.79880226 -0.82345206 -0.7518161 -0.8738242 -0.33333334
-1.3218913 -0.77008605 -0.7276194 -0.8091735 -0.73919594 -0.84838814 -1.7097276 -0.77946067
-0.74593204 -0.89191216 -0.72145987 -0.78118515 -0.88941586 -1.0067681 -0.8828027 -0.8585307
-0.018981485 -0.013290245 0.018255195 0.035855684 0.0005525243 -0.024394495 0.014348607 0.020959752
0.0043720887 0.0010007464 -0.017054288 -0.002330223 0.0051788953 0.011853128 0.006342879 0.0029948496
-0.010123788 -0.008005034 0.015843358 -0.00659984 -0.007734695 0.020884586 0.0028906101 -0.029488137
0.019076511 -0.0054271724 0.01659809 0.0010250957 -0.008972351 -0.008681495 0.0077397227 -0.00846129
-0.0013006231 0.0053687915 0.004580263 0.008481236 -0.0002875732 -0.020162828 0.008445039 -0.019884706
0.0034529052 -0.0024539693 0.005951652 -0.007429656 0.003972829 0.022492906 -0.018882487 -0.00026883525
0.011392725 -0.00332777 -0.0032730107 0.00716762 0.0054665473 0.016056795 -0.008943816 0.0008162051
-0.0100148255 -0.009663202 0.023138616 0.004733518 0.014343852 0.0075812098 0.0044649774 0.014388128

rnn.weight_ih_l0_reverse f4 [192, 3]
00000000: fc24 da3c dbe8 483d 1f2c 533c 3847 3f3d
00000010: e93e 543d 5840 aa3d 1859 43bc db45 093d
00000020: 8558 a93e cdec fbbb 0137 90bd 9922 543d
00000030: 075c 14bd e982 22be a18b 223e a72e 323c
00000040: 445e ad3c 19cc a83c e862 c13c 90b2 403d
00000050: d4ee 633e e993 f2bc ef8d a63d 0fe3 00bd
00000060: 73a7 a33c d1ff c83d 6495 803e 163c 38bb
00000070: ebb7 4f3d f3b5 f4bb 84f2 7cbc 4a41 033d
00000080: d80f 563d 7f57 863d 66d8 f1bb 08e3 6c3d
00000090: b4e7 e83b cd6a db3c c4c4 9d3d eb14 583d
000000a0: e6dc a0bc c9b2 abbe 8f51 093e 1608 c1bc
000000b0: 028b 35bf be04 373e e4ac ae3e cad9 013e
000000c0: 3660 c33d b6bf a23d 9a29 aebc 6905 aebc
000000d0: 09ba 50bd 01cc a1bd 04cc 1cbe 5ead 823d
000000e0: c1fe 8f3e ceea 62bc bef8 fabc cbf0 e43e
000000f0: a8a5 49bd 6e46 aabd 9585 603d e7f4 70bd
00000100: 9c67 04bd 8cee 4b3e 66c6 16bd ed01 01bd
00000110: 8d68 033c af97 10bc b681 18bc ee79 60bc
00000120: 5823 603d 2660 b4bc 66f2 b23c 11f2 beba
00000130: d87d a63c 5143 543e 6b9b 6fbc 551f b93c
00000140: cd88 7ebd 82ee 23be 10b9 95be 8910 7d3e
00000150: 8d57 843d d795 b9bd 950f 563e 2685 b5be
00000160: 285e 513e 03c6 0e3f 1ae2 08bd f7f2 873c
00000170: afc0 413e ae87 823d 3004 113e 0ead d03d
00000180: 2622 1ebd 2576 8abd 4cb2 0d3e a8fb f8bd
00000190: a7e9 c2bd c4b8 283d d63b 04bd 0e0c 853c
000001a0: dbc9 9f3c c541 5e3c fdf0 223d ce1e d9bd
000001b0: 5a9a 153c bc4b 133e 4978 b53d 6acc 8abc
000001c0: c7c4 c53c 125b 96bd 08ea 56bd 59ef 483c
000001d0: 73e8 1ebc 20e6 7a3e 24a7 0cbd 0622 b43d
000001e0: a71f 743c 4ec4 383d ba89 eb3c db9e 4ebd
000001f0: ea93 2b3d 0eac a53d b929 963c bcb7 a7bc
00000200: d3a0 32bc ac90 8d3d fbf7 dcbd 31b2 66be
00000210: f98d bf3b 1620 6ebd 5760 1d3d b9dc 2b3d
00000220: 0ea6 1e3d cee3 08be 5d53 09be 7743 923c
00000230: 3c8c a13e 5054 283d 7f94 b73d 04bc 14be
00000240: e7ec 733c cc16 cfbc 68d3 7939 6b8c 983d
00000250: e2b0 a03d 1214 e13c 44a2 5abd 8b62 533c
00000260: cfbc db3d cfd1 92bd 7131 9f3d 3075 a1bc
00000270: c166 debd d828 0fbd 1e92 183e 7309 243e
00000280: b2c4 e3ba 0b80 b63c d463 49bd d5a4 a9bb
00000290: 61c6 5d3e 17aa b9bc f97d 82bc a31e 8e3d
000002a0: 3cfd efbd af2b c73c fe40 043e 933b 6f3d
000002b0: d070 eb3d d2f2 55bd e22c d2bc cd82 adbb
000002c0: 1512 3c3e 1dd5 bcbd af21 7fbc 37b6 083d
000002d0: 18e4 55be a00e 41be b229 483e 310b 103e
000002e0: 7c34 c0bd 35c0 0abe b3f1 e6bd 5c07 8a3d
000002f0: 0ac9 93bd f01c b7bd 0be2 363d f97a 0dbd
00000300: b6c3 633d 022f 97bc 8549 80be 2331 f13c
00000310: 885e 9a3a 82aa 9e3d adb2 c83e 048f 0c3f
00000320: 978b 6fbe b61f 5abe 4356 70be 31b1 b5bd
00000330: 06d7 b2bd 2e3f bbbd ceb2 303d f5a8 943b
00000340: 7854 1cbc d82b 9fbd 0796 fe3d 0551 8bbd
00000350: 45a6 013e ecb9 103d 0c3e edbc 5d19 e4bd
00000360: d8aa 82bd af60 243d 9e29 4ebe d317 a23e
00000370: 0f88 55be d42f 9bbe 390c bdbd 2db5 17bd
00000380: eec9 aabd 7062 8a3c b08e 9abc d647 15be
00000390: 3ffd 643d 487c 2d3e a370 f4bc df27 14bf
000003a0: f8cc 04bf 18e8 bd3d c39b 13bf 433c f7be
000003b0: 46bb 8a3d 0939 1eba b908 dcbd aec2 89be
000003c0: 1864 06bd 451f 1b3d 140b 6cbd c640 913c
000003d0: 9996 bcbd 716a 91be 1048 34bd f09b 9a3c
000003e0: 0d72 98ba bf4a 703e 029c f33e 5dc6 84be
000003f0: 2e37 733d 0444 9ebd 09a7 b03d 69fe 003e
0.026628964 0.049050193 0.012888937 0.04669878 0.05181781 0.08313054 -0.011923097 0.033513885
0.33075348 -0.007688141 -0.07041741 0.051790807 -0.036220577 -0.15870251 0.15873577 0.010875381
0.021163113 0.020605134 0.023606732 0.04704529 0.22259074 -0.029611545 0.081325404 -0.03146654
0.019977307 0.09814418 0.25113976 -0.0028111986 0.050712507 -0.007467979 -0.01543868 0.032044686
0.052261204 0.06559657 -0.007380533 0.0578337 0.0071076993 0.026784325 0.07703546 0.052754324
-0.019636583 -0.3353484 0.13410018 -0.023563426 -0.70915234 0.17872903 0.3411628 0.12680736
0.09539835 0.07946722 -0.021260072 -0.021242814 -0.050958667 -0.07900239 -0.15312201 0.063807234
0.2812405 -0.013849927 -0.030636188 0.4471496 -0.049230248 -0.08314215 0.054814894 -0.058827307
-0.032325372 0.19915217 -0.0368103 -0.031495977 0.008020532 -0.008825227 -0.009308269 -0.013700945
0.054721206 -0.022018503 0.0218441 -0.0014567991 0.020323679 0.20728804 -0.014624457 0.022597948
-0.062142182 -0.16008952 -0.29242754 0.24713339 0.064620115 -0.09061783 0.20904382 -0.35453147
0.20446074 0.5577089 -0.033418752 0.016595347 0.18921159 0.06373535 0.14161754 0.101892576
-0.038606785 -0.067608155 0.13837546 -0.121573746 -0.09517222 0.04119183 -0.032283626 0.0162411
0.019505432 0.013565485 0.039780606 -0.10601579 0.009131039 0.14384359 0.08860833 -0.016943175
0.024141682 -0.07341589 -0.052469283 0.012264096 -0.009698975 0.24501848 -0.034339085 0.08795552
0.014900125 0.045109086 0.028752197 -0.050444465 0.04188911 0.080894575 0.018330442 -0.020473354
-0.010902601 0.069123596 -0.10789486 -0.22528912 0.005845782 -0.05813607 0.038421955 0.041958544
0.03873258 -0.1336815 -0.13410707 0.017854435 0.31552303 0.04109603 0.0896387 -0.14524847
0.014888025 -0.025279425 0.00023825245 0.074486576 0.07846238 0.02747539 -0.053377405 0.012901912
0.10729372 -0.07168924 0.07773102 -0.0197092 -0.108594425 -0.03495106 0.1489949 0.1601923
-0.0017377345 0.022277853 -0.04916747 -0.00517712 0.21657707 -0.022664113 -0.015929209 0.06939437
-0.117182225 0.024312822 0.12915418 0.058406424 0.11496127 -0.052233525 -0.025656167 -0.0052951337
0.18366273 -0.09220336 -0.015571996 0.0333769 -0.20887792 -0.18853235 0.19547155 0.14066769
-0.093850106 -0.13549884 -0.11276569 0.06739685 -0.072160795 -0.08941066 0.044649165 -0.034541104
0.055606566 -0.018455032 -0.2505609 0.029442376 0.001177744 0.077473655 0.3919882 0.54905725
-0.23393093 -0.2130116 -0.23470406 -0.08871687 -0.08732419 -0.0914291 0.04313927 0.004536743
-0.009541623 -0.077720344 0.12430959 -0.068025626 0.12661083 0.03533356 -0.02896025 -0.1113765
-0.06380242 0.040131267 -0.20133063 0.316588 -0.20852683 -0.30309927 -0.09230847 -0.037038017
-0.08339296 0.016892642 -0.018866867 -0.14578184 0.055905577 0.16941941 -0.029838866 -0.5787334
-0.5187526 0.09272784 -0.5765955 -0.48288164 0.06774001 -0.00060357206 -0.10743851 -0.2690634
-0.0328103 0.037871618 -0.057627752 0.017731082 -0.09208412 -0.2840152 -0.044014037 0.018873185
-0.001163067 0.23466013 0.47579962 -0.2593259 0.059378795 -0.07727817 0.086256094 0.1259705

rnn.weight_hh_l0_reverse f4 [192, 64]
00000000: 9841 adbb dcb2 953c 5c92 f83d 4ca7 b83d
00000010: 293b c63b 8e8a c0bb 128c 873c 14e3 8aba
00000020: 6b27 90bc 33d9 6abc 467e 483a 43cc 943c
00000030: fa42 bebc 4025 103e ce1c c7bd e0cc 9e3b
00000040: b6d7 aebb 0dac 833b 41ee c4bb 76c2 b2bd
00000050: e1f6 72bc 7295 0dbd 7974 3dbb cf50 9abc
00000060: 9f66 883a bb68 a4bb 9e9c 123c f674 c937
00000070: 3561 293b f601 03bd f830 073d 8cb5 923c
00000080: 2507 c9bc 2470 213c 2e3c 97bd 828c 5c3d
00000090: d9af 95b9 ebc0 c53c 394e edba 9c59 c13b
000000a0: 7160 38ba af8a 1cbd bf40 e33a 1c8f 48bb
000000b0: 44ec 93bb 0c50 b5bc 6335 a03c 92f2 13be
000000c0: b729 723c ab9b 07bb 2267 9abb 580c 743b
000000d0: dee5 c03c eb90 4dbc 8fad 6abd 8b34 d73c
000000e0: c45f 6fbc 30c8 97bb 325f 293b 553c 93bc
000000f0: f8e2 d3bb 4f3f 3cbc 2b31 133b 37fb 643a
00000100: f179 2ebd cfd7 80bb beee 903e f8ea 423e
00000110: 29af bcba 843e 8abc b49b 9cbc 1f2b 5c3b
00000120: e105 4fbd 499f 1abd 3a50 e23c aa3f 1c3d
00000130: 0960 8ebd 7021 a83e 5513 94be 141b 0c3d
00000140: 404e 92bd f611 453d 5814 773c 2540 42be
00000150: 267a b83b b28c 0dbe f9bb 063d c1cc eebb
00000160: e613 5e3c dc95 2fbd 5a28 2fbd 50bc 373d
00000170: 2fcd bf3c 8896 403b 0e55 163e 0d0e 943d
00000180: 18ea adbc a606 2d3d 6c53 2dbe 764c fd3d
00000190: 4bea 8abd fec7 7dbc 2b4f 203d e29a e0bc
000001a0: d237 7dbc 5f86 84bd e85c 90bc 6648 74bd
000001b0: 274e 91bc 5449 983b 2acf 823b a967 92be
000001c0: 6524 9f3c abff 84bb 3242 1ebd 3440 24bd
000001d0: af2a 093e 917f 8e3c b2a2 22be 5b5e 1e3e
000001e0: 7bd4 81bc 8a7a 24bb b0da d93d 6f54 06bd
000001f0: 6c4b 92bc 1ded b53c 6b66 2d3d 1ac3 c43c
00000200: cc01 023e 7b2e 003e 3e58 0d3f baca 89be
00000210: b163 cb3d 9059 393e 2858 ff3a 5507 a5bc
00000220: 9b95 b93e 2a00 4dbe 1f55 1c3e 655d 27bd
00000230: fcb6 f8be dada 86bd 5a8c 1cbe 1b3b 35bd
00000240: a271 80be 6c2f 513d 3c1e 6e3d 564a 08bf
00000250: 2dd4 4f3e 2671 9fbe cf19 383e 7312 44bd
00000260: 9e3d d33d e4bc e6be 77b4 2ebe cd72 f6bd
00000270: 125a fdbd 9a1f 893c 427b aa3e 46fe 963e
00000280: 2db3 0b3e 0964 373e 31ad 703e 87d3 00be
00000290: a896 373d 72e0 e43c 7037 db3d d27f cebc
000002a0: 5c42 293e e7b8 a53e 0986 95bd 9e30 e7bd
000002b0: 22a1 12be 0e1b 633e 4814 55bc 06fc f93d
000002c0: 3663 093e 2640 cf3d 02b3 183e 8e7a c4bd
000002d0: 608e 953e fe82 5c3e 997f 67be a84f 993e
000002e0: b899 09bd cf25 353e 6a20 da3e e5e2 6b3e
000002f0: c655 1e3e 4dd8 323e 42c6 123d e180 483d
00000300: ab04 193d 02a7 013d b8d7 c2be 44b1 ff3e
00000310: 2b94 9f3d fb78 513c f2bc 40bc b698 74bd
00000320: a4e4 e2be 99af c5bc 73db 83bd 3cda cbbd
00000330: 3713 e63e 5bea fc3e a045 c5be 2be0 53bd
00000340: 0d02 ea3d 2bc2 26bd 9403 2cbc fc7d e53e
00000350: f101 09be 7d2f ce3d d21c 913c 045c 9c3d
00000360: 556f 1cbd 8bb2 e73e 21a2 733d 2a70 d8bd
00000370: 8348 97bd 14be a6bd 2864 fbbd 8212 2abe
00000380: 6c1b d63d 059c 5cbc 9db6 e6be 7efc 5a3e
00000390: 54d0 94bd c0a5 fabc ad46 28bd e122 56bd
000003a0: e14b 1e3c c6dd ecbe ea62 2a3d 93cd 6e3c
000003b0: f2fc 923d 597c 27be 8e63 6cbc 98f8 edbe
000003c0: 28c6 11bd ce28 6e3d 5760 2bbe 9552 1e3d
000003d0: 28b2 58bd 877e 0cbe f86b b3bd c1ea 84bc
000003e0: f192 323c 7788 07be f320 dabe cc19 42be
000003f0: bfe9 7a3d 0abf 60bd af50 d23d fe92 bcbd
-0.0052873604 0.018273763 0.12137291 0.09016284 0.006049533 -0.005875892 0.016546283 -0.0010596239
-0.017596921 -0.014334011 0.0007648211 0.018163806 -0.023225296 0.1407671 -0.09722291 0.0048462003
-0.0053357733 0.004018313 -0.0060098474 -0.08728497 -0.014829368 -0.03456635 -0.0028908534 -0.01883736
0.001040656 -0.0050173677 0.008948473 2.4015531e-05 0.0025845293 -0.031984292 0.033005685 0.017908834
-0.02453954 0.009853397 -0.07384525 0.053844936 -0.0002855051 0.024139842 -0.0018104977 0.005900575
-0.0007033414 -0.038218196 0.0017338021 -0.0030602878 -0.004514249 -0.022132896 0.019556707 -0.14448002
0.014780453 -0.002069215 -0.0047120014 0.0037238803 0.02354711 -0.012546758 -0.057294425 0.026270172
-0.014610235 -0.0046320185 0.0025844094 -0.017973104 -0.006466266 -0.011489703 0.0022459726 0.00087349437
-0.04259676 -0.0039319764 0.28307146 0.19034946 -0.0014395464 -0.016875513 -0.019117214 0.0033595038
-0.050542716 -0.037749562 0.027626146 0.038146652 -0.06951911 0.3283801 -0.28921 0.03420551
-0.07143831 0.048112832 0.015080534 -0.18969782 0.0056297956 -0.13823202 0.03289411 -0.007287592
0.013554549 -0.042867526 -0.04276309 0.044857323 0.023413269 0.0029386599 0.14680883 0.072292425
-0.021229789 0.04224267 -0.16926354 0.123680994 -0.06782969 -0.015489576 0.039138 -0.027417604
-0.015455203 -0.06470942 -0.017622426 -0.059639357 -0.017737461 0.0046474133 0.003991981 -0.2859471
0.019426534 -0.0040587983 -0.038637348 -0.04010029 0.13395189 0.017394813 -0.15882376 0.15465681
-0.015848389 -0.0025097453 0.106374145 -0.032795366 -0.01785823 0.022207791 0.042334 0.024018813
0.12695998 0.12517731 0.5521277 -0.2691248 0.09931124 0.18100572 0.0019481229 -0.020145098
0.36246952 -0.20019594 0.15266846 -0.040860552 -0.48577106 -0.065847114 -0.15287915 -0.04424582
-0.25086695 0.051070616 0.058134302 -0.5323843 0.20295782 -0.31141013 0.17978595 -0.047869157
0.10314487 -0.45065987 -0.1706103 -0.12033615 -0.12370695 0.016738702 0.33297163 0.2949087
0.13642569 0.17909254 0.23503567 -0.12580691 0.04482141 0.027939055 0.10703933 -0.025207434
0.1652922 0.32367632 -0.07300956 -0.1128857 -0.1431928 0.2217829 -0.013005324 0.12206273
0.13416752 0.10119657 0.14912036 -0.09593688 0.29210186 0.21534345 -0.22607268 0.29943585
-0.033593863 0.17690204 0.42602855 0.23035772 0.15462407 0.17465325 0.035833605 0.048951034
0.037357967 0.03165341 -0.38055205 0.4993993 0.07791933 0.012785192 -0.011763798 -0.05971595
-0.44315064 -0.024131583 -0.06438341 -0.09953734 0.44936535 0.4939755 -0.38529682 -0.051727455
0.114261724 -0.040712517 -0.0104989 0.4482268 -0.13379647 0.100676514 0.017713938 0.07634738
-0.038192112 0.45253405 0.05948079 -0.105682686 -0.073868774 -0.08141723 -0.12274963 -0.16608623
0.10454449 -0.013464932 -0.45061198 0.2138538 -0.07266298 -0.030596614 -0.041083027 -0.052279357
0.009661646 -0.4626295 0.041598238 0.01457538 0.07177152 -0.16356029 -0.014428033 -0.46478724
-0.035589367 0.058144383 -0.1673597 0.038652975 -0.052904278 -0.13720141 -0.08760828 -0.01622522
0.010899291 -0.13235651 -0.42603263 -0.18955153 0.061258074 -0.05486969 0.102692954 -0.09207724

rnn.bias_ih_l0_reverse f4 [192]
00000000: 3038 24c0 9ac4 00c0 ceab af3d 8b62 d73d
00000010: 0fd0 8bbe ac48 20c0 d612 2abf 5ee8 84bf
00000020: 8454 be3d c362 31bf a627 a9bd f4c6 a8bf
00000030: 5585 033e 6c5f bb3c ac71 a2be ae86 69bf
00000040: 441a b6bd 57b9 d4bf 1093 33bf 80b0 c73d
00000050: 2dea 8abd fab6 6cbd c05a c7bf 2d75 0ec0
00000060: a470 07c0 2270 973d 8a31 ccbd 8b7b 86bf
00000070: 615b a6bf d72d 03bf 0f98 92bd b57c 86bd
00000080: 5aff 22bf 345f 23bf c7ad 163d e936 3ebd
00000090: 9a86 8fbd 1671 7abf fba4 04c0 c56b 49be
000000a0: 20a6 25c0 14c2 af3d 23ee 12c0 77bd b6bf
000000b0: 490b 94bd 88c8 eabd dfa1 3cbf 48b2 743d
000000c0: 1b91 05c0 aa58 24be de2e 64bd 80b4 e1bf
000000d0: 35a3 88bd 2675 c0be 56bb 1bbe 4c21 9abd
000000e0: 70df 40bf 7e2b bcbd cf42 2b3e 2ed6 89bd
000000f0: f837 b3bf 5626 00bf 961f 9cbe 9cf1 0fc0
00000100: e8be 8b3e db59 003f 2dd0 703d ef27 78bd
00000110: c629 de3e bcfc 663e d6b3 3d3f 00f3 203f
00000120: 37c7 8cbd 8552 443f 6039 b83e a068 123f
00000130: 663a abbd b99a 293e e889 0d3f c4d9 e83e
00000140: 3eb0 8c3e 918d 223f db03 433f 0a7b 523d
00000150: b07d 9d3e 7d91 5c3e b9f3 193f a569 233f
00000160: 1664 2d3f 9b80 b53b 4e98 da3e e17a ae3e
00000170: 0555 ad3e 5675 3f3f 0aef 3a3e 52e9 333e
00000180: 7fc5 ba3e 649c 3d3f a3dc c33d a0f5 573e
00000190: e20a c23e b61e 393f d460 233f c8f5 223f
000001a0: dc0a 913e 6701 3abc d68b 203f d051 2c3f
000001b0: f66b b93e ed2e e13e 47cb 393f 3d05 0f3e
000001c0: 1c55 233f 9524 f33e 13b0 6d3e 9592 233f
000001d0: 4bc4 703e 086c 2e3f 3bcc 9f3e 4169 883e
000001e0: 550d 393f 232c 923e 4b13 0dbe 0be6 1d3e
000001f0: 5370 fd3e b531 3f3f 0dfb 343f 3020 233f
00000200: d701 3d3a 2eee 45ba 5ca5 4b3c 2f01 6a3b
00000210: d1f4 453a 0099 97ba 04df e2ba 54ef 51b9
00000220: 0f3e bb3a 34ce 623b 3acd 0a3c ece0 1e3b
00000230: 7e30 26bc e762 8e3c b712 43ba ff46 45bb
00000240: ba46 1ebc ed4b 6b3a 753d 343a bbbf 50bc
00000250: b27b cbba 3ce4 f53a 6192 0ebb e2b0 55bb
00000260: 046e 463b 35d0 5ebb fefc cb3a 3fa9 803a
00000270: 20eb 313b 2b37 fdb9 51c6 c3bb 79b8 8bbb
00000280: 6539 e139 0f83 d8b9 13a3 9ebb 28cf b43b
00000290: 01a4 b93b 3664 02ba 1d48 37ba dae5 87bb
000002a0: 5d09 44bb 811e 113c 49df 10b9 a0db 9cb9
000002b0: a916 4c3a 35de 4aba fcdc baba ff39 67bc
000002c0: bf12 3dba 8b0c 0a3b fb10 e0bb 1957 28b7
000002d0: 57ad dd3a bcfe 30bb f701 5a3b 8452 283b
000002e0: 7996 173a 4129 373b 6c15 043c a959 1ebb
000002f0: 169e 413a 0048 80b9 d0b2 d03a a835 de3a
-2.5659294 -2.0119996 0.08577691 0.105168425 -0.27307174 -2.5044355 -0.6643499 -1.0383413
0.09293464 -0.69291323 -0.082595155 -1.3185716 0.12843831 0.02287265 -0.3172735 -0.9122113
-0.088917285 -1.6619061 -0.70146275 0.097504616 -0.06782947 -0.057791688 -1.557457 -2.2259018
-2.11625 0.073944345 -0.09970386 -1.0506452 -1.2996637 -0.5124182 -0.07157909 -0.06566755
-0.63670886 -0.63817143 0.03678682 -0.046439085 -0.07008095 -0.97828805 -2.0725696 -0.19670017
-2.5882645 0.08581939 -2.2957847 -1.427657 -0.07228715 -0.114640296 -0.73684496 0.059740335
-2.0869815 -0.16049448 -0.05570876 -1.7633209 -0.06671754 -0.37589377 -0.15208182 -0.07525882
-0.7534094 -0.09187983 0.16724704 -0.06730305 -1.4001455 -0.50058496 -0.30492848 -2.2491217
0.27294087 0.5013711 0.058792282 -0.06058496 0.43391246 0.22557348 0.7410253 0.6287079
-0.06873935 0.76688415 0.35981274 0.57190895 -0.08360748 0.16562928 0.55288553 0.45478642
0.27478212 0.63497263 0.7617776 0.05138687 0.30759954 0.21539874 0.60137516 0.63833076
0.67730844 0.0055390126 0.42694324 0.34078124 0.33853927 0.74788415 0.18255249 0.17569473
0.36478803 0.7406676 0.095635675 0.21089792 0.37898928 0.72312486 0.63819623 0.6365628
0.28328598 -0.011352873 0.6271337 0.67312336 0.3621518 0.43981114 0.725758 0.13966842
0.6380174 0.47488847 0.23211698 0.6389554 0.2351238 0.6813359 0.31210503 0.26642802
0.7228597 0.285493 -0.13776891 0.15419786 0.4949976 0.7468522 0.70695573 0.6372099
0.0007210052 -0.0007550445 0.0124295615 0.0035706272 0.0007551434 -0.0011565983 -0.0017308895 -0.0002002095
0.0014285463 0.003460777 0.008471781 0.002424295 -0.010143397 0.017381145 -0.00074414484 -0.0030102131
-0.009660417 0.00089758524 0.0006875613 -0.012741025 -0.0015524535 0.0018760036 -0.002175473 -0.003260665
0.0030277977 -0.0033998613 0.0015563068 0.0009816064 0.0027148202 -0.00048297024 -0.005974569 -0.004263934
0.00042958106 -0.00041296377 -0.0048412173 0.005517859 0.0056653027 -0.0004974039 -0.0006991642 -0.0041472735
-0.0029912808 0.00885737 -0.0001381609 -0.00029918272 0.0007785359 -0.00077388 -0.0014256532 -0.014112948
-0.0007212571 0.0021064605 -0.0068379617 -1.0033859e-05 0.0016912621 -0.0027007302 0.0033265331 0.0025683949
0.0005782615 0.0027948173 0.008061748 -0.0024162328 0.00073859224 -0.00024467707 0.0015922431 0.0016953247

rnn.bias_hh_l0_reverse f4 [192]
00000000: a3a4 23c0 2a19 01c0 f40d b13d b48a ea3d
00000010: c1b6 8ebe 54d9 1fc0 b8fe 2cbf 82ef 85bf
00000020: bdc0 d83d 6806 2dbf 18bd 92bd 5ae3 a9bf
00000030: d42c 023e b254 0d3d dac1 a4be dbde 69bf
00000040: b17d a9bd 6938 d3bf cb92 32bf 0abe be3d
00000050: bee5 78bd a169 5dbd c90d c7bf 2e0e 0fc0
00000060: 78e5 07c0 27b3 863d 290c cebd 460b 87bf
00000070: d5c2 a5bf 425f 05bf cda1 93bd 8df8 a9bd
00000080: be35 25bf b575 27bf 5dc7 043d 1f5d 3abd
00000090: ba9a 8abd ebd1 77bf db21 05c0 e140 48be
000000a0: c575 26c0 5e27 af3d 3217 13c0 5f2f b8bf
000000b0: 87c1 84bd d5e3 c9bd 5cc3 3bbf e17b 7b3d
000000c0: 2c69 05c0 9e64 1dbe 97a9 5bbd 7635 e2bf
000000d0: c08f 9ebd 0e61 bbbe 78d2 18be 1b49 a7bd
000000e0: bcf8 3ebf f370 b6bd 8c07 2c3e 406d 84bd
000000f0: 3642 b3bf 8fe5 fcbe e9c7 9dbe 9e0e 0fc0
00000100: 538a 873e 79d7 ff3e c8e3 3f3d acae 5bbd
00000110: 13e7 dd3e 1726 673e bc5b 3e3f be11 223f
00000120: b3a4 91bd 13a7 413f fc4e b63e 5738 143f
00000130: bd73 96bd 87ed 2c3e 6c95 093f 97e0 ec3e
00000140: 101e 923e d868 223f 03c3 463f bb96 6a3d
00000150: 99a4 9e3e d927 633e adfc 1c3f ff62 1f3f
00000160: 390f 2c3f 4491 fb3b 9afc da3e 6e82 b03e
00000170: 750a b63e 2310 3e3f 7249 3d3e d912 363e
00000180: 172b ba3e 98ef 3c3f ad45 bd3d 8a6a 603e
00000190: 8e77 bc3e 445d 393f 325a 263f 52c7 233f
000001a0: f2ef 933e 1c6f 33bc 7b7a 1e3f d1f5 283f
000001b0: 5e86 b43e 0237 e43e 907b 3b3f 6919 013e
000001c0: 6bb9 203f 6692 ed3e 249c 683e b1eb 223f
000001d0: fe96 783e b736 2d3f cc01 a23e 55d1 7c3e
000001e0: 93b2 393f bcf4 8f3e d473 19be 2f0f 253e
000001f0: 1f2a f83e d67d 3e3f b379 343f f417 273f
00000200: 8bab beb7 db08 b3ba e2e6 b1bc 00af 4abc
00000210: c523 0dbb 5dc2 d1ba 8fb7 f0bb 7193 1e3b
00000220: 2437 6fbc 82c8 88bb 9b8d 6bba 2453 d93a
00000230: 01f7 573b 849c 1bbc 0d1a aeba cc33 593b
00000240: 8f6c a13b 7460 813a d719 b23a cf9c 833c
00000250: efb1 093c 0259 13bc fef6 eaba a282 3bbb
00000260: 2faf 523b 8618 813b 120e 003c 3d61 a2bb
00000270: e7f4 d93a ad71 44bb 1b0e 09bc 3789 80bc
00000280: 02ce e1ba 91f9 f33b d1b5 483c c176 d63b
00000290: 062b a8bb 31f6 903b a81c fcb9 caab 2c3c
000002a0: 9e66 42bb 6936 823b cd7e 54b9 326d 0c3b
000002b0: c8e4 30bc f8b3 853b bbec dcbb 827c 6b3c
000002c0: 2b47 b0ba 3fef 02bc e005 303c 10f3 67ba
000002d0: 96c4 5c3c a655 23b9 b900 1d3c 294f 143a
000002e0: 61cd 433b 7f83 a2bb cc3c 043c 5904 d73b
000002f0: 2d91 c53a c898 893b d57b 3bbb 7d7b 383b
-2.5569236 -2.017161 0.086452395 0.11452237 -0.27873805 -2.4976397 -0.6757617 -1.0463717
0.10583637 -0.675879 -0.07164973 -1.3272507 0.12712413 0.0345046 -0.32179147 -0.91355675
-0.08275927 -1.650159 -0.6975524 0.09313591 -0.060765974 -0.054055814 -1.5551082 -2.2352405
-2.1233807 0.06577139 -0.10060913 -1.0550315 -1.2950083 -0.52098477 -0.072085954 -0.082993604
-0.6453513 -0.6541398 0.03241669 -0.045498963 -0.06767793 -0.96804684 -2.0801914 -0.19556
-2.600938 0.085524306 -2.2982907 -1.4389457 -0.06482225 -0.09857909 -0.7334497 0.061397437
-2.0845442 -0.15370414 -0.05362853 -1.7672565 -0.07742262 -0.36597484 -0.14924037 -0.08168241
-0.7459829 -0.08908262 0.16799754 -0.0646615 -1.4004581 -0.4939389 -0.30816582 -2.2352672
0.2647272 0.4996908 0.04684809 -0.053633377 0.43340358 0.22573124 0.74358726 0.6330832
-0.07111492 0.7564556 0.35607135 0.5789847 -0.07346294 0.16887484 0.53743625 0.46265098
0.2853856 0.6344123 0.77641314 0.057272654 0.30984953 0.2218317 0.6132305 0.6226043
0.6721073 0.007677229 0.42770845 0.3447451 0.35554853 0.7424337 0.18485048 0.17780627
0.36361 0.7380309 0.09241805 0.21915641 0.36809963 0.7240794 0.6498138 0.63976014
0.28894 -0.0109517835 0.6190564 0.66000086 0.35258764 0.44573218 0.73235416 0.1260735
0.62782925 0.46400756 0.22715813 0.63640887 0.24276349 0.67661613 0.31641996 0.24689229
0.7253811 0.28116405 -0.14985591 0.16119073 0.48469636 0.7441076 0.704982 0.65270925
-2.2729646e-05 -0.0013659255 -0.021716539 -0.012370825 -0.0021536213 -0.0016003359 -0.0073461006 0.0024196769
-0.014600549 -0.004174293 -0.00089856394 0.0016580564 0.0032953622 -0.009497765 -0.001328291 0.0033142446
0.0049262713 0.0009870664 0.0013588023 0.016065983 0.008404239 -0.008993389 -0.0017926393 -0.0028611799
0.0032147875 0.003939691 0.007815855 -0.0049554394 0.0016628773 -0.0029974983 -0.008365179 -0.01569043
-0.0017227533 0.007445522 0.01225038 0.0065449183 -0.005132082 0.0044238796 -0.00048086536 0.010539005
-0.0029663215 0.0039737714 -0.00020265132 0.002142739 -0.010796733 0.004080292 -0.0067420877 0.014372947
-0.0013448944 -0.007991611 0.010743588 -0.000884817 0.013474604 -0.00015576798 0.009582692 0.0005657548
0.0029877054 -0.004959523 0.008071136 0.0065617976 0.0015073173 0.004199121 -0.0028607745 0.0028149777

rnn.weight_ih_l1 f4 [192, 128]
00000000: 33fd 173e 9e4b e13d 01d0 643d 272a f23b
00000010: c2d7 36bd 6d7b e8bd 89f1 9ebc 751d 52bd
00000020: b496 4e3e 8966 923d efed e53d 3c51 893d
00000030: 502f 1ebe cfae f63c 7f56 d7bd a6d7 e53d
00000040: 8abc ca3b 4845 213e f9bb 46bd 2d30 c6bd
00000050: 301a 063e cdf7 b73c 1c4d b9bd 91c1 29bd
00000060: 594b d5bd 5e60 0ebd 39d1 093d f63d d4bb
00000070: 6361 503d a0e2 5abe 2601 123d c203 e93c
00000080: 8541 0a3e 05af acbc 238d 47bd 0a68 853d
00000090: 4354 023d 1d06 5e3e bb5d 33bd 3913 0d3e
000000a0: 509e 50bd 0203 853e 1f63 14be d6c7 833a
000000b0: 975d ad3d 1c71 fa3c 9667 f93d 2d1c cb3d
000000c0: b86f 45be ffb0 f23d a352 5fbc 42f3 f83a
000000d0: 3972 27bd 16d7 263d 0be1 8ebe ff9b ac3c
000000e0: 275c 90bd 8bb0 9bbb 0022 f73c 4bda 94bd
000000f0: 347e eebc 9b46 653c 2aa3 493e da57 48be
00000100: 7cae 0dbc 921b 74bd c9ed 3a3d 138f 663d
00000110: f2c3 1b3e 6016 553c 47d0 54bd 1ec8 c2bd
00000120: ba06 bb3d 2a1b a2bb cb5e 6c3e 89ee babd
00000130: 7cd9 37bc 4126 c73c eb4e 4a3d dcb6 a2bd
00000140: 0b01 b2be 0f4c 92bd 300d 8a3d 6a31 7f3d
00000150: eab9 693e 33de 63be a105 43bd b274 773d
00000160: b6e5 04be 1dbc fabb d778 c1be e00f a63c
00000170: 13cc 13be 4dbc 933c 2479 603e 2da8 2d3e
00000180: 0400 3c3e 8f8b c3bd 16a5 ebbd fcec 3bbe
00000190: 8f8b 033e dee1 0cbe 89f1 1dbd 7970 90bd
000001a0: 1cc9 c6bc 1758 20be bac6 2c3e 2cdb 2539
000001b0: 76d1 a4be 9772 993e 2b12 e2bc 42c4 0ebc
000001c0: 76b1 e3bd ec28 2f3e e607 513e 46ee 473d
000001d0: 7c79 ae3e 03ef 923e 7dc8 95be 6586 683e
000001e0: ffc0 f63d 2795 903e f254 bd3c 226a 683e
000001f0: df29 3bbd 87cb 833e 0a86 aebd 644c 29bb
00000200: eef1 32be f0c6 87be 48b9 b83d c68b c83d
00000210: c30e 963e bd12 643e 252a 5a3e 06b5 1e3e
00000220: 8cc9 89be 6887 503e 64dd eabd 11e5 f3bd
00000230: ca9b 8b3d 2bea ae3e 8745 f1bc a5c8 c63d
00000240: a7fb 61be 51ba de3d b5b2 8d3d 8eb7 213e
00000250: 19a2 363e 7cae 1f3c caf7 783e bb33 93bb
00000260: 59d6 9a3e 9d40 b63d 6c65 84bd 76e9 903e
00000270: 49e0 223e d76c d13d 0d3e 0abe 8114 073d
00000280: c1b5 afbe cf2c 6e3e 99e6 813e ecd5 ea3b
00000290: 1611 46bd cbdb a7be cd3e 753e e5aa 9a3d
000002a0: 6ed4 80bd 66c2 bbbe 349e e63d f23b 05bf
000002b0: 7595 323e e3c9 683e 9c9f a8be 446a 4cbd
000002c0: 8cc3 733d 2f64 07be cd4b d3bd 9eb3 193e
000002d0: 5e7b c2bd c7af a73e 4fca 853e 6293 23bd
000002e0: 99ea da3d d301 fb3d ce4c 3b3e c4fc 143e
000002f0: 4edb d0be 132a 623d f974 41be b74e 8c3e
00000300: d438 e1bc a8d7 fbbd 883b 033e fa86 9e3e
00000310: 5f12 59bd 4892 63be 55db 593d c636 183e
00000320: 45a7 91bd b35b 263e dd58 81be b68b 043e
00000330: 163b 77be 43b5 a73e 2fd3 223e 79f6 79bd
00000340: 191a 083e 1473 8b3d e506 96bd adb7 89bd
00000350: 37e4 c63c 1e31 013e c230 6ebe 7ab6 38bc
00000360: fcec d0bd 142b 27be dbee 5c3d 5e0a e03d
00000370: 22a1 343e 5557 283c 62cf 1cbe 78f0 4abe
00000380: 3514 40be d054 83be a6b0 0dbf 56af 983d
00000390: 50da d0bc ebf6 cb3c e248 afbc 0ff4 303d
000003a0: 7d39 d5bd ba43 05be cab1 78bc adfc 8bbc
000003b0: 3edd 0c3e e549 a3bc 95e6 ab3d 6709 a9be
000003c0: 25c0 16be 464d fcbc 60c6 17be 3e88 8c3d
000003d0: cee8 4fbe 3cf5 a3bd 3ccb 0a3e 6edd 69be
000003e0: edc9 0cbd da37 30be a4a3 8c3e 27d6 43be
000003f0: 9d60 9ebe fa13 8fbd 105a e4bd 9367 3dbc
0.14842682 0.11000751 0.05586243 0.007390279 -0.044639356 -0.113516666 -0.019402282 -0.051297624
0.20174676 0.07148463 0.11227023 0.06704947 -0.15447736 0.030112652 -0.10514545 0.11222772
0.0061870264 0.15749085 -0.04851911 -0.096771576 0.13095927 0.022457028 -0.090479106 -0.041444365
-0.10414762 -0.03475987 0.033646796 -0.006477113 0.050874125 -0.21375513 0.035645626 0.028444175
0.13501556 -0.02107955 -0.048718583 0.065139845 0.03181864 0.2168202 -0.04379056 0.13776864
-0.05093223 0.25978857 -0.14490937 0.0010054063 0.084651165 0.030571513 0.121779606 0.099174835
-0.19280899 0.118501656 -0.013630542 0.0018993395 -0.040880416 0.040732466 -0.2790607 0.021070478
-0.07048827 -0.00475127 0.03016758 -0.072681986 -0.029112913 0.013993884 0.19691148 -0.19564763
-0.008647557 -0.059596606 0.045636926 0.05628879 0.15211466 0.013005823 -0.05195644 -0.095108256
0.09132142 -0.004947086 0.23083036 -0.09127528 -0.011221286 0.024310233 0.04939167 -0.07945034
-0.3476642 -0.07143413 0.067407966 0.062302984 0.22824827 -0.22252731 -0.04761279 0.060414024
-0.12978253 -0.0076518194 -0.37787506 0.020271242 -0.14433317 0.018034125 0.21921211 0.16958685
0.18359381 -0.09548103 -0.11506097 -0.18352121 0.12846206 -0.13758036 -0.038560424 -0.070527025
-0.024265818 -0.15658604 0.16872683 0.00015817274 -0.32191056 0.29970238 -0.027596554 -0.008713784
-0.11117832 0.17105454 0.2041317 0.04881122 0.3407706 0.28697976 -0.29254523 0.22707517
0.1204853 0.28238794 0.023111794 0.22696736 -0.04569423 0.25741217 -0.0852166 -0.0025832886
-0.17475101 -0.26518965 0.090197146 0.09792285 0.29308137 0.22272773 0.2130514 0.15498742
-0.2691158 0.20364153 -0.11468008 -0.11908925 0.06816824 0.3416303 -0.029452099 0.09706239
-0.22068654 0.10875381 0.06918851 0.15792677 0.17835273 0.00974619 0.24313274 -0.0044922507
0.3024166 0.08899043 -0.06464657 0.28303117 0.1590587 0.10225838 -0.13500233 0.03297854
-0.34318355 0.2325928 0.25371245 0.0071666148 -0.04835614 -0.32784876 0.23949738 0.07552127
-0.06290518 -0.36671752 0.112606436 -0.52044594 0.17439826 0.22733264 -0.32934272 -0.04990603
0.05951266 -0.13221811 -0.10317192 0.15009925 -0.09496187 0.32751295 0.26130912 -0.039935477
0.10689277 0.12256207 0.18291017 0.14549547 -0.40792316 0.055215906 -0.18892278 0.27403805
-0.027492918 -0.122969925 0.12815678 0.30962354 -0.052996036 -0.2222377 0.053187687 0.14864644
-0.07111982 0.16245918 -0.2526311 0.1294392 -0.24143633 0.3275548 0.15900873 -0.06102607
0.13291205 0.06809059 -0.07325534 -0.067244865 0.024278743 0.12616393 -0.23260787 -0.011273975
-0.10201451 -0.16325027 0.053938728 0.109394774 0.17639592 0.010274728 -0.15313485 -0.19818294
-0.18757708 -0.25650644 -0.5534767 0.07455318 -0.025494725 0.024898013 -0.021397058 0.043201502
-0.10411356 -0.13014117 -0.015179107 -0.017088259 0.13756272 -0.019932697 0.083935894 -0.33014986
-0.14721735 -0.030798566 -0.14821768 0.06861924 -0.20303652 -0.08005759 0.1355409 -0.22838375
-0.03437226 -0.17208806 0.27468598 -0.19124661 -0.30933085 -0.06986232 -0.111499906 -0.011560339
