trained_models/gru_k5.pt (torch, 711447 bytes, 26 tensors)

rnn.weight_ih_l0 f4 [192, 3]
0	0xbdb8b462	-0.0901878
1	0x3d88d3ae	0.06681
2	0xbe07bdb0	-0.13255954
3	0xb9104747	-0.00013759463
4	0x3dbb13ef	0.091346614
5	0xbc96fb25	-0.018430302
6	0x3d170a24	0.036874905
7	0x3b0850f0	0.0020800196
8	0xbe101b62	-0.14072946
9	0x3ebf9333	0.37416992
10	0xbdfee1b9	-0.12445397
11	0x3e3de513	0.18544416
12	0xbde8e937	-0.11372607
13	0xbda5af1b	-0.08090039
14	0x3dee60f9	0.1163959
15	0xbebcfffe	-0.36914057
16	0xbe940332	-0.28908688
17	0x3ebf98a1	0.37421134
18	0x3df95405	0.121742286
19	0xbda60966	-0.08107261
20	0xbe226ebf	-0.15862559
21	0xbc2d318b	-0.010570894
22	0xbcbaedd9	-0.022818493
23	0xbdafeeb7	-0.08590453
24	0x3ef2e9ce	0.47444004
25	0xbdba4c77	-0.09096616
26	0x3ea8338e	0.32851833
27	0xbde97afa	-0.11400409
28	0x3d19f665	0.037588496
29	0xbdf210d7	-0.11819618
30	0xbd6c01e1	-0.05761898
31	0x3dac8e18	0.0842554
32	0xbe366f1f	-0.17815827
33	0xbe07691e	-0.13223693
34	0xbd295793	-0.041343283
35	0x3db4fe8c	0.088376135
36	0xbd4bc94b	-0.049752515
37	0x3d0f8df9	0.035047505
38	0xbd246b72	-0.04014153
39	0xbd31a4e9	-0.04337016
40	0x3c5e5f23	0.013572487
41	0xbdfe5c2c	-0.12419924
42	0x3f06d2aa	0.526652
43	0x3e296535	0.16542514
44	0x3eafbc8d	0.3432354
45	0xbe0460f3	-0.12927608
46	0x3d82a115	0.0637838
47	0xbe0b2323	-0.13587622
48	0xbd0160f1	-0.03158659
49	0x3d743e93	0.059629988
50	0xbe87feae	-0.26561493
51	0xbe17917a	-0.14801589
52	0x3e160d92	0.14653614
53	0xbe1ce807	-0.15322886
54	0xbe351818	-0.17684972
55	0x3e5b8db1	0.2144077
56	0x3e731354	0.23737842
57	0x3d6d7674	0.057974294
58	0x3d94b602	0.07261278
59	0xbdca0d47	-0.09865814
60	0xbdc1b14d	-0.094576456
61	0x3d680897	0.056648817
62	0xbd097b2f	-0.033564743
63	0xbdf0ef0a	-0.11764343
64	0x3d37bcd8	0.04485783
65	0xbc76db35	-0.0150669115
66	0xbd7a74f5	-0.061146695
67	0x3d989cae	0.07451759
68	0xbd1d1b21	-0.03835595
69	0x3d31843a	0.04333899
70	0xbb8ce119	-0.0042992947
71	0xbd4543d1	-0.048160378
72	0xbd0b2836	-0.033973895
73	0x3dc6bff6	0.097045824
74	0xbcd1a195	-0.025589744
75	0x3ccaf503	0.024775034
76	0x3e0d830a	0.13819519
77	0xbd4535a5	-0.048146863
78	0xbdfe266b	-0.124096714
79	0xbb996402	-0.0046811113
80	0xbe392e27	-0.18084012
81	0xbe606603	-0.21913914
82	0x3d956176	0.0729398
83	0xbd0f0293	-0.034914564
84	0xbdefd84d	-0.11711178
85	0x3dafc64b	0.08582743
86	0xbe3d4065	-0.18481596
87	0x3d13942b	0.036029976
88	0x3d524137	0.051331725
89	0xbd738009	-0.059448276
90	0x3d131cd2	0.035916157
91	0x3be414bb	0.006960479
92	0xbc96df60	-0.01841706
93	0xbd904088	-0.07043558
94	0x3d4b3d41	0.049618963
95	0xbc93be72	-0.018035147
96	0xbdc9cc22	-0.09853388
97	0x3d5190a9	0.05116335
98	0x3e02006a	0.1269547
99	0xbecca49f	-0.39969346
100	0x3e85ca99	0.26131132
101	0x3d061fbe	0.032745115
102	0xbdb9a07f	-0.09063815
103	0xbc4d243c	-0.012520846
104	0x3c7ae84f	0.015314176
105	0xbdd329f4	-0.10310736
106	0x3d6c3ac8	0.057673246
107	0xbe2f2323	-0.17103247
108	0x3c98cb22	0.018651549
109	0x3bdf26c6	0.006810042
110	0x3dd2b12a	0.102876976
111	0xbe059725	-0.13045938
112	0x3d9b58d1	0.075853
113	0x3c9dbd06	0.019255172
114	0xbd453a55	-0.048151333
115	0xbcdedbed	-0.027204478
116	0xbdbe2374	-0.09284106
117	0xbdb25305	-0.08707241
118	0x39c9ba05	0.00038476303
119	0xbe9b1b58	-0.302943
120	0x3dc1609b	0.09442254
121	0xbcff0a3f	-0.031132815
122	0x3e9340d1	0.28760388
123	0xbd3445e5	-0.04401197
124	0xbdd0f761	-0.10203434
125	0x3e62f625	0.22164209
126	0x3c48d03e	0.01225668
127	0xbd73de5b	-0.059538227
128	0xbe0195c5	-0.12654789
129	0xbd85a1da	-0.06525011
130	0x3d383ae0	0.044978023
131	0x3bd37a38	0.0064537786
132	0xbdc5aa4c	-0.09651622
133	0xbd4dfea3	-0.05029167
134	0xbe3c22a4	-0.1837259
135	0xbc668045	-0.014068668
136	0x3c7bec4d	0.015376163
137	0x3dffd74b	0.12492236
138	0xbcab4ea2	-0.020911518
139	0x3da94dfe	0.08266829
140	0xbdaadbf8	-0.08342737
141	0x3ef60d3a	0.48056966
142	0xbe3d3655	-0.18477757
143	0xbe2a4620	-0.16628313
144	0xbdd1422e	-0.10217701
145	0x3db13058	0.08651799
146	0x3d614b04	0.05500318
147	0xbe0dd0a0	-0.13849115
148	0x3cf5c26e	0.029999938
149	0xbc964277	-0.01834224
150	0xbe0fef94	-0.14056236
151	0x3cd9168c	0.026500009
152	0x3e05c543	0.1306353
153	0xbc8c875d	-0.01715439
154	0x3c457ae1	0.012053222
155	0xbdbe61a2	-0.09295966
156	0xbdd133be	-0.10214947
157	0x3dc48a06	0.095966384
158	0xbc973ec5	-0.018462548
159	0xbe21d001	-0.15802003
160	0xbbbe7947	-0.005812797
161	0xbc64bba3	-0.013960752
162	0x3d22293a	0.039590098
163	0x3c168e85	0.009189253
164	0xbc94ff0a	-0.018188018
165	0xbdfa1f56	-0.12213008
166	0x3d9d2e4f	0.07674848
167	0x3d91b83a	0.071152166
168	0xbd40bcd7	-0.04705509
169	0x3cb7ed9d	0.02245217
170	0xbdedc588	-0.11609942
171	0xbe2edc19	-0.17076148
172	0xbd13b5d8	-0.03606209
173	0xbdd489b7	-0.103778295
174	0xbd62cc5a	-0.055370666
175	0xbda04abe	-0.07826756
176	0x3c2d123a	0.010563428
177	0xbceb7404	-0.028741844
178	0x3e2e2c94	0.17009193
179	0xbe4bef63	-0.19915538
180	0xbdd8d60f	-0.105877034
181	0x3db7061c	0.08936712
182	0xbd24f8d3	-0.04027636
183	0xbc85526a	-0.01627465
184	0x3c69c89f	0.014269023
185	0xbdd5aa28	-0.10432845
186	0xbdc787e9	-0.0974272
187	0x3dbdbbb2	0.09264316
188	0xbc5ede54	-0.013602812
189	0xbc8465a3	-0.016161745
190	0x3d1feb70	0.03904289
191	0x3cabf2a3	0.020989722
192	0xbe3dfe7f	-0.18554114
193	0xbed4d830	-0.41571188
194	0xbe3ffdba	-0.18749133
195	0x3db60512	0.08887686
196	0x3d81035e	0.0629947
197	0xbe876f69	-0.26452187
198	0x3d77fe9f	0.06054556
199	0x3e4318f6	0.1905249
200	0xbd608349	-0.054812703
201	0xbea9eaad	-0.33186856
202	0x3ef70dc9	0.48252705
203	0xbf02bc59	-0.51068646
204	0x3d92b589	0.07163531
205	0x3d97bdf9	0.07409281
206	0x3e30369e	0.17208335
207	0x3e143215	0.1447223
208	0x3dc712af	0.097203605
209	0xbe95a819	-0.2922981
210	0xbe16675e	-0.14687869
211	0x3d6375ab	0.05553214
212	0x3d69636e	0.05697959
213	0xbe4b2919	-0.19839896
214	0x3eaad86d	0.33368245
215	0x3dbd5b7f	0.09245967
216	0xbe82f672	-0.25578648
217	0xbd7f028d	-0.062258292
218	0xbd75b961	-0.059991244
219	0xbe05aed4	-0.13054973
220	0x3de5e43f	0.11225175
221	0xbe43e013	-0.19128446
222	0xbf05739b	-0.52129525
223	0x3e2d9ac6	0.16953573
224	0xbd560325	-0.052249093
225	0xbd4dc8d1	-0.05024034
226	0x3bbb8066	0.0057220934
227	0x3d2cb71e	0.04216682
228	0x3d8ec81d	0.06971762
229	0x3d8222d3	0.063542984
230	0x3e436cdc	0.19084495
231	0xbe00a318	-0.12562215
232	0x3e2c8ba7	0.16850148
233	0x3dddbe67	0.10827332
234	0x3e507312	0.20356396
235	0x3e8618d6	0.26190823
236	0x3d30ad2a	0.043133892
237	0x3d075065	0.033035655
238	0x3e813b48	0.2524054
239	0xbdb45127	-0.08804541
240	0x3dcbfca8	0.099603
241	0x3df87f5a	0.121336654
242	0xbe3faa0d	-0.18717213
243	0x3dc31f84	0.095274955
244	0xbd87c642	-0.066296116
245	0x3e0bd4b2	0.13655356
246	0xbf349bb7	-0.705501
247	0x3f4de245	0.80423385
248	0x3ec44f2e	0.3834166
249	0x3f02bb4a	0.5106703
250	0x3e93d941	0.2887669
251	0xbedd05e3	-0.43168554
252	0x3e288546	0.1645709
253	0x3de37a6b	0.11107334
254	0xbe0b7783	-0.13619809
255	0xbe8ad77c	-0.27117527

rnn.weight_hh_l0 f4 [192, 64]
0	0x3e1eab10	0.15494943
1	0xbb77a001	-0.0037784579
2	0x3c38d41d	0.0112810405
3	0x3e11f772	0.14254549
4	0x3e3da7bb	0.18521015
5	0x3cf4c245	0.029877791
6	0xbdb7f4b2	-0.08982219
7	0x3e4ac58f	0.19801925
8	0x3d7e1d93	0.062039923
9	0x3dff0886	0.124527976
10	0xbeb23028	-0.34802365
11	0x3c9c6130	0.019089311
12	0x3d3d0170	0.04614395
13	0x3cb95637	0.022624118
14	0xbdaa8067	-0.08325272
15	0x3bb63780	0.0055608153
16	0xbe03260c	-0.12807482
17	0x3cefbd91	0.029265197
18	0xbd425c24	-0.047451153
19	0x3c358b39	0.011080557
20	0x3de1f0a8	0.1103223
21	0x3cb9ec17	0.022695584
22	0x3ddb75d0	0.1071583
23	0xbb8b1397	-0.0042442787
24	0x3dfa9e44	0.12237218
25	0xbc850d9d	-0.016241843
26	0xbcdcc619	-0.02694993
27	0x3d1f2957	0.038857784
28	0x3d25c285	0.04046871
29	0x3df2e03d	0.11859176
30	0x3dabc881	0.083878525
31	0xbda75714	-0.08170906
32	0xbe01172c	-0.12606496
33	0x3c07ea14	0.008295555
34	0xbcbc68fb	-0.022999277
35	0xbde13e3b	-0.10998198
36	0x3db8e7f2	0.09028615
37	0xbc9865d1	-0.018603237
38	0x3cf4bdb9	0.029875623
39	0x3d6c5832	0.057701297
40	0xbcaa3984	-0.020779379
41	0x3cd6e306	0.0262313
42	0x3e7d31f6	0.2472609
43	0x3c19c683	0.009385708
44	0xbdc12265	-0.09430388
45	0x3dc8c4c9	0.09803159
46	0xbcb7d7f1	-0.022441836
47	0xbe3f256a	-0.18666616
48	0x3e172f9d	0.14764257
49	0xbc0480c9	-0.008087345
50	0xbe0e7ed0	-0.13915563
51	0xbdb793bc	-0.08963725
52	0xbdca8072	-0.0988778
53	0x3e07848f	0.13234161
54	0x3de22c8d	0.11043654
55	0x3d8acd85	0.06777481
56	0xbdaffba6	-0.0859292
57	0x3d944dd9	0.07241411
58	0x3d166504	0.03671743
59	0x3b489021	0.0030603486
60	0xbde3446c	-0.11097035
61	0x3d772015	0.06033333
62	0x3b8b74cf	0.004255868
63	0xbcf1fe16	-0.029540103
64	0x3c9961c5	0.018723378
65	0xbd337ab4	-0.04381819
66	0x3d6bf64c	0.057607934
67	0xbc514d79	-0.012774819
68	0x3d673cca	0.056454457
69	0xbd14b173	-0.03630204
70	0xbdaa3050	-0.08309996
71	0x3bcd5a00	0.0062668324
72	0xb99be2dc	-0.00029732927
73	0x3dbd2ecd	0.09237442
74	0xbd66a2f4	-0.056307748
75	0x3c2c4a98	0.010515831
76	0x3d544faa	0.051833786
77	0xbd0964bd	-0.033543337
78	0xbe5a0e54	-0.21294528
79	0xbca913dd	-0.020639354
80	0xbdf94b04	-0.12172511
81	0x3bde52e8	0.0067847855
82	0xbdb0f443	-0.08640339
83	0x3e9a6f36	0.30162972
84	0x3d653e4c	0.055967614
85	0xbd3a15e4	-0.045431033
86	0x3dc2f43e	0.09519242
87	0x3dc11a32	0.094288245
88	0xbb02739a	-0.001990533
89	0x3d72152c	0.059102222
90	0x3c3e073c	0.0115984045
91	0xbd85358e	-0.06504355
92	0xbe083b8c	-0.13303965
93	0xbbc48e9e	-0.0059984466
94	0x3c82ba18	0.015957877
95	0x3ae80193	0.0017700664
96	0x3c39170c	0.011296999
97	0xbe6c0644	-0.23049265
98	0xba20dea4	-0.00061366917
99	0xbd809297	-0.0627796
100	0x3dcdbcc8	0.10045773
101	0x3d3436f7	0.04399773
102	0x3e187c8c	0.14891261
103	0x3d49ebc8	0.049297124
104	0x3cfaf878	0.030636057
105	0xb93eee9c	-0.00018208701
106	0xbd3cbbc4	-0.046077505
107	0xbbf7400b	-0.0075454763
108	0x3d925f01	0.07147027
109	0xbc978d13	-0.018499887
110	0xbd019104	-0.03163244
111	0x3d0f27b2	0.034949966
112	0x3d22c2d8	0.0397366
113	0xbc815ede	-0.015792307
114	0xbbdd8949	-0.0067607504
115	0x3e12c85f	0.14334248
116	0x3c88c46e	0.016695227
117	0xbcb7182a	-0.02235039
118	0xbc21f1df	-0.009884327
119	0x3d82d936	0.06389086
120	0x3d0144fd	0.031559933
121	0x3d51eb29	0.051249657
122	0xbd4d9c9b	-0.05019818
123	0x3c8f9488	0.01752688
124	0xbdcd0105	-0.1000996
125	0xbd720fbd	-0.05909704
126	0xbdca7915	-0.09886376
127	0xbde3a365	-0.111151494
128	0x3d24bd0e	0.04021936
129	0x3c7ceaa8	0.015436806
130	0xbbd81bb7	-0.0065951007
131	0x3d6345a3	0.055486333
132	0xbd24b8a4	-0.04021515
133	0x3cf4e379	0.029893624
134	0xbdae1dd2	-0.085017815
135	0xbc201ade	-0.009772031
136	0xbd8d2433	-0.0689167
137	0xbdfc287d	-0.1231241
138	0xbdbebe49	-0.09313638
139	0xbd20f8c8	-0.039299756
140	0x3d99dc32	0.07512702
141	0xbdaf1162	-0.085482374
142	0xbe73169c	-0.23739094
143	0xbdb34949	-0.087542124
144	0x3d492d0d	0.04911523
145	0xbcc67ccf	-0.024229435
146	0xbc5da8ba	-0.013528997
147	0x3e6a9b94	0.22910911
148	0xbd846f02	-0.064664856
149	0x3d8469e1	0.06465507
150	0xbcfd34ae	-0.030908909
151	0x3c630ec8	0.013858505
152	0xbcd55a3d	-0.026044006
153	0x3c28eecd	0.010310841
154	0x3e0c029e	0.13672873
155	0xbe25bb5e	-0.16184756
156	0xbd0a847b	-0.03381775
157	0xbdb82bbd	-0.089927174
158	0xbcad5e83	-0.02116323
159	0xbd8cdccf	-0.068780534
160	0xbc5306ab	-0.012880008
161	0x3d26b5fc	0.040700898
162	0xbd4194e5	-0.047261138
163	0x3a445f7b	0.00074910343
164	0x3cb96dd1	0.022635372
165	0x3e02ecc7	0.12785636
166	0x3d169079	0.036758874
167	0xbda4611c	-0.08026335
168	0xbdfee6bb	-0.12446352
169	0x3c7254dc	0.01479074
170	0x3d6719d1	0.056421105
171	0x3d9f05be	0.07764767
172	0xbd2ac9f9	-0.041696522
173	0xbd59e901	-0.053200725
174	0x3d3c2b43	0.045939695
175	0xbdd49c78	-0.103814065
176	0xbca69217	-0.020333333
177	0xbdcdef90	-0.100554585
178	0x3d94f443	0.07273152
179	0x3d3f8b16	0.046763502
180	0x3d8968a4	0.06709412
181	0xbe13d42e	-0.14436409
182	0xbd5d98ee	-0.054100923
183	0x3dfa1ba7	0.122123055
184	0xbc62cc47	-0.013842649
185	0xbdbb8e50	-0.09158003
186	0xbdb23f57	-0.08703487
187	0x3d9fb270	0.07797706
188	0xbbc18dd1	-0.0059067984
189	0x3bf71462	0.0075402716
190	0xbcbb6ba5	-0.022878477
191	0xbe32b79a	-0.17452851
192	0x3ee97f98	0.4560516
193	0x3e86dd46	0.26340693
194	0x3e3dc81d	0.18533368
195	0xbd0685a5	-0.032842297
196	0x3e676de7	0.22600518
197	0x3d80f121	0.06295992
198	0x3db46a96	0.08809392
199	0x3ec0c9b0	0.37653875
200	0x3e126afe	0.14298627
201	0x3e4c5f24	0.19958168
202	0x3d29722a	0.04136864
203	0xbe5e3d0e	-0.21702978
204	0xbef92d87	-0.48667547
205	0x3e89593d	0.26825896
206	0x3e033e90	0.12816834
207	0x3ee2c6b9	0.44292238
208	0xbbfb5268	-0.0076697357
209	0x3ebfce44	0.37462056
210	0x3ee8e9ad	0.4549078
211	0x3d7e15ec	0.062032625
212	0x3e84b28d	0.25917473
213	0x3eb3ffe5	0.3515617
214	0xbe745939	-0.2386216
215	0xbef9bc5a	-0.48776513
216	0xbef96525	-0.4870998
217	0xbee383e6	-0.44436568
218	0x3e56031c	0.20899624
219	0x3dc9bb88	0.09850222
220	0xbd856a94	-0.06514469
221	0xbe13c9c3	-0.14432435
222	0x3ee118de	0.43964285
223	0xbe8f082f	-0.2793593
224	0x3ef0ad23	0.47007093
225	0x3e5ca10c	0.2154581
226	0x3da89069	0.08230669
227	0x3f0c6bc6	0.5485195
228	0x3f05a34f	0.52202314
229	0x3dc64d65	0.096827306
230	0x3dc30d6a	0.09524043
231	0x3e7a412a	0.2443892
232	0xbe1f67f7	-0.15567003
233	0xbdd392f1	-0.10330761
234	0xbea9c9e9	-0.33161858
235	0x3e4051f9	0.1878127
236	0x3ed6b06c	0.41931474
237	0x3ec91d9a	0.39280397
238	0x3e27d630	0.163903
239	0x3c2c3869	0.010511496
240	0x3ee9d227	0.45668146
241	0x3eb7a69b	0.35869297
242	0xbeb42c78	-0.35190177
243	0x3dce1583	0.10062697
244	0xbe9ec1d8	-0.31007266
245	0x3e9f38b2	0.31097943
246	0xbd69e132	-0.05709953
247	0x3ea7b9c5	0.32758918
248	0xbee7de6e	-0.45286888
249	0x3ec7a49c	0.38992774
250	0x3ec43f45	0.3832952
251	0xbeb2aee2	-0.3489905
252	0x3b9dad58	0.004811924
253	0x3ecaefc9	0.39636067
254	0x3e9a79d3	0.3017107
255	0xbef22430	-0.47293234

rnn.bias_ih_l0 f4 [192]
0	0x3ce2bd05	0.027678022
1	0xbc85f38f	-0.01635149
2	0xbd3b3404	-0.045703903
3	0xbec22695	-0.3792006
4	0x3c4a186d	0.012334925
5	0xbe30a926	-0.17252025
6	0x3f0105f8	0.5039973
7	0x3d504f12	0.050856657
8	0xbe34c819	-0.17654456
9	0xbcf6b087	-0.030113472
10	0x3e6619ad	0.22470732
11	0xbdddc058	-0.10827702
12	0xbc82b038	-0.015953168
13	0xbcd6bc87	-0.026212944
14	0x3eaa3ccb	0.33249506
15	0xbd195f20	-0.037444234
16	0xbcb1be99	-0.02169733
17	0xbcbe5ced	-0.02323767
18	0x3dfd963c	0.123821706
19	0x390a4ef9	0.00013190125
20	0xbd82406f	-0.06359946
21	0x3a7f8a6a	0.00097481033
22	0xbab982f4	-0.0014153407
23	0x3a9f6bfc	0.0012162919
24	0x3dd4fd0d	0.10399828
25	0xbd30f36d	-0.0432009
26	0xbcb7aca7	-0.022421194
27	0xbd4f3180	-0.050584316
28	0x3e9c5852	0.30536133
29	0x3e2914bc	0.16511816
30	0x3cc6b8f0	0.024258107
31	0x3c73c666	0.014878845
32	0x3da89cbd	0.082330205
33	0x3b28dc5f	0.0025766117
34	0xbd3eaa5a	-0.04654918
35	0x3d41deec	0.047331735
36	0x3c9b2503	0.018938547
37	0xbc807257	-0.015679521
38	0xbcbcc847	-0.023044718
39	0xbd01ab08	-0.03165725
40	0x3f0b7c74	0.54486775
41	0x3ebeb438	0.3724687
42	0x3e1f90c5	0.15582569
43	0xbb476ab7	-0.0030428597
44	0xbbcf52f7	-0.006327029
45	0xbd235cc2	-0.039883383
46	0xbd100c6e	-0.035168104
47	0xbe32d6e0	-0.17464781
48	0x3da1335a	0.07871123
49	0xbcc29465	-0.0237524
50	0xbd273ff8	-0.04083249
51	0xbc93ed2b	-0.018057426
52	0xbcd4d431	-0.025980087
53	0xbd01ec82	-0.031719692
54	0x3df2444a	0.11829431
55	0x3c1f8f20	0.0097387135
56	0xbcf79715	-0.030223409
57	0xbcf43daf	-0.02981457
58	0xbd706234	-0.058687404
59	0x39863bed	0.0002560312
60	0xbc358c0e	-0.011080755
61	0xb7f3cef8	-2.9064235e-05
62	0x3c0a68ca	0.008447835
63	0x3d4f35b8	0.05058834
64	0xbf38fe78	-0.7226329
65	0xbf68457f	-0.9073104
66	0xbf5c447e	-0.8604201
67	0x3f4e57a7	0.80602497
68	0xbf7d7f43	-0.9902231
69	0x3efc515b	0.4928082
70	0x3f0b3cb8	0.54389524
71	0xbf8dc06e	-1.107435
72	0x3e9b2b5f	0.30306527
73	0xbf5c833f	-0.86137766
74	0xbfd3d2b0	-1.6548672
75	0x3e3298b5	0.17441066
76	0xbf490228	-0.78518915
77	0xbf568c77	-0.8380808
78	0x3f26dcf4	0.651809
79	0xbf4100b0	-0.75391674
80	0xbf71fca0	-0.945261
81	0xbf3c50b4	-0.73560643
82	0xbee57192	-0.4481321
83	0xbf5b7c81	-0.8573685
84	0xbf624e98	-0.88401175
85	0xbf10f108	-0.56617785
86	0xbf5ea7af	-0.86974615
87	0xbf5c236c	-0.8599155
88	0xbf859751	-1.0436803
89	0xbf50cb3c	-0.8156011
90	0xbedbbabe	-0.4291591
91	0xbf1f16f9	-0.6214443
92	0x3f4261d6	0.75930536
93	0xbfd0ecdd	-1.6322285
94	0xbf7dbf90	-0.99120426
95	0xbf7828d8	-0.9693732
96	0xbf81e659	-1.0148422
97	0x3e8ae9ba	0.27131444
98	0xbf4245b8	-0.7588763
99	0xbf28ff34	-0.6601441
100	0xbf580308	-0.84379625
101	0xbf1a9658	-0.60385656
102	0xbf6c3598	-0.9226928
103	0xbf6796c1	-0.9046441
104	0x3ed94956	0.42438763
105	0x3f13f15b	0.57790154
106	0xbffc6150	-1.9717197
107	0xbf4968f0	-0.78675747
108	0xbf494455	-0.7861989
109	0xbf3a274b	-0.72716206
110	0xbf53cf03	-0.8273775
111	0x3f20d06c	0.62818027
112	0xbf745315	-0.95439273
113	0xbf2f7d17	-0.68550247
114	0xbf5367c2	-0.82580197
115	0xbf62f947	-0.8866162
116	0xbf39ba42	-0.7254983
117	0xbf32d3f5	-0.6985467
118	0xbfce9e51	-1.6142064
119	0xbf342500	-0.7036896
120	0xbf50169e	-0.8128451
121	0xbf58098c	-0.8438957
122	0xbf452634	-0.7701142
123	0xbf40c9ab	-0.7530772
124	0xbf65e3e2	-0.89800847
125	0xbf68997a	-0.90859187
126	0xbf6287cb	-0.88488454
127	0xbf4dc3cd	-0.80376893
128	0x3bb59ffb	0.005542753
129	0x3a966b95	0.0011476154
130	0xbc0d268b	-0.008615146
131	0xbc27d6d1	-0.010244087
132	0xbb8799e8	-0.00413822
133	0xbb6291dc	-0.0034571802
134	0xbbba5b14	-0.005687127
135	0xbc938dcc	-0.01801195
136	0xbbd03434	-0.0063538793
137	0xbc0c6303	-0.008568528
138	0x3c05a7a0	0.008157641
139	0xbb102e48	-0.0022000242
140	0x3b1e5d8f	0.0024164652
141	0xbc714003	-0.014724734
142	0xbc1b99f5	-0.009497155
143	0x3b449980	0.002999872
144	0x3c0ab90b	0.008466969
145	0xbbaa78b5	-0.0052023777
146	0xbc56e8c7	-0.013117022
147	0x3b1e21cb	0.002412903
148	0xba4187b5	-0.00073825876
149	0xbc5c46b0	-0.013444588
150	0x3b834b59	0.004006785
151	0x3c5bbf2d	0.013412279
152	0xbb7636cc	-0.0037569283
153	0x3b289138	0.0025721323
154	0xbc24a078	-0.010048024
155	0xbb074942	-0.002064303
156	0xbb9a2f31	-0.0047053327
157	0xb89a5c2c	-7.3604606e-05
158	0xbb1be438	-0.0023787152
159	0x3b9cbb8c	0.0047830995
160	0xba90fa96	-0.0011061009
161	0xbc9ded1f	-0.019278107
162	0xbaaf1f79	-0.001336082
163	0xbc4af2fc	-0.012387034
164	0xbbef4c7c	-0.007302819
165	0x3b978bb1	0.004624807
166	0x3a03d7ad	0.00050293916
167	0xbaefca84	-0.0018294607
168	0xbb88e5c8	-0.0041777827
169	0xb9eacc52	-0.00044784189
170	0xb98e4803	-0.00027138003
171	0x3bc4661d	0.005993618
172	0xbbc6ab84	-0.0060629267
173	0xbc9d7100	-0.019218922
174	0x3bd92883	0.006627144
175	0xbb16dd33	-0.0023020029
176	0xbbdab875	-0.006674821
177	0xbbeeea63	-0.0072911247
178	0x3bdeee28	0.006803293
179	0xbbc35018	-0.0059604757
180	0x3c063d30	0.008193299
181	0xbc87ced5	-0.016578117
182	0x3bc3aebd	0.005971758
183	0xbbff6851	-0.007794418
184	0x3bd4136d	0.0064720423
185	0xbad49a47	-0.0016220295
186	0xbc8decaa	-0.017324764
187	0x3ba4c5ea	0.005028476
188	0xbb8189ec	-0.003953209
189	0x3a1c5eee	0.00059650734
190	0xbbca190f	-0.006167538
191	0xb93be1ee	-0.00017917875

rnn.bias_hh_l0 f4 [192]
0	0x3c9c8cad	0.019110048
1	0xbcabc1e7	-0.020966483
2	0xbd316d3b	-0.04331706
3	0xbebf1a94	-0.37324965
4	0x3b1caa10	0.0023905076
5	0xbe33047c	-0.1748218
6	0x3efc0c21	0.49228004
7	0x3d4c7230	0.049913585
8	0xbe40e061	-0.18835594
9	0xbce001fb	-0.027344694
10	0x3e6857e0	0.22689772
11	0xbdc3f5cf	-0.09568369
12	0xbcafad0a	-0.021444816
13	0xbcd06fa9	-0.025443869
14	0x3eaead6c	0.34116685
15	0xbce27791	-0.027644904
16	0xbcdf63a3	-0.02726919
17	0xbce17303	-0.027520662
18	0x3e003440	0.12519932
19	0x3bb03d7c	0.0053784233
20	0xbd831483	-0.06400397
21	0xbb0c4b31	-0.0021407122
22	0x3c2b71a2	0.010464104
23	0x3b55a21e	0.003259785
24	0x3dea6e3a	0.11446805
25	0xbd261311	-0.040545527
26	0xbc693a13	-0.014235037
27	0xbd3c3ac4	-0.04595448
28	0x3e9c794a	0.30561286
29	0x3e1dd905	0.15414818
30	0x3ca3f424	0.020013876
31	0x3c700e8a	0.014651904
32	0x3dae4832	0.08509864
33	0x3c008eb3	0.007846522
34	0xbd271688	-0.04079297
35	0x3d5da838	0.054115504
36	0x3c871eec	0.016494237
37	0xbc25469a	-0.0100876335
38	0xbcf4f48f	-0.02990177
39	0xbd29d51f	-0.041463014
40	0x3f0eae97	0.5573515
41	0x3ebd1677	0.36931202
42	0x3e209e9f	0.15685509
43	0x3b9bd48b	0.0047555617
44	0xb9111e20	-0.000138395
45	0xbd18169f	-0.03713095
46	0xbd102ccf	-0.035198983
47	0xbe38bb42	-0.18040183
48	0x3db30b77	0.08742421
49	0xbcf73a81	-0.030179264
50	0xbd42ca7e	-0.047556393
51	0xbc832624	-0.016009398
52	0xbd0f40b7	-0.034973826
53	0xbceab7c7	-0.028652085
54	0x3dde2fcb	0.108489595
55	0x3c8a03ac	0.016847454
56	0xbcc0f0aa	-0.023552258
57	0xbd05e544	-0.032689348
58	0xbd41d1f9	-0.047319386
59	0xbb474d0b	-0.0030410911
60	0xbbfa4522	-0.007637636
61	0xbc152aca	-0.00910444
62	0xbadd1a15	-0.0016868735
63	0x3d58f1f3	0.052965116
64	0xbf3a9ad2	-0.7289249
65	0xbf69a72b	-0.91270703
66	0xbf5df78a	-0.8670584
67	0x3f4d8a22	0.802889
68	0xbf7e7b43	-0.9940683
69	0x3efa0198	0.4882934
70	0x3f0a8219	0.54104763
71	0xbf8fc2af	-1.1231288
72	0x3e977fa5	0.29589573
73	0xbf5b7327	-0.85722584
74	0xbfd41023	-1.6567425
75	0x3e3741a1	0.17896129
76	0xbf46b6c6	-0.7762264
77	0xbf561cc5	-0.8363765
78	0x3f26fdb6	0.6523088
79	0xbf3eb8a6	-0.745005
80	0xbf70c37a	-0.94048274
81	0xbf39ff4f	-0.72655195
82	0xbedc6e65	-0.43052974
83	0xbf5929d6	-0.8482946
84	0xbf61c297	-0.88187546
85	0xbf114778	-0.5674968
86	0xbf5e4766	-0.86827695
87	0xbf5e471c	-0.86827254
88	0xbf861ee5	-1.0478178
89	0xbf4fcb6d	-0.8116978
90	0xbee1f0cc	-0.44129026
91	0xbf1da301	-0.6157685
92	0x3f42ddfc	0.7611997
93	0xbfd179a0	-1.6365242
94	0xbf7cb896	-0.98719156
95	0xbf792c8f	-0.97333616
96	0xbf8334d0	-1.0250492
97	0x3e89fbf1	0.2695003
98	0xbf457ed5	-0.77146655
99	0xbf2a7d02	-0.66596997
100	0xbf57bb82	-0.8427049
101	0xbf1a2a47	-0.6022076
102	0xbf6947da	-0.9112526
103	0xbf6777ba	-0.90417063
104	0x3eda8789	0.4268153
105	0x3f15dc1d	0.5853899
106	0xbffca375	-1.9737383
107	0xbf48a5cb	-0.7837798
108	0xbf4879f9	-0.78311116
109	0xbf3b1dd6	-0.730924
110	0xbf57bd96	-0.8427366
111	0x3f1f12e4	0.621382
112	0xbf751ecf	-0.95750135
113	0xbf2e6166	-0.6811737
114	0xbf545544	-0.82942605
115	0xbf6568fc	-0.8961332
116	0xbf39b98d	-0.72548753
117	0xbf317cc5	-0.6933101
118	0xbfcdcb6b	-1.6077703
119	0xbf347fe9	-0.70507675
120	0xbf4ef3df	-0.8084087
121	0xbf574c90	-0.841012
122	0xbf435563	-0.76302165
123	0xbf4406a6	-0.76572645
124	0xbf6615ce	-0.8987702
125	0xbf6778dd	-0.904188
126	0xbf6500c0	-0.8945427
127	0xbf4c8c1c	-0.7990129
128	0xbbafc402	-0.005363942
129	0xbbd5e343	-0.006527336
130	0x3c92f4ba	0.01793896
131	0x3c0beb50	0.00853999
132	0xba94f877	-0.0011365552
133	0x3b92ef1d	0.004484071
134	0x3baae497	0.0052152383
135	0x3cf03de6	0.02932639
136	0x3ca49304	0.020089634
137	0x3bb2552a	0.0054422813
138	0xbc693733	-0.014234352
139	0xbc370411	-0.011170403
140	0x3a48df8e	0.0007662707
141	0x3ced546e	0.028970923
142	0x3c2925d2	0.0103239585
143	0xb7d1b1c9	-2.499753e-05
144	0xbc7752bf	-0.015095412
145	0x3b25cd70	0.0025299452
146	0x3cb8475a	0.02249496
147	0xbc33a3f8	-0.010964386
148	0xbb0fa476	-0.0021918095
149	0x3cb4c99a	0.022068787
150	0xbaf9c8a0	-0.0019056983
151	0xbcfd523a	-0.030922998
152	0x3c683288	0.014172204
153	0xbba40816	-0.0050058467
154	0x3cc92213	0.02455238
155	0x3c1603e3	0.0091562
156	0x3b3408dc	0.00274711
157	0x3b66f5a3	0.0035241626
158	0x3c0ba4ad	0.0085231485
159	0xbc03bb36	-0.00804024
160	0xbb96cfba	-0.0046023997
161	0x3ce78020	0.028259337
162	0x3bc42091	0.0059853275
163	0x3bcc8c0b	0.0062422804
164	0xbb43acfc	-0.0029857745
165	0xbc4a7285	-0.012356405
166	0xbb8ef4dd	-0.004362686
167	0xba022eed	-0.0004966099
168	0x3a9101c5	0.001106315
169	0x3b22f66f	0.0024866124
170	0x3c32957f	0.0108999
171	0xba78e953	-0.0009495217
172	0xbbee1129	-0.0072652292
173	0x3d045f6c	0.032317564
174	0xbcbccf32	-0.023048017
175	0x3c6c4e27	0.01442293
176	0x3cd5699f	0.02605134
177	0x3b874cdf	0.004129037
178	0xbc283596	-0.010266682
179	0xbc0bc0e1	-0.008529873
180	0xbc16dac2	-0.009207429
181	0x3cf0ae8f	0.029380111
182	0xbb872dc9	-0.004125331
183	0x3bc043f3	0.005867475
184	0xbc076463	-0.00826368
185	0x3b8155bd	0.0039469884
186	0x3d0154c4	0.03157498
187	0x3c197c88	0.0093680695
188	0x3c6f6f7e	0.014613984
189	0x3b13c8fe	0.002255022
190	0x3c802443	0.015642291
191	0x3bfb490f	0.0076686214

rnn.weight_ih_l0_reverse f4 [192, 3]
0	0xbdeba4e5	-0.115060605
1	0x3d3f9913	0.046776842
2	0xbca9bd53	-0.02072016
3	0xbe5d3d98	-0.21605527
4	0x3c181336	0.009281924
5	0x3e128fda	0.14312688
6	0xbe157358	-0.14594781
7	0x3ddde278	0.10834211
8	0xbe0676aa	-0.13131204
9	0x3d12db02	0.035853393
10	0x3dee3f63	0.11633184
11	0x3d276048	0.040863305
12	0x3e0d4db7	0.13799177
13	0xbe2149be	-0.15750787
14	0x3db2c6ff	0.08729362
15	0xbc93c8d7	-0.018040104
16	0x3d0a2896	0.033730112
17	0x3c6553ec	0.013997059
18	0x3da97213	0.08273711
19	0xbe1e39f8	-0.15451801
20	0xb923b536	-0.00015612398
21	0xbc1fa60d	-0.009744179
22	0x3d61e2d3	0.055147957
23	0xbcbbb6a4	-0.022914238
24	0x3d98adcc	0.07455024
25	0x3e31d7ba	0.1736745
26	0xbc65d3c9	-0.014027544
27	0x3e7c1c07	0.24620067
28	0xbd913741	-0.07090617
29	0x3eb91cc8	0.3615477
30	0x3c9ae809	0.018909471
31	0x3e251e9b	0.16124956
32	0x3cc845d8	0.024447367
33	0x3d871361	0.06595493
34	0xbe064237	-0.13111196
35	0x3d027c3f	0.03185677
36	0x3d5de956	0.054177605
37	0x3de10d0c	0.109888166
38	0xbd186786	-0.037208103
39	0x3e3c5b40	0.18394184
40	0xbe04b68c	-0.12960261
41	0x3d16f6c2	0.03685642
42	0x3e0c5455	0.13704045
43	0x3d9e7e3e	0.077389225
44	0xbead5e65	-0.3386108
45	0x3d9b70bb	0.07589861
46	0x3dfd64df	0.12372755
47	0x3dc3e75d	0.095656134
48	0xbb80da7d	-0.003932296
49	0x3ded132b	0.115759216
50	0xbc28df06	-0.010307079
51	0x3d69480d	0.05695348
52	0xbcbb7950	-0.022884995
53	0xbd6d7d26	-0.05798068
54	0xbda0527f	-0.07828235
55	0xbd01b8a1	-0.031670216
56	0x3e4f940e	0.20271322
57	0x3db20efb	0.086942635
58	0x3dd37959	0.103258796
59	0xbb88e021	-0.004177109
60	0x3e7d10ad	0.24713393
61	0xbdf5ea18	-0.120075405
62	0x3e2c4733	0.16824035
63	0xbe146e59	-0.1449522
64	0x3cdc979f	0.026927767
65	0x3e86a1bd	0.26295272
66	0xbcdaed52	-0.026724491
67	0xbc292eb2	-0.010326074
68	0xbbeb363a	-0.007178095
69	0x3d3fc744	0.046820894
70	0x3c5d1af2	0.013495194
71	0xbbb66a8a	-0.0055668997
72	0x3dbb9d38	0.091608465
73	0xbd89ef60	-0.0673511
74	0xbbb90d25	-0.005647319
75	0x3db2d898	0.08732718
76	0x3e2bdebc	0.16784185
77	0xbe8597a9	-0.2609227
78	0x3e32294c	0.17398566
79	0x3e0cd5b4	0.13753396
80	0xbdbb6391	-0.0914985
81	0xbe261413	-0.16218595
82	0xbe104385	-0.14088257
83	0xbd1f3fb1	-0.0388791
84	0x3dca61f3	0.098819636
85	0x3e217336	0.15766606
86	0x3d71abde	0.059001796
87	0x3e496fee	0.19671604
88	0x3e338382	0.17530635
89	0x3ea106a9	0.31450394
90	0x3e32fdc5	0.17479618
91	0x3c93d1b5	0.018044332
92	0x3e338f9b	0.1753525
93	0x3d6248b5	0.05524512
94	0x3e7eb2e1	0.24872924
95	0x3e097ea3	0.13427214
96	0x3d41d6ca	0.04732398
97	0xbd0cf9f9	-0.03441808
98	0xbcac73fa	-0.021051396
99	0xbe17f4fe	-0.14839551
100	0xbd1ec513	-0.038762163
101	0x3d668d92	0.056287356
102	0x3d15b1b5	0.036546428
103	0x3e30b48f	0.17256378
104	0x3df3e164	0.11908224
105	0x3c7af280	0.015316606
106	0x3e2715ac	0.16316861
107	0x3e2e7cf9	0.17039861
108	0x3e89d2b2	0.2691856
109	0x3d9aeeba	0.07565065
110	0x3bcb5c87	0.0062060985
111	0x3e99a398	0.30007625
112	0xbe4395b5	-0.19100077
113	0xbeb5945d	-0.35464755
114	0xbd0ad6ad	-0.033896137
115	0x3d0ca161	0.03433359
116	0x3af9d106	0.0019059486
117	0x3c1ab19d	0.00944176
118	0x3dbf7102	0.093477264
119	0xbddefc91	-0.10888017
120	0xbd9a8a41	-0.07545901
121	0xbcbf6b17	-0.023366494
122	0xbc3f5ee7	-0.011680341
123	0x3c832832	0.016010378
124	0x3df426ee	0.11921488
125	0x3c881be6	0.016614866
126	0x3dfc763c	0.12327239
127	0x3ddda2f9	0.108221
128	0x3ed56810	0.41680956
129	0xbe2f3b60	-0.17112494
130	0xbc93f525	-0.01806123
131	0xbdd302f8	-0.103033006
132	0xbd86ee80	-0.06588459
133	0xbde974a0	-0.113991976
134	0x3e126901	0.14297868
135	0x3dd65168	0.10464746
136	0xbd0432e1	-0.032275084
137	0x3e4fa9ad	0.2027957
138	0xbe18c04d	-0.14917107
139	0x3762d0f4	1.35193e-05
140	0x3e6460e0	0.2230258
141	0x3e0724ef	0.13197683
142	0x3dbae87c	0.09126374
143	0xbde394b0	-0.11112344
144	0x3d0071b9	0.031358454
145	0xbd9d05ce	-0.07667123
146	0x3c0830c0	0.008312404
147	0x3de3cb99	0.111228175
148	0x3e0093ff	0.12556456
149	0x3ca5e0d9	0.020248817
150	0x3d07695a	0.033059455
151	0x3d455c54	0.048183754
152	0xbe206ead	-0.1566722
153	0xbc725442	-0.014790596
154	0xbd5d6a00	-0.054056168
155	0xbc6c7834	-0.0144329555
156	0xbb033df9	-0.0020025952
157	0xbda36a08	-0.07979208
158	0x3bc83520	0.0061098486
159	0x3d9ef59d	0.07761691
160	0xbd980068	-0.074219525
161	0xbafcc4d4	-0.0019284734
162	0x3c7d097e	0.015444158
163	0x3e24afc3	0.16082673
164	0xbe824ab3	-0.25447616
165	0x3d515477	0.051105943
166	0x3e1e360b	0.15450303
167	0x3e315ccf	0.1732056
168	0x3c0d9620	0.00864175
169	0x3d822b0f	0.06355869
170	0x3c4f3003	0.012645724
171	0x3dc50903	0.096208595
172	0x3e0ebc29	0.13938965
173	0x3d66284c	0.056190774
174	0x3dbe6a72	0.092976466
175	0x3e3f4e8c	0.18682307
176	0xbdf8db96	-0.12151258
177	0xbc159baf	-0.009131356
178	0x3ca34057	0.01992814
179	0x3e02a7af	0.12759279
180	0xba0cbc1a	-0.00053686055
181	0x3c383e9c	0.011245396
182	0x3ab2c722	0.0013639668
183	0x3e83f870	0.2577548
184	0xbe0dce93	-0.13848333
185	0x3df13155	0.117769875
186	0xbe2841bf	-0.1643133
187	0xbd1b3ca9	-0.037899647
188	0xbe2a23f5	-0.16615279
189	0xbdd2f396	-0.103003666
190	0x3d8dac94	0.06917682
191	0x3c7a44db	0.0152752055
192	0xbda5911a	-0.080843166
193	0xbd6a936e	-0.057269506
194	0xbe4f1df9	-0.20226277
195	0xbda4423f	-0.08020448
196	0x3dd207e0	0.10255408
197	0xbdca9c8d	-0.09893141
198	0x3ec1bcf6	0.37839478
199	0x3f0d5075	0.5520089
200	0x3d83f3b6	0.064429685
201	0xbe72f8a6	-0.23727664
202	0xbeb3a0ad	-0.35083523
203	0x3d68e294	0.056856707
204	0xbe3c2ced	-0.18376513
205	0xbe4a378a	-0.19747749
206	0x3d896f06	0.06710629
207	0xbd56858c	-0.052373454
208	0xbd1001ee	-0.03515809
209	0xbe25410b	-0.16138093
210	0x3e26b7cc	0.1628105
211	0xbd6c77fc	-0.057731614
212	0xbd82a4fc	-0.063791245
213	0xbcd50a45	-0.026005873
214	0xbc152b93	-0.009104627
215	0xbe55842e	-0.20851204
216	0xbe06b86f	-0.13156293
217	0xbe5f6c77	-0.2181872
218	0xbd133a15	-0.035944063
219	0xbe2992b9	-0.16559877
220	0x3f013fcd	0.5048798
221	0xbe8a04cf	-0.26956794
222	0xbce91c54	-0.02845589
223	0xbb7286de	-0.0037006657
224	0xbd9c98ba	-0.07646318
225	0xbd0ecdda	-0.034864284
226	0xbdb0fe74	-0.08642283
227	0xbdbbd779	-0.091719575
228	0xbe05a646	-0.1305171
229	0xbe1c12e9	-0.15241589
230	0xbc84d792	-0.016216073
231	0xbe3b568c	-0.18294734
232	0x3d8c1bc0	0.068412304
233	0xbde81aa9	-0.1133321
234	0xbee56b68	-0.44808507
235	0xbe9a0d9e	-0.30088514
236	0x3def4c1c	0.116844386
237	0x3cb17e78	0.02166675
238	0x3d9fd776	0.07804768
239	0xbe215e8e	-0.15758726
240	0xbe0a28e7	-0.13492166
241	0xbe0f0b54	-0.13969165
242	0x3d97fd2f	0.07421338
243	0x3e0d51be	0.13800713
244	0xbe489451	-0.19587828
245	0xbe510160	-0.20410681
246	0xbe36eae7	-0.17863046
247	0x3ca60fde	0.020271238
248	0xbe3db4d4	-0.18526012
249	0xbdcfdc01	-0.10149384
250	0xbd69941b	-0.05702601
251	0xbdf558d9	-0.11979837
252	0x3dbf4caf	0.09340798
253	0xbca5450c	-0.020174526
254	0x3d5e897d	0.054330338
255	0x3cbf84c9	0.023378747

rnn.weight_hh_l0_reverse f4 [192, 64]
0	0xbce22efd	-0.027610296
1	0xbd9c1614	-0.076213986
2	0x3eadd17f	0.33948895
3	0x3e576875	0.21035941
4	0x3d6c5967	0.05770245
5	0x3da95e1f	0.08269905
6	0xbd56f372	-0.05247826
7	0x3e177640	0.14791203
8	0xbe49355e	-0.19649264
9	0x3db91b52	0.09038414
10	0x3db49f25	0.08819417
11	0x3dbad39d	0.09122393
12	0x3e59afa7	0.21258412
13	0xbd6fecd9	-0.058575485
14	0xbd197520	-0.037465215
15	0x3d5fde89	0.054655585
16	0xbdc1805c	-0.09448311
17	0x3e2df7c9	0.16989054
18	0x3e41159d	0.18855901
19	0x3e018f6e	0.1265237
20	0x3c18576b	0.009298186
21	0xbbd76639	-0.006573465
22	0x3dfd3437	0.12363475
23	0xbe2bf3c0	-0.16792202
24	0x3df2fddb	0.11864825
25	0x3dc78d55	0.09743754
26	0x3b9fa99f	0.0048725153
27	0x3ca0eff4	0.019645669
28	0x3d39eb7e	0.0453906
29	0xbc70bb0c	-0.014693033
30	0x3d0c8b50	0.034312546
31	0x3ca063d8	0.01957886
32	0xbd9c0968	-0.076189816
33	0x3e19eb61	0.15031196
34	0xbe23f08c	-0.1600973
35	0x3ca0ad61	0.019613924
36	0x3b60f97c	0.0034328392
37	0x3df1dd0a	0.11809738
38	0x3e23f090	0.16009736
39	0x3e01bf18	0.12670553
40	0x3bf7fb81	0.0075678234
41	0xbe354186	-0.17700776
42	0x3d2af599	0.041738126
43	0xbc343d6c	-0.011000972
44	0xbd8cb529	-0.06870491
45	0x3d8672cf	0.06564867
46	0xbe0af346	-0.13569364
47	0xbe84b083	-0.25915918
48	0x3e31ef0e	0.17376348
49	0xbc8d9360	-0.017282188
50	0x3be0f66f	0.0068653147
51	0xbe384cb6	-0.17998013
52	0x3e178aca	0.14799038
53	0x3e089924	0.13339669
54	0x3d8050e8	0.06265432
55	0xbe89dbb2	-0.26925427
56	0x3d3bc94b	0.045846265
57	0x3d60952a	0.054829754
58	0xbe59882c	-0.21243352
59	0x3b5025da	0.0031760843
60	0x3d5ccc6f	0.0539059
61	0x3e5078d4	0.20358592
62	0xbaec38d6	-0.001802231
63	0x3e3412eb	0.17585342
64	0xbe333322	-0.17499974
65	0xbe17b1da	-0.14813939
66	0x3e1bd644	0.15218455
67	0x3e2b9aa5	0.16758211
68	0x3e2c604e	0.16833612
69	0x3e91710a	0.28406554
70	0xbe18ccc2	-0.14921859
71	0x3e829eb0	0.25511694
72	0xbe06e5c4	-0.13173586
73	0x3d9ffe9a	0.07812233
74	0x3de49991	0.11162103
75	0x3df3f55d	0.11912034
76	0x3de36a6b	0.11104282
77	0x3ce09030	0.027412504
78	0xbd51cc03	-0.05121995
79	0x3e3c204d	0.18371697
80	0xbe1d9e8c	-0.15392512
81	0x3e9f3854	0.31097662
82	0x3eafc7a1	0.34331992
83	0x3da50f88	0.08059603
84	0x3deafb3d	0.11473701
85	0x3dc2c26c	0.09509739
86	0x3eb173e1	0.3465872
87	0xbe85ff1d	-0.26171198
88	0x3e3e9acd	0.1861374
89	0x3dc9e4c2	0.09858085
90	0xbe119c50	-0.14219785
91	0x3c886193	0.01664809
92	0x3dee45d8	0.116344154
93	0xbe031480	-0.12800789
94	0x3e5a93da	0.21345463
95	0xbdd473b6	-0.103736326
96	0xbd68e165	-0.056855578
97	0x3ea8c9bb	0.32966408
98	0xbddcdc59	-0.107842155
99	0x3d83864d	0.064221
100	0xbe2b99b9	-0.1675786
101	0x3df58b52	0.11989464
102	0x3ea22932	0.31672055
103	0x3e665508	0.22493374
104	0x3e1bd6c8	0.15218651
105	0xbdb9002c	-0.09033236
106	0xbd844628	-0.06458694
107	0xbdf00d45	-0.11721281
108	0xbe80a48d	-0.25125542
109	0x3e855b96	0.26046437
110	0xbe80de58	-0.25169635
111	0xbd91ce74	-0.07119456
112	0x3ea6f66f	0.3260989
113	0x3d1c58b0	0.038170516
114	0xbdef751f	-0.11692261
115	0xbea820ab	-0.32837424
116	0x3ea730fb	0.32654557
117	0x3eab0a6b	0.33406386
118	0xbd8fb134	-0.07016221
119	0xbd31ce54	-0.04340966
120	0x3e2019e1	0.15634872
121	0x3d5a6e0a	0.053327598
122	0xbcb592da	-0.02216475
123	0x3d6b07ad	0.057380367
124	0x3e796f66	0.24358901
125	0x3e85a238	0.26100326
126	0x3e2ca1cc	0.16858596
127	0x3eadf11f	0.33973023
128	0x3da5e91d	0.081011035
129	0x3dfab3f9	0.12241358
130	0xbe139bdc	-0.14414924
131	0xbe931bca	-0.2873214
132	0x3e55dcb4	0.20884973
133	0x3e3102c7	0.17286216
134	0x3dca8a0e	0.09889613
135	0xbc93839c	-0.018007092
136	0x3e2bd719	0.16781272
137	0xbe9ed79a	-0.31023866
138	0x3e46544d	0.19368096
139	0xbdcd13e1	-0.10013557
140	0xbe1d26ed	-0.1534688
141	0x3e116e14	0.14202148
142	0xbd230477	-0.03979918
143	0xbe38917c	-0.18024248
144	0xbe3971b3	-0.18109779
145	0x3d062a8c	0.03275542
146	0xbde38940	-0.11110163
147	0xbc1cb12f	-0.009563728
148	0x3dc99f07	0.09844785
149	0xbe494921	-0.19656803
150	0x3e426a7e	0.18985936
151	0xbd23aa0a	-0.039957084
152	0x3d40e41f	0.047092553
153	0xbe34377c	-0.1759929
154	0xbe0cce36	-0.13750538
155	0xbe08ae1b	-0.13347666
156	0xbd8d08e0	-0.068864584
157	0xbe245e35	-0.16051562
158	0x3e811ade	0.2521581
159	0x3e2b1002	0.16705325
160	0x3de7f350	0.11325705
161	0x3e0ee10d	0.13953038
162	0x3e35c3d6	0.17750487
163	0xbe4f6da0	-0.20256662
164	0xbbbf30e0	-0.005834684
165	0x3deeae9a	0.11654396
166	0x3d48a11b	0.048981767
167	0xbc1406fd	-0.009034869
168	0x3e27fc68	0.16404879
169	0x3e3c6eab	0.18401591
170	0xbe864f0a	-0.26232177
171	0x3de212b5	0.11038724
172	0xbe26b85c	-0.16281265
173	0x3e5ec430	0.21754527
174	0x3daacf31	0.083403
175	0x3e822de4	0.25425637
176	0x3e11efcb	0.1425163
177	0x3e0bc0bb	0.1364774
178	0x3dbeda92	0.09319033
179	0xbd88aeea	-0.06673987
180	0x3e1973f4	0.14985639
181	0x3e2c919e	0.16852424
182	0xbec23030	-0.3792739
183	0x3e4575ca	0.19283214
184	0xbd179969	-0.037011538
185	0x3e59547a	0.21223632
186	0x3f0318ef	0.5120992
187	0x3e3a7ad8	0.18210924
188	0x3e4871e5	0.19574697
189	0x3e46abe8	0.19401515
190	0xbca943d7	-0.020662231
191	0x3d8e23c6	0.06940417
192	0xbe44574b	-0.19173925
193	0xbe18939a	-0.14900056
194	0xbe5cea27	-0.21573697
195	0x3dbdc4ba	0.09266038
196	0xbe87763a	-0.26457387
197	0xbe55631e	-0.20838591
198	0xbd855487	-0.06510263
199	0x3d3002fe	0.042971604
200	0xbd84adf6	-0.06478493
201	0xbe0acd7d	-0.1355495
202	0xbe73ba6e	-0.23801586
203	0x3e49d65e	0.19710681
204	0x3e1d94ff	0.15388869
205	0xbe3e3f42	-0.18578818
206	0x3db073a3	0.08615806
207	0x3e666f35	0.2250336
208	0x3e608e95	0.2192939
209	0x3d8c578f	0.06852638
210	0xbe158d70	-0.14604735
211	0x3dfe7db5	0.124263205
212	0xbe6f0e7c	-0.23345369
213	0x3e607d54	0.21922809
214	0xbe2e29ba	-0.17008105
215	0x3c73a90a	0.014871845
216	0xbc4e70aa	-0.012600103
217	0x3d2205af	0.0395562
218	0x3e5d2692	0.21596745
219	0x3e4dee13	0.2011035
220	0x3e4a2b08	0.19742978
221	0x3e32605f	0.17419575
222	0xbe7d5a39	-0.24741448
223	0xbe754d06	-0.23955163
224	0xbe54d289	-0.20783438
225	0xbe0b2128	-0.13586867
226	0xbe660964	-0.2246452
227	0x3e6a6b00	0.2289238
228	0xbdd44e08	-0.10366446
229	0xbd36647e	-0.04452943
230	0xbcd7b858	-0.02633302
231	0x3dad6b8c	0.084677786
232	0xbe5a59e5	-0.21323355
233	0xbe227f49	-0.15868868
234	0xbe4ad56d	-0.19807978
235	0xbe3b7512	-0.18306378
236	0x3e7ed1e6	0.24884757
237	0xbe70c464	-0.23512417
238	0xbd9beb46	-0.07613234
239	0x3d0d744c	0.034534737
240	0xbe05f952	-0.1308339
241	0xbe5d5ee5	-0.2161823
242	0xbe5f0e3e	-0.21782777
243	0x3b1b603b	0.002370848
244	0xbde44c00	-0.11147308
245	0xbdf0d3e4	-0.11759165
246	0x3e705b92	0.23472431
247	0xbdde1e1b	-0.10845586
248	0x3bbd45e7	0.0057761553
249	0xbe8fbfe7	-0.28076097
250	0xbe7631a6	-0.24042377
251	0xbe80a0b7	-0.25122616
252	0xbe3c0841	-0.18362524
253	0xbda72bb1	-0.0816263
254	0x3e406f42	0.18792441
255	0xbd819c28	-0.063286126

rnn.bias_ih_l0_reverse f4 [192]
0	0xbeca462c	-0.39506662
1	0xbf4087fb	-0.7520749
2	0x3d4d6c8b	0.050152343
3	0x3c68fd2d	0.014220518
4	0xbe977312	-0.2957998
5	0xbff5cba7	-1.9202775
6	0xbf0df3cb	-0.55450124
7	0xc00b8736	-2.1801276
8	0x3d124c97	0.035717573
9	0x3d02b4b4	0.031910613
10	0xbe33c2a0	-0.17554712
11	0xbfc58fc6	-1.5434501
12	0x3d9613e6	0.07328014
13	0xbf8cc459	-1.099742
14	0xbe92c537	-0.28666088
15	0xbe03b515	-0.12862046
16	0xbe21b20a	-0.15790573
17	0xbfb5e8dd	-1.4211689
18	0xbe8919e5	-0.26777568
19	0x3dafc138	0.085817754
20	0xbe401f38	-0.18761909
21	0xbdde3984	-0.10850814
22	0xc005a4cc	-2.0881834
23	0xc00e2c38	-2.221449
24	0xbf8ff0b7	-1.1245335
25	0x3ce2c5f2	0.027682278
26	0xbf50b806	-0.815308
27	0xbf9e019b	-1.234424
28	0xbfc85bd0	-1.5653019
29	0xbf8085ae	-1.0040796
30	0xbea10d02	-0.31455237
31	0xbdc9884c	-0.0984045
32	0xbfaf2bb5	-1.3685213
33	0xbfb71d00	-1.4305725
34	0x3d7f02c6	0.062258504
35	0xbde7ebc4	-0.113242656
36	0xbd6b1e65	-0.057402033
37	0xbef07484	-0.46963894
38	0xc009b06c	-2.151393
39	0xbfa59aa7	-1.2937821
40	0xc0019aa5	-2.0250638
41	0x3d8f2765	0.06989936
42	0x3c0ac0d7	0.008468828
43	0xbf219f8d	-0.6313408
44	0xbe8248b5	-0.25446096
45	0xbea814e2	-0.32828432
46	0xbf02f887	-0.5116047
47	0xbb8e5975	-0.00434416
48	0xbffe2c59	-1.9857284
49	0xbf756f7a	-0.95873225
50	0xbe33467d	-0.17507358
51	0xbfbb7d5a	-1.4647629
52	0xbf404385	-0.75103027
53	0xbf8205a5	-1.0157973
54	0x3e398c63	0.1811996
55	0x3cf7b764	0.030238815
56	0xbde48e3b	-0.11159941
57	0xbe2f4108	-0.17114651
58	0x3e0be72b	0.13662402
59	0xbe010d88	-0.12602818
60	0xbfdccaa3	-1.724934
61	0xbef94836	-0.48687905
62	0xbee3b6a6	-0.44475287
63	0xbfc7a7ae	-1.5598047
64	0x3f2afaa6	0.6678871
65	0x3f2dbdcd	0.6786774
66	0x3dc0e215	0.09418122
67	0x3dc51a34	0.096241385
68	0x3f0d4954	0.55190015
69	0x3f0732d1	0.52811915
70	0x3f33827e	0.7012099
71	0x3f16d9a7	0.5892586
72	0x3d3c1ffe	0.045928948
73	0x3e0f8a13	0.14017515
74	0x3ef3e17a	0.47632962
75	0x3ef52bd3	0.47884998
76	0x3c9c3ad3	0.019071018
77	0x3efa040e	0.48831218
78	0x3ee8df7f	0.45483014
79	0x3eb766b5	0.35820547
80	0x3ee48800	0.4463501
81	0x3f2167a7	0.63048786
82	0x3f283afe	0.65715015
83	0xbc24f4d8	-0.010068141
84	0x3f08eebd	0.53489286
85	0x3ea0193c	0.31269252
86	0x3f1065c6	0.56405294
87	0x3f19edfb	0.60128754
88	0x3f2c7294	0.6736233
89	0x3df81c57	0.121147804
90	0x3efae826	0.4900524
91	0x3f008d39	0.5021549
92	0x3ef2f2b2	0.47450787
93	0x3f1abb8d	0.6044243
94	0x3f19cf9d	0.6008242
95	0x3e76f852	0.24118164
96	0x3edef5e0	0.43546963
97	0x3f25ce8a	0.6476828
98	0x3c7b704d	0.015346599
99	0x3e981462	0.2970305
100	0x3e9ff370	0.31240416
101	0x3f3e6014	0.74365354
102	0x3f182c53	0.59442633
103	0x3f1c4786	0.61046636
104	0x3edf1bbd	0.4357585
105	0x3c4c696a	0.012476305
106	0x3e1b5f84	0.15173155
107	0x3f2a42f7	0.6650843
108	0x3f1e093f	0.6173286
109	0x3f1cffd7	0.6132788
110	0x3f323f6e	0.69628036
111	0x3e2daccd	0.1696045
112	0x3f1cde0d	0.6127632
113	0x3ef23eb7	0.47313473
114	0x3ed4f7f7	0.41595432
115	0x3f27b59e	0.655115
116	0x3f31f399	0.69512326
117	0x3f2ed8d2	0.6829959
118	0xbde4914a	-0.11160524
119	0x3dbd9be5	0.0925825
120	0x3e98514b	0.29749522
121	0x3eeaaab9	0.45833376
122	0xbe3f7905	-0.18698509
123	0x3ec8a550	0.39188623
124	0x3f1053e5	0.5637801
125	0x3f23d820	0.64001656
126	0x3f3544de	0.7080821
127	0x3f242bef	0.6412954
128	0x3b6ad583	0.003583283
129	0xb9ba7450	-0.00035563344
130	0xba54d0c4	-0.00081182667
131	0x3c2a45d1	0.010392622
132	0xba8a2072	-0.0010538234
133	0xba655342	-0.0008748063
134	0xbb075f7d	-0.002065628
135	0x3b5cad31	0.0033672566
136	0xbc19d3e7	-0.0093889
137	0x3b936526	0.004498142
138	0xbb8e80b2	-0.004348838
139	0xbab307d1	-0.0013658946
140	0x3baa70c6	0.005201432
141	0xba443889	-0.0007485231
142	0x3b4598ae	0.0030150819
143	0xbaeb0b6f	-0.0017932485
144	0xbb4b9b7e	-0.0031068022
145	0x39158bec	0.00014261872
146	0xbb21b018	-0.002467161
147	0x3c0c63b2	0.008568691
148	0xbad4508d	-0.0016198322
149	0x3bae782c	0.005324384
150	0x3b04c6c4	0.0020260075
151	0xba25ed02	-0.00063295674
152	0xbaca4824	-0.0015432877
153	0x3baa66b9	0.005200234
154	0xba313bd0	-0.0006760927
155	0xba2c9a17	-0.00065842405
156	0x3a9c7071	0.0011935366
157	0x3a8c32ac	0.0010696254
158	0xbab9c7bf	-0.0014173909
159	0x3baa943e	0.00520566
160	0x3a9642ad	0.0011463963
161	0x3a6a676b	0.0008941802
162	0xbbca191b	-0.0061675436
163	0x3ac60035	0.0015106263
164	0xb7506f57	-1.2423689e-05
165	0xbbde2a06	-0.006779912
166	0xbb15d22d	-0.002286087
167	0xbaae359f	-0.0013291127
168	0x39dc8f5c	0.0004206848
169	0xb9a25f28	-0.00030969945
170	0x3a8233a6	0.0009933605
171	0xb5c3f9f4	-1.4601378e-06
172	0x3b08ca1f	0.0020872427
173	0xb9b97427	-0.0003537249
174	0x3b582a84	0.0032984326
175	0xb9c0f8c8	-0.0003680645
176	0xbad8e75e	-0.0016548445
177	0xbaea7e3a	-0.0017890402
178	0xba9915aa	-0.001167943
179	0xbb186f29	-0.0023259616
180	0xbb3efb28	-0.00291414
181	0xbb01af73	-0.0019788414
182	0xbae2cf59	-0.0017304226
183	0xbb8c341b	-0.0042786724
184	0x3b33ac02	0.0027415757
185	0xbaef92cd	-0.0018278003
186	0xbc5ba91d	-0.013407019
187	0xbaa2bb7e	-0.0012415496
188	0xba4afa4e	-0.0007742987
189	0xba791900	-0.00095023215
190	0x3a87cbc3	0.0010360408
191	0xb99071ce	-0.0002755061

rnn.bias_hh_l0_reverse f4 [192]
0	0xbec5726f	-0.38563868
1	0xbf41c936	-0.7569765
2	0x3d502652	0.050817795
3	0x3cc019f9	0.023449885
4	0xbe9a4e9f	-0.30138108
5	0xbff51562	-1.914715
6	0xbf10d6d9	-0.5657783
7	0xc00c0603	-2.187867
8	0x3d46707e	0.048447125
9	0x3d479d6e	0.04873412
10	0xbe28b2cc	-0.16474456
11	0xbfc6a0fa	-1.5517876
12	0x3d936bc2	0.071982875
13	0xbf8b4964	-1.0881772
14	0xbe950cf5	-0.29111448
15	0xbe050e42	-0.1299372
16	0xbe1b7bcf	-0.15183948
17	0xbfb46a1e	-1.4094884
18	0xbe8721b5	-0.26392904
19	0x3da6edfd	0.081508614
20	0xbe38fd93	-0.18065481
21	0xbdd6ad14	-0.10482231
22	0xc0057dca	-2.0858026
23	0xc00eb720	-2.229927
24	0xbf90c3c9	-1.1309749
25	0x3ca0b7dd	0.019618923
26	0xbf50f151	-0.8161822
27	0xbf9e9840	-1.2390213
28	0xbfc7c674	-1.5607438
29	0xbf819898	-1.0124693
30	0xbea1506d	-0.31506673
31	0xbdec8b73	-0.11550035
32	0xbfb047dc	-1.377193
33	0xbfb92513	-1.4464439
34	0x3d6d59f8	0.05794713
35	0xbde604f8	-0.112314165
36	0xbd6167d0	-0.055030644
37	0xbeeb4cdd	-0.4595708
38	0xc00a2038	-2.1582165
39	0xbfa57756	-1.2927043
40	0xc00248f9	-2.035704
41	0x3d8e8f03	0.06960871
42	0x3bbf12a3	0.005831079
43	0xbf2473e0	-0.6423931
44	0xbe7d0475	-0.24708731
45	0xbe9ff744	-0.31243336
46	0xbf021f58	-0.50829077
47	0xbb318f7e	-0.0027093585
48	0xbffdeb0a	-1.9837353
49	0xbf73b520	-0.9519825
50	0xbe312b17	-0.17301594
51	0xbfbc0024	-1.4687543
52	0xbf42f406	-0.761536
53	0xbf80c43d	-1.0059887
54	0x3e3c6ab7	0.18400083
55	0x3cc3cf0b	0.023902437
56	0xbdd58208	-0.10425192
57	0xbe2c6b8c	-0.16837901
58	0x3e0ca916	0.13736376
59	0xbdfcc405	-0.12342075
60	0xbfdcd381	-1.7252046
61	0xbef5eb54	-0.48031104
62	0xbee55ab3	-0.4479576
63	0xbfc5e801	-1.5461427
64	0x3f28e6ad	0.65976983
65	0x3f2d4ffc	0.6770017
66	0x3da8c062	0.08239819
67	0x3dd325e5	0.10309962
68	0x3f0d26b1	0.55137163
69	0x3f073c95	0.52826816
70	0x3f342733	0.70372313
71	0x3f17f3e2	0.5935651
72	0x3d3285a6	0.04358449
73	0x3e04fd6a	0.12987295
74	0x3ef1fdb4	0.47263873
75	0x3ef8bf91	0.48583654
76	0x3cee38d8	0.02907984
77	0x3efba789	0.49151257
78	0x3ee10d72	0.4395557
79	0x3ebb5f16	0.36595982
80	0x3ee9e25d	0.45680514
81	0x3f214157	0.62990326
82	0x3f2be8dc	0.6715219
83	0xbb8ba691	-0.0042617996
84	0x3f097b2a	0.5370356
85	0x3ea35a0b	0.31904635
86	0x3f1362a2	0.57572377
87	0x3f15ee4e	0.5856675
88	0x3f2b2137	0.66847557
89	0x3dfc6e18	0.12325686
90	0x3efb462d	0.49076977
91	0x3f018d2c	0.50606036
92	0x3efb8ca2	0.49130732
93	0x3f195cb2	0.59907067
94	0x3f1a60e4	0.60304093
95	0x3e791aae	0.24326584
96	0x3ede5aa9	0.43428543
97	0x3f25261f	0.64511293
98	0x3c476b96	0.012171647
99	0x3e9c3ed1	0.30516675
100	0x3e9a702f	0.30163714
101	0x3f3e9b82	0.74456036
102	0x3f1b1fdf	0.60595506
103	0x3f1d13b0	0.61358166
104	0x3ee1f815	0.44134584
105	0x3c52e773	0.012872565
106	0x3e133d8f	0.14378951
107	0x3f26f52e	0.65217865
108	0x3f1b9cc9	0.6078611
109	0x3f1e7f97	0.61913437
110	0x3f33e55c	0.7027185
111	0x3e1ff0f9	0.15619268
112	0x3f1a5037	0.6027865
113	0x3eecc587	0.4624445
114	0x3ed27553	0.41105136
115	0x3f2711e0	0.6526165
116	0x3f33e0ca	0.70264876
117	0x3f2da1a4	0.6782477
118	0xbddbdf6b	-0.10735973
119	0x3d961f09	0.07330138
120	0x3e999739	0.29998186
121	0x3ee87e9b	0.45409092
122	0xbe4baf8a	-0.19891182
123	0x3ecc2e35	0.39879003
124	0x3f0db986	0.5536121
125	0x3f232947	0.6373486
126	0x3f34cbe7	0.7062363
127	0x3f281599	0.65657955
128	0x3ab9aa41	0.001416512
129	0xba6274a5	-0.0008638597
130	0xbc75ec2f	-0.015009924
131	0xbc2ef6a9	-0.010678926
132	0x3bbe0428	0.0057988353
133	0xb82e933d	-4.162196e-05
134	0xbc0c9cd0	-0.008582309
135	0x3b6c55bc	0.0036061844
136	0xbb782473	-0.0037863522
137	0xbc96c9d8	-0.018406793
138	0xbc5a2413	-0.013314265
139	0xbb8fd531	-0.004389428
140	0xba5d27d5	-0.00084364164
141	0x3b56f877	0.0032801905
142	0xb899d48d	-7.335199e-05
143	0x3ba4f19f	0.0050336863
144	0x3b8da056	0.004322092
145	0xbac26f06	-0.0014834113
146	0xbb376d7e	-0.0027988846
147	0x3b2b6af7	0.0026156285
148	0x3b155db0	0.0022791438
149	0xbb23569b	-0.0024923447
150	0x3b4cb3da	0.003123513
151	0xba005171	-0.0004894948
152	0xba662b6d	-0.00087802747
153	0xbc81b6f4	-0.01583431
154	0x3a87f120	0.0010371543
155	0xbbb0f4ef	-0.005400292
156	0x3ab027c7	0.0013439589
157	0xbb64b866	-0.003489995
158	0x3a9c7b46	0.0011938594
159	0xbc66c1ac	-0.014084261
160	0x3b67f23d	0.0035392188
161	0x3bb212c7	0.0054343673
162	0x39354948	0.00017288805
163	0x3c4dd591	0.012563125
164	0xbc8586c4	-0.016299613
165	0x3bb1098b	0.005402749
166	0xbb1e0578	-0.0024112146
167	0x3b28e92e	0.0025773752
168	0x3b1a69d6	0.0023561618
169	0x3983b8ab	0.00025123855
170	0xbc581046	-0.013187474
171	0x3bc69b3d	0.0060609863
172	0xbb252f0c	-0.0025205044
173	0x3b87d511	0.0041452725
174	0xbb9aefed	-0.0047283084
175	0x3c448732	0.011995124
176	0xba9575f6	-0.0011402953
177	0xbb5fe8a8	-0.0034165774
178	0x3c3734e0	0.01118204
179	0xbb15c8a1	-0.002285518
180	0x3a6c1955	0.00090064603
181	0xba9a755c	-0.0011784243
182	0xbc0d173e	-0.008611498
183	0x3b93f451	0.004515209
184	0xbb63a286	-0.0034734323
185	0xbbd7eee7	-0.0065897587
186	0xbb69721f	-0.0035621
187	0x3acdbc04	0.0015696292
188	0x3a4a433f	0.0007715709
189	0xbaa5c5f7	-0.0012647499
190	0xbad8d99b	-0.0016544344
191	0x3b2d594e	0.0026450935
